<?xml version="1.0"?>
<net name="onnx_Frontend_IR" version="11">
	<layers>
		<layer id="0" name="images" type="Parameter" version="opset1">
			<data shape="16,3,640,640" element_type="f32" />
			<output>
				<port id="0" precision="FP32" names="images">
					<dim>16</dim>
					<dim>3</dim>
					<dim>640</dim>
					<dim>640</dim>
				</port>
			</output>
		</layer>
		<layer id="1" name="/head/Unsqueeze_15_output_0" type="Const" version="opset1">
			<data element_type="f32" shape="1, 2, 8400" offset="0" size="67200" />
			<output>
				<port id="0" precision="FP32" names="/head/Unsqueeze_15_output_0">
					<dim>1</dim>
					<dim>2</dim>
					<dim>8400</dim>
				</port>
			</output>
		</layer>
		<layer id="2" name="Constant_28797" type="Const" version="opset1">
			<data element_type="f32" shape="1, 1, 1, 1" offset="67200" size="4" />
			<output>
				<port id="0" precision="FP32">
					<dim>1</dim>
					<dim>1</dim>
					<dim>1</dim>
					<dim>1</dim>
				</port>
			</output>
		</layer>
		<layer id="3" name="Constant_28798" type="Const" version="opset1">
			<data element_type="f32" shape="1, 1, 1, 1" offset="67204" size="4" />
			<output>
				<port id="0" precision="FP32">
					<dim>1</dim>
					<dim>1</dim>
					<dim>1</dim>
					<dim>1</dim>
				</port>
			</output>
		</layer>
		<layer id="4" name="Constant_28799" type="Const" version="opset1">
			<data element_type="f32" shape="1, 1, 1, 1" offset="67200" size="4" />
			<output>
				<port id="0" precision="FP32">
					<dim>1</dim>
					<dim>1</dim>
					<dim>1</dim>
					<dim>1</dim>
				</port>
			</output>
		</layer>
		<layer id="5" name="Constant_28800" type="Const" version="opset1">
			<data element_type="f32" shape="1, 1, 1, 1" offset="67204" size="4" />
			<output>
				<port id="0" precision="FP32">
					<dim>1</dim>
					<dim>1</dim>
					<dim>1</dim>
					<dim>1</dim>
				</port>
			</output>
		</layer>
		<layer id="6" name="images_DequantizeLinear" type="FakeQuantize" version="opset1">
			<data levels="256" auto_broadcast="numpy" />
			<input>
				<port id="0" precision="FP32">
					<dim>16</dim>
					<dim>3</dim>
					<dim>640</dim>
					<dim>640</dim>
				</port>
				<port id="1" precision="FP32">
					<dim>1</dim>
					<dim>1</dim>
					<dim>1</dim>
					<dim>1</dim>
				</port>
				<port id="2" precision="FP32">
					<dim>1</dim>
					<dim>1</dim>
					<dim>1</dim>
					<dim>1</dim>
				</port>
				<port id="3" precision="FP32">
					<dim>1</dim>
					<dim>1</dim>
					<dim>1</dim>
					<dim>1</dim>
				</port>
				<port id="4" precision="FP32">
					<dim>1</dim>
					<dim>1</dim>
					<dim>1</dim>
					<dim>1</dim>
				</port>
			</input>
			<output>
				<port id="5" precision="FP32" names="images_DequantizeLinear_Output">
					<dim>16</dim>
					<dim>3</dim>
					<dim>640</dim>
					<dim>640</dim>
				</port>
			</output>
		</layer>
		<layer id="7" name="onnx::Conv_3257_quantized" type="Const" version="opset1">
			<data element_type="i8" shape="16, 3, 3, 3" offset="67208" size="432" />
			<output>
				<port id="0" precision="I8" names="onnx::Conv_3257_quantized">
					<dim>16</dim>
					<dim>3</dim>
					<dim>3</dim>
					<dim>3</dim>
				</port>
			</output>
		</layer>
		<layer id="8" name="Convert_116" type="Convert" version="opset1">
			<data destination_type="f32" />
			<input>
				<port id="0" precision="I8">
					<dim>16</dim>
					<dim>3</dim>
					<dim>3</dim>
					<dim>3</dim>
				</port>
			</input>
			<output>
				<port id="1" precision="FP32">
					<dim>16</dim>
					<dim>3</dim>
					<dim>3</dim>
					<dim>3</dim>
				</port>
			</output>
		</layer>
		<layer id="9" name="Constant_28801" type="Const" version="opset1">
			<data element_type="f32" shape="1, 1, 1, 1" offset="67640" size="4" />
			<output>
				<port id="0" precision="FP32">
					<dim>1</dim>
					<dim>1</dim>
					<dim>1</dim>
					<dim>1</dim>
				</port>
			</output>
		</layer>
		<layer id="10" name="onnx::Conv_3257_DequantizeLinear" type="Multiply" version="opset1">
			<data auto_broadcast="numpy" />
			<input>
				<port id="0" precision="FP32">
					<dim>16</dim>
					<dim>3</dim>
					<dim>3</dim>
					<dim>3</dim>
				</port>
				<port id="1" precision="FP32">
					<dim>1</dim>
					<dim>1</dim>
					<dim>1</dim>
					<dim>1</dim>
				</port>
			</input>
			<output>
				<port id="2" precision="FP32" names="onnx::Conv_3257_DequantizeLinear_Output">
					<dim>16</dim>
					<dim>3</dim>
					<dim>3</dim>
					<dim>3</dim>
				</port>
			</output>
		</layer>
		<layer id="11" name="/backbone/p1/p1.0/conv/Conv/WithoutBiases" type="Convolution" version="opset1">
			<data strides="2, 2" dilations="1, 1" pads_begin="1, 1" pads_end="1, 1" auto_pad="explicit" />
			<input>
				<port id="0" precision="FP32">
					<dim>16</dim>
					<dim>3</dim>
					<dim>640</dim>
					<dim>640</dim>
				</port>
				<port id="1" precision="FP32">
					<dim>16</dim>
					<dim>3</dim>
					<dim>3</dim>
					<dim>3</dim>
				</port>
			</input>
			<output>
				<port id="2" precision="FP32">
					<dim>16</dim>
					<dim>16</dim>
					<dim>320</dim>
					<dim>320</dim>
				</port>
			</output>
		</layer>
		<layer id="12" name="onnx::Conv_3258_quantized" type="Const" version="opset1">
			<data element_type="i32" shape="16" offset="67644" size="64" />
			<output>
				<port id="0" precision="I32" names="onnx::Conv_3258_quantized">
					<dim>16</dim>
				</port>
			</output>
		</layer>
		<layer id="13" name="Convert_124" type="Convert" version="opset1">
			<data destination_type="f32" />
			<input>
				<port id="0" precision="I32">
					<dim>16</dim>
				</port>
			</input>
			<output>
				<port id="1" precision="FP32">
					<dim>16</dim>
				</port>
			</output>
		</layer>
		<layer id="14" name="onnx::Conv_3258_quantized_scale" type="Const" version="opset1">
			<data element_type="f32" shape="1" offset="67708" size="4" />
			<output>
				<port id="0" precision="FP32" names="onnx::Conv_3258_quantized_scale">
					<dim>1</dim>
				</port>
			</output>
		</layer>
		<layer id="15" name="onnx::Conv_3258_DequantizeLinear" type="Multiply" version="opset1">
			<data auto_broadcast="numpy" />
			<input>
				<port id="0" precision="FP32">
					<dim>16</dim>
				</port>
				<port id="1" precision="FP32">
					<dim>1</dim>
				</port>
			</input>
			<output>
				<port id="2" precision="FP32" names="onnx::Conv_3258">
					<dim>16</dim>
				</port>
			</output>
		</layer>
		<layer id="16" name="Concat_1662" type="Const" version="opset1">
			<data element_type="i64" shape="4" offset="67712" size="32" />
			<output>
				<port id="0" precision="I64">
					<dim>4</dim>
				</port>
			</output>
		</layer>
		<layer id="17" name="Reshape_1663" type="Reshape" version="opset1">
			<data special_zero="false" />
			<input>
				<port id="0" precision="FP32">
					<dim>16</dim>
				</port>
				<port id="1" precision="I64">
					<dim>4</dim>
				</port>
			</input>
			<output>
				<port id="2" precision="FP32">
					<dim>1</dim>
					<dim>16</dim>
					<dim>1</dim>
					<dim>1</dim>
				</port>
			</output>
		</layer>
		<layer id="18" name="/backbone/p1/p1.0/conv/Conv" type="Add" version="opset1">
			<data auto_broadcast="numpy" />
			<input>
				<port id="0" precision="FP32">
					<dim>16</dim>
					<dim>16</dim>
					<dim>320</dim>
					<dim>320</dim>
				</port>
				<port id="1" precision="FP32">
					<dim>1</dim>
					<dim>16</dim>
					<dim>1</dim>
					<dim>1</dim>
				</port>
			</input>
			<output>
				<port id="2" precision="FP32" names="/backbone/p1/p1.0/conv/Conv_output_0">
					<dim>16</dim>
					<dim>16</dim>
					<dim>320</dim>
					<dim>320</dim>
				</port>
			</output>
		</layer>
		<layer id="19" name="Constant_28802" type="Const" version="opset1">
			<data element_type="f32" shape="1, 1, 1, 1" offset="67744" size="4" />
			<output>
				<port id="0" precision="FP32">
					<dim>1</dim>
					<dim>1</dim>
					<dim>1</dim>
					<dim>1</dim>
				</port>
			</output>
		</layer>
		<layer id="20" name="Constant_28803" type="Const" version="opset1">
			<data element_type="f32" shape="1, 1, 1, 1" offset="67748" size="4" />
			<output>
				<port id="0" precision="FP32">
					<dim>1</dim>
					<dim>1</dim>
					<dim>1</dim>
					<dim>1</dim>
				</port>
			</output>
		</layer>
		<layer id="21" name="Constant_28804" type="Const" version="opset1">
			<data element_type="f32" shape="1, 1, 1, 1" offset="67744" size="4" />
			<output>
				<port id="0" precision="FP32">
					<dim>1</dim>
					<dim>1</dim>
					<dim>1</dim>
					<dim>1</dim>
				</port>
			</output>
		</layer>
		<layer id="22" name="Constant_28805" type="Const" version="opset1">
			<data element_type="f32" shape="1, 1, 1, 1" offset="67748" size="4" />
			<output>
				<port id="0" precision="FP32">
					<dim>1</dim>
					<dim>1</dim>
					<dim>1</dim>
					<dim>1</dim>
				</port>
			</output>
		</layer>
		<layer id="23" name="/backbone/p1/p1.0/conv/Conv_output_0_DequantizeLinear" type="FakeQuantize" version="opset1">
			<data levels="256" auto_broadcast="numpy" />
			<input>
				<port id="0" precision="FP32">
					<dim>16</dim>
					<dim>16</dim>
					<dim>320</dim>
					<dim>320</dim>
				</port>
				<port id="1" precision="FP32">
					<dim>1</dim>
					<dim>1</dim>
					<dim>1</dim>
					<dim>1</dim>
				</port>
				<port id="2" precision="FP32">
					<dim>1</dim>
					<dim>1</dim>
					<dim>1</dim>
					<dim>1</dim>
				</port>
				<port id="3" precision="FP32">
					<dim>1</dim>
					<dim>1</dim>
					<dim>1</dim>
					<dim>1</dim>
				</port>
				<port id="4" precision="FP32">
					<dim>1</dim>
					<dim>1</dim>
					<dim>1</dim>
					<dim>1</dim>
				</port>
			</input>
			<output>
				<port id="5" precision="FP32" names="/backbone/p1/p1.0/conv/Conv_output_0_DequantizeLinear_Output">
					<dim>16</dim>
					<dim>16</dim>
					<dim>320</dim>
					<dim>320</dim>
				</port>
			</output>
		</layer>
		<layer id="24" name="/backbone/p1/p1.0/relu/Mul" type="Swish" version="opset4">
			<input>
				<port id="0" precision="FP32">
					<dim>16</dim>
					<dim>16</dim>
					<dim>320</dim>
					<dim>320</dim>
				</port>
			</input>
			<output>
				<port id="1" precision="FP32" names="/backbone/p1/p1.0/relu/Mul_output_0">
					<dim>16</dim>
					<dim>16</dim>
					<dim>320</dim>
					<dim>320</dim>
				</port>
			</output>
		</layer>
		<layer id="25" name="Constant_28806" type="Const" version="opset1">
			<data element_type="f32" shape="1, 1, 1, 1" offset="67200" size="4" />
			<output>
				<port id="0" precision="FP32">
					<dim>1</dim>
					<dim>1</dim>
					<dim>1</dim>
					<dim>1</dim>
				</port>
			</output>
		</layer>
		<layer id="26" name="Constant_28807" type="Const" version="opset1">
			<data element_type="f32" shape="1, 1, 1, 1" offset="67752" size="4" />
			<output>
				<port id="0" precision="FP32">
					<dim>1</dim>
					<dim>1</dim>
					<dim>1</dim>
					<dim>1</dim>
				</port>
			</output>
		</layer>
		<layer id="27" name="Constant_28808" type="Const" version="opset1">
			<data element_type="f32" shape="1, 1, 1, 1" offset="67200" size="4" />
			<output>
				<port id="0" precision="FP32">
					<dim>1</dim>
					<dim>1</dim>
					<dim>1</dim>
					<dim>1</dim>
				</port>
			</output>
		</layer>
		<layer id="28" name="Constant_28809" type="Const" version="opset1">
			<data element_type="f32" shape="1, 1, 1, 1" offset="67752" size="4" />
			<output>
				<port id="0" precision="FP32">
					<dim>1</dim>
					<dim>1</dim>
					<dim>1</dim>
					<dim>1</dim>
				</port>
			</output>
		</layer>
		<layer id="29" name="/backbone/p1/p1.0/relu/Mul_output_0_DequantizeLinear" type="FakeQuantize" version="opset1">
			<data levels="256" auto_broadcast="numpy" />
			<input>
				<port id="0" precision="FP32">
					<dim>16</dim>
					<dim>16</dim>
					<dim>320</dim>
					<dim>320</dim>
				</port>
				<port id="1" precision="FP32">
					<dim>1</dim>
					<dim>1</dim>
					<dim>1</dim>
					<dim>1</dim>
				</port>
				<port id="2" precision="FP32">
					<dim>1</dim>
					<dim>1</dim>
					<dim>1</dim>
					<dim>1</dim>
				</port>
				<port id="3" precision="FP32">
					<dim>1</dim>
					<dim>1</dim>
					<dim>1</dim>
					<dim>1</dim>
				</port>
				<port id="4" precision="FP32">
					<dim>1</dim>
					<dim>1</dim>
					<dim>1</dim>
					<dim>1</dim>
				</port>
			</input>
			<output>
				<port id="5" precision="FP32" names="/backbone/p1/p1.0/relu/Mul_output_0_DequantizeLinear_Output">
					<dim>16</dim>
					<dim>16</dim>
					<dim>320</dim>
					<dim>320</dim>
				</port>
			</output>
		</layer>
		<layer id="30" name="onnx::Conv_3260_quantized" type="Const" version="opset1">
			<data element_type="i8" shape="32, 16, 3, 3" offset="67756" size="4608" />
			<output>
				<port id="0" precision="I8" names="onnx::Conv_3260_quantized">
					<dim>32</dim>
					<dim>16</dim>
					<dim>3</dim>
					<dim>3</dim>
				</port>
			</output>
		</layer>
		<layer id="31" name="Convert_132" type="Convert" version="opset1">
			<data destination_type="f32" />
			<input>
				<port id="0" precision="I8">
					<dim>32</dim>
					<dim>16</dim>
					<dim>3</dim>
					<dim>3</dim>
				</port>
			</input>
			<output>
				<port id="1" precision="FP32">
					<dim>32</dim>
					<dim>16</dim>
					<dim>3</dim>
					<dim>3</dim>
				</port>
			</output>
		</layer>
		<layer id="32" name="Constant_28810" type="Const" version="opset1">
			<data element_type="f32" shape="1, 1, 1, 1" offset="72364" size="4" />
			<output>
				<port id="0" precision="FP32">
					<dim>1</dim>
					<dim>1</dim>
					<dim>1</dim>
					<dim>1</dim>
				</port>
			</output>
		</layer>
		<layer id="33" name="onnx::Conv_3260_DequantizeLinear" type="Multiply" version="opset1">
			<data auto_broadcast="numpy" />
			<input>
				<port id="0" precision="FP32">
					<dim>32</dim>
					<dim>16</dim>
					<dim>3</dim>
					<dim>3</dim>
				</port>
				<port id="1" precision="FP32">
					<dim>1</dim>
					<dim>1</dim>
					<dim>1</dim>
					<dim>1</dim>
				</port>
			</input>
			<output>
				<port id="2" precision="FP32" names="onnx::Conv_3260_DequantizeLinear_Output">
					<dim>32</dim>
					<dim>16</dim>
					<dim>3</dim>
					<dim>3</dim>
				</port>
			</output>
		</layer>
		<layer id="34" name="/backbone/p2/p2.0/conv/Conv/WithoutBiases" type="Convolution" version="opset1">
			<data strides="2, 2" dilations="1, 1" pads_begin="1, 1" pads_end="1, 1" auto_pad="explicit" />
			<input>
				<port id="0" precision="FP32">
					<dim>16</dim>
					<dim>16</dim>
					<dim>320</dim>
					<dim>320</dim>
				</port>
				<port id="1" precision="FP32">
					<dim>32</dim>
					<dim>16</dim>
					<dim>3</dim>
					<dim>3</dim>
				</port>
			</input>
			<output>
				<port id="2" precision="FP32">
					<dim>16</dim>
					<dim>32</dim>
					<dim>160</dim>
					<dim>160</dim>
				</port>
			</output>
		</layer>
		<layer id="35" name="onnx::Conv_3261_quantized" type="Const" version="opset1">
			<data element_type="i32" shape="32" offset="72368" size="128" />
			<output>
				<port id="0" precision="I32" names="onnx::Conv_3261_quantized">
					<dim>32</dim>
				</port>
			</output>
		</layer>
		<layer id="36" name="Convert_140" type="Convert" version="opset1">
			<data destination_type="f32" />
			<input>
				<port id="0" precision="I32">
					<dim>32</dim>
				</port>
			</input>
			<output>
				<port id="1" precision="FP32">
					<dim>32</dim>
				</port>
			</output>
		</layer>
		<layer id="37" name="onnx::Conv_3261_quantized_scale" type="Const" version="opset1">
			<data element_type="f32" shape="1" offset="72496" size="4" />
			<output>
				<port id="0" precision="FP32" names="onnx::Conv_3261_quantized_scale">
					<dim>1</dim>
				</port>
			</output>
		</layer>
		<layer id="38" name="onnx::Conv_3261_DequantizeLinear" type="Multiply" version="opset1">
			<data auto_broadcast="numpy" />
			<input>
				<port id="0" precision="FP32">
					<dim>32</dim>
				</port>
				<port id="1" precision="FP32">
					<dim>1</dim>
				</port>
			</input>
			<output>
				<port id="2" precision="FP32" names="onnx::Conv_3261">
					<dim>32</dim>
				</port>
			</output>
		</layer>
		<layer id="39" name="Concat_1713" type="Const" version="opset1">
			<data element_type="i64" shape="4" offset="72500" size="32" />
			<output>
				<port id="0" precision="I64">
					<dim>4</dim>
				</port>
			</output>
		</layer>
		<layer id="40" name="Reshape_1714" type="Reshape" version="opset1">
			<data special_zero="false" />
			<input>
				<port id="0" precision="FP32">
					<dim>32</dim>
				</port>
				<port id="1" precision="I64">
					<dim>4</dim>
				</port>
			</input>
			<output>
				<port id="2" precision="FP32">
					<dim>1</dim>
					<dim>32</dim>
					<dim>1</dim>
					<dim>1</dim>
				</port>
			</output>
		</layer>
		<layer id="41" name="/backbone/p2/p2.0/conv/Conv" type="Add" version="opset1">
			<data auto_broadcast="numpy" />
			<input>
				<port id="0" precision="FP32">
					<dim>16</dim>
					<dim>32</dim>
					<dim>160</dim>
					<dim>160</dim>
				</port>
				<port id="1" precision="FP32">
					<dim>1</dim>
					<dim>32</dim>
					<dim>1</dim>
					<dim>1</dim>
				</port>
			</input>
			<output>
				<port id="2" precision="FP32" names="/backbone/p2/p2.0/conv/Conv_output_0">
					<dim>16</dim>
					<dim>32</dim>
					<dim>160</dim>
					<dim>160</dim>
				</port>
			</output>
		</layer>
		<layer id="42" name="Constant_28811" type="Const" version="opset1">
			<data element_type="f32" shape="1, 1, 1, 1" offset="72532" size="4" />
			<output>
				<port id="0" precision="FP32">
					<dim>1</dim>
					<dim>1</dim>
					<dim>1</dim>
					<dim>1</dim>
				</port>
			</output>
		</layer>
		<layer id="43" name="Constant_28812" type="Const" version="opset1">
			<data element_type="f32" shape="1, 1, 1, 1" offset="72536" size="4" />
			<output>
				<port id="0" precision="FP32">
					<dim>1</dim>
					<dim>1</dim>
					<dim>1</dim>
					<dim>1</dim>
				</port>
			</output>
		</layer>
		<layer id="44" name="Constant_28813" type="Const" version="opset1">
			<data element_type="f32" shape="1, 1, 1, 1" offset="72532" size="4" />
			<output>
				<port id="0" precision="FP32">
					<dim>1</dim>
					<dim>1</dim>
					<dim>1</dim>
					<dim>1</dim>
				</port>
			</output>
		</layer>
		<layer id="45" name="Constant_28814" type="Const" version="opset1">
			<data element_type="f32" shape="1, 1, 1, 1" offset="72536" size="4" />
			<output>
				<port id="0" precision="FP32">
					<dim>1</dim>
					<dim>1</dim>
					<dim>1</dim>
					<dim>1</dim>
				</port>
			</output>
		</layer>
		<layer id="46" name="/backbone/p2/p2.0/conv/Conv_output_0_DequantizeLinear" type="FakeQuantize" version="opset1">
			<data levels="256" auto_broadcast="numpy" />
			<input>
				<port id="0" precision="FP32">
					<dim>16</dim>
					<dim>32</dim>
					<dim>160</dim>
					<dim>160</dim>
				</port>
				<port id="1" precision="FP32">
					<dim>1</dim>
					<dim>1</dim>
					<dim>1</dim>
					<dim>1</dim>
				</port>
				<port id="2" precision="FP32">
					<dim>1</dim>
					<dim>1</dim>
					<dim>1</dim>
					<dim>1</dim>
				</port>
				<port id="3" precision="FP32">
					<dim>1</dim>
					<dim>1</dim>
					<dim>1</dim>
					<dim>1</dim>
				</port>
				<port id="4" precision="FP32">
					<dim>1</dim>
					<dim>1</dim>
					<dim>1</dim>
					<dim>1</dim>
				</port>
			</input>
			<output>
				<port id="5" precision="FP32" names="/backbone/p2/p2.0/conv/Conv_output_0_DequantizeLinear_Output">
					<dim>16</dim>
					<dim>32</dim>
					<dim>160</dim>
					<dim>160</dim>
				</port>
			</output>
		</layer>
		<layer id="47" name="/backbone/p2/p2.0/relu/Mul" type="Swish" version="opset4">
			<input>
				<port id="0" precision="FP32">
					<dim>16</dim>
					<dim>32</dim>
					<dim>160</dim>
					<dim>160</dim>
				</port>
			</input>
			<output>
				<port id="1" precision="FP32" names="/backbone/p2/p2.0/relu/Mul_output_0">
					<dim>16</dim>
					<dim>32</dim>
					<dim>160</dim>
					<dim>160</dim>
				</port>
			</output>
		</layer>
		<layer id="48" name="Constant_28815" type="Const" version="opset1">
			<data element_type="f32" shape="1, 1, 1, 1" offset="67200" size="4" />
			<output>
				<port id="0" precision="FP32">
					<dim>1</dim>
					<dim>1</dim>
					<dim>1</dim>
					<dim>1</dim>
				</port>
			</output>
		</layer>
		<layer id="49" name="Constant_28816" type="Const" version="opset1">
			<data element_type="f32" shape="1, 1, 1, 1" offset="72540" size="4" />
			<output>
				<port id="0" precision="FP32">
					<dim>1</dim>
					<dim>1</dim>
					<dim>1</dim>
					<dim>1</dim>
				</port>
			</output>
		</layer>
		<layer id="50" name="Constant_28817" type="Const" version="opset1">
			<data element_type="f32" shape="1, 1, 1, 1" offset="67200" size="4" />
			<output>
				<port id="0" precision="FP32">
					<dim>1</dim>
					<dim>1</dim>
					<dim>1</dim>
					<dim>1</dim>
				</port>
			</output>
		</layer>
		<layer id="51" name="Constant_28818" type="Const" version="opset1">
			<data element_type="f32" shape="1, 1, 1, 1" offset="72540" size="4" />
			<output>
				<port id="0" precision="FP32">
					<dim>1</dim>
					<dim>1</dim>
					<dim>1</dim>
					<dim>1</dim>
				</port>
			</output>
		</layer>
		<layer id="52" name="/backbone/p2/p2.0/relu/Mul_output_0_DequantizeLinear" type="FakeQuantize" version="opset1">
			<data levels="256" auto_broadcast="numpy" />
			<input>
				<port id="0" precision="FP32">
					<dim>16</dim>
					<dim>32</dim>
					<dim>160</dim>
					<dim>160</dim>
				</port>
				<port id="1" precision="FP32">
					<dim>1</dim>
					<dim>1</dim>
					<dim>1</dim>
					<dim>1</dim>
				</port>
				<port id="2" precision="FP32">
					<dim>1</dim>
					<dim>1</dim>
					<dim>1</dim>
					<dim>1</dim>
				</port>
				<port id="3" precision="FP32">
					<dim>1</dim>
					<dim>1</dim>
					<dim>1</dim>
					<dim>1</dim>
				</port>
				<port id="4" precision="FP32">
					<dim>1</dim>
					<dim>1</dim>
					<dim>1</dim>
					<dim>1</dim>
				</port>
			</input>
			<output>
				<port id="5" precision="FP32" names="/backbone/p2/p2.0/relu/Mul_output_0_DequantizeLinear_Output">
					<dim>16</dim>
					<dim>32</dim>
					<dim>160</dim>
					<dim>160</dim>
				</port>
			</output>
		</layer>
		<layer id="53" name="onnx::Conv_3263_quantized" type="Const" version="opset1">
			<data element_type="i8" shape="32, 32, 1, 1" offset="72544" size="1024" />
			<output>
				<port id="0" precision="I8" names="onnx::Conv_3263_quantized">
					<dim>32</dim>
					<dim>32</dim>
					<dim>1</dim>
					<dim>1</dim>
				</port>
			</output>
		</layer>
		<layer id="54" name="Convert_148" type="Convert" version="opset1">
			<data destination_type="f32" />
			<input>
				<port id="0" precision="I8">
					<dim>32</dim>
					<dim>32</dim>
					<dim>1</dim>
					<dim>1</dim>
				</port>
			</input>
			<output>
				<port id="1" precision="FP32">
					<dim>32</dim>
					<dim>32</dim>
					<dim>1</dim>
					<dim>1</dim>
				</port>
			</output>
		</layer>
		<layer id="55" name="Constant_28819" type="Const" version="opset1">
			<data element_type="f32" shape="1, 1, 1, 1" offset="73568" size="4" />
			<output>
				<port id="0" precision="FP32">
					<dim>1</dim>
					<dim>1</dim>
					<dim>1</dim>
					<dim>1</dim>
				</port>
			</output>
		</layer>
		<layer id="56" name="onnx::Conv_3263_DequantizeLinear" type="Multiply" version="opset1">
			<data auto_broadcast="numpy" />
			<input>
				<port id="0" precision="FP32">
					<dim>32</dim>
					<dim>32</dim>
					<dim>1</dim>
					<dim>1</dim>
				</port>
				<port id="1" precision="FP32">
					<dim>1</dim>
					<dim>1</dim>
					<dim>1</dim>
					<dim>1</dim>
				</port>
			</input>
			<output>
				<port id="2" precision="FP32" names="onnx::Conv_3263_DequantizeLinear_Output">
					<dim>32</dim>
					<dim>32</dim>
					<dim>1</dim>
					<dim>1</dim>
				</port>
			</output>
		</layer>
		<layer id="57" name="/backbone/p2/p2.1/conv1/conv/Conv/WithoutBiases" type="Convolution" version="opset1">
			<data strides="1, 1" dilations="1, 1" pads_begin="0, 0" pads_end="0, 0" auto_pad="explicit" />
			<input>
				<port id="0" precision="FP32">
					<dim>16</dim>
					<dim>32</dim>
					<dim>160</dim>
					<dim>160</dim>
				</port>
				<port id="1" precision="FP32">
					<dim>32</dim>
					<dim>32</dim>
					<dim>1</dim>
					<dim>1</dim>
				</port>
			</input>
			<output>
				<port id="2" precision="FP32">
					<dim>16</dim>
					<dim>32</dim>
					<dim>160</dim>
					<dim>160</dim>
				</port>
			</output>
		</layer>
		<layer id="58" name="onnx::Conv_3264_quantized" type="Const" version="opset1">
			<data element_type="i32" shape="32" offset="73572" size="128" />
			<output>
				<port id="0" precision="I32" names="onnx::Conv_3264_quantized">
					<dim>32</dim>
				</port>
			</output>
		</layer>
		<layer id="59" name="Convert_156" type="Convert" version="opset1">
			<data destination_type="f32" />
			<input>
				<port id="0" precision="I32">
					<dim>32</dim>
				</port>
			</input>
			<output>
				<port id="1" precision="FP32">
					<dim>32</dim>
				</port>
			</output>
		</layer>
		<layer id="60" name="onnx::Conv_3264_quantized_scale" type="Const" version="opset1">
			<data element_type="f32" shape="1" offset="73700" size="4" />
			<output>
				<port id="0" precision="FP32" names="onnx::Conv_3264_quantized_scale">
					<dim>1</dim>
				</port>
			</output>
		</layer>
		<layer id="61" name="onnx::Conv_3264_DequantizeLinear" type="Multiply" version="opset1">
			<data auto_broadcast="numpy" />
			<input>
				<port id="0" precision="FP32">
					<dim>32</dim>
				</port>
				<port id="1" precision="FP32">
					<dim>1</dim>
				</port>
			</input>
			<output>
				<port id="2" precision="FP32" names="onnx::Conv_3264">
					<dim>32</dim>
				</port>
			</output>
		</layer>
		<layer id="62" name="Concat_1764" type="Const" version="opset1">
			<data element_type="i64" shape="4" offset="72500" size="32" />
			<output>
				<port id="0" precision="I64">
					<dim>4</dim>
				</port>
			</output>
		</layer>
		<layer id="63" name="Reshape_1765" type="Reshape" version="opset1">
			<data special_zero="false" />
			<input>
				<port id="0" precision="FP32">
					<dim>32</dim>
				</port>
				<port id="1" precision="I64">
					<dim>4</dim>
				</port>
			</input>
			<output>
				<port id="2" precision="FP32">
					<dim>1</dim>
					<dim>32</dim>
					<dim>1</dim>
					<dim>1</dim>
				</port>
			</output>
		</layer>
		<layer id="64" name="/backbone/p2/p2.1/conv1/conv/Conv" type="Add" version="opset1">
			<data auto_broadcast="numpy" />
			<input>
				<port id="0" precision="FP32">
					<dim>16</dim>
					<dim>32</dim>
					<dim>160</dim>
					<dim>160</dim>
				</port>
				<port id="1" precision="FP32">
					<dim>1</dim>
					<dim>32</dim>
					<dim>1</dim>
					<dim>1</dim>
				</port>
			</input>
			<output>
				<port id="2" precision="FP32" names="/backbone/p2/p2.1/conv1/conv/Conv_output_0">
					<dim>16</dim>
					<dim>32</dim>
					<dim>160</dim>
					<dim>160</dim>
				</port>
			</output>
		</layer>
		<layer id="65" name="Constant_28820" type="Const" version="opset1">
			<data element_type="f32" shape="1, 1, 1, 1" offset="73704" size="4" />
			<output>
				<port id="0" precision="FP32">
					<dim>1</dim>
					<dim>1</dim>
					<dim>1</dim>
					<dim>1</dim>
				</port>
			</output>
		</layer>
		<layer id="66" name="Constant_28821" type="Const" version="opset1">
			<data element_type="f32" shape="1, 1, 1, 1" offset="73708" size="4" />
			<output>
				<port id="0" precision="FP32">
					<dim>1</dim>
					<dim>1</dim>
					<dim>1</dim>
					<dim>1</dim>
				</port>
			</output>
		</layer>
		<layer id="67" name="Constant_28822" type="Const" version="opset1">
			<data element_type="f32" shape="1, 1, 1, 1" offset="73704" size="4" />
			<output>
				<port id="0" precision="FP32">
					<dim>1</dim>
					<dim>1</dim>
					<dim>1</dim>
					<dim>1</dim>
				</port>
			</output>
		</layer>
		<layer id="68" name="Constant_28823" type="Const" version="opset1">
			<data element_type="f32" shape="1, 1, 1, 1" offset="73708" size="4" />
			<output>
				<port id="0" precision="FP32">
					<dim>1</dim>
					<dim>1</dim>
					<dim>1</dim>
					<dim>1</dim>
				</port>
			</output>
		</layer>
		<layer id="69" name="/backbone/p2/p2.1/conv1/conv/Conv_output_0_DequantizeLinear" type="FakeQuantize" version="opset1">
			<data levels="256" auto_broadcast="numpy" />
			<input>
				<port id="0" precision="FP32">
					<dim>16</dim>
					<dim>32</dim>
					<dim>160</dim>
					<dim>160</dim>
				</port>
				<port id="1" precision="FP32">
					<dim>1</dim>
					<dim>1</dim>
					<dim>1</dim>
					<dim>1</dim>
				</port>
				<port id="2" precision="FP32">
					<dim>1</dim>
					<dim>1</dim>
					<dim>1</dim>
					<dim>1</dim>
				</port>
				<port id="3" precision="FP32">
					<dim>1</dim>
					<dim>1</dim>
					<dim>1</dim>
					<dim>1</dim>
				</port>
				<port id="4" precision="FP32">
					<dim>1</dim>
					<dim>1</dim>
					<dim>1</dim>
					<dim>1</dim>
				</port>
			</input>
			<output>
				<port id="5" precision="FP32" names="/backbone/p2/p2.1/conv1/conv/Conv_output_0_DequantizeLinear_Output">
					<dim>16</dim>
					<dim>32</dim>
					<dim>160</dim>
					<dim>160</dim>
				</port>
			</output>
		</layer>
		<layer id="70" name="/backbone/p2/p2.1/conv1/relu/Mul" type="Swish" version="opset4">
			<input>
				<port id="0" precision="FP32">
					<dim>16</dim>
					<dim>32</dim>
					<dim>160</dim>
					<dim>160</dim>
				</port>
			</input>
			<output>
				<port id="1" precision="FP32" names="/backbone/p2/p2.1/conv1/relu/Mul_output_0">
					<dim>16</dim>
					<dim>32</dim>
					<dim>160</dim>
					<dim>160</dim>
				</port>
			</output>
		</layer>
		<layer id="71" name="/backbone/p2/p2.1/Constant_1_output_0" type="Const" version="opset1">
			<data element_type="i64" shape="1" offset="73712" size="8" />
			<output>
				<port id="0" precision="I64" names="/backbone/p2/p2.1/Constant_1_output_0">
					<dim>1</dim>
				</port>
			</output>
		</layer>
		<layer id="72" name="/backbone/p2/p2.1/Div_output_0" type="Const" version="opset1">
			<data element_type="i64" shape="1" offset="73720" size="8" />
			<output>
				<port id="0" precision="I64" names="/backbone/p2/p2.1/Div_output_0">
					<dim>1</dim>
				</port>
			</output>
		</layer>
		<layer id="73" name="Broadcast_1792" type="Const" version="opset1">
			<data element_type="i64" shape="1" offset="73728" size="8" />
			<output>
				<port id="0" precision="I64">
					<dim>1</dim>
				</port>
			</output>
		</layer>
		<layer id="74" name="/backbone/p2/p2.1/Constant_output_0" type="Const" version="opset1">
			<data element_type="i64" shape="1" offset="73728" size="8" />
			<output>
				<port id="0" precision="I64" names="/backbone/p2/p2.1/Constant_output_0">
					<dim>1</dim>
				</port>
			</output>
		</layer>
		<layer id="75" name="/backbone/p2/p2.1/Slice" type="Slice" version="opset8">
			<input>
				<port id="0" precision="FP32">
					<dim>16</dim>
					<dim>32</dim>
					<dim>160</dim>
					<dim>160</dim>
				</port>
				<port id="1" precision="I64">
					<dim>1</dim>
				</port>
				<port id="2" precision="I64">
					<dim>1</dim>
				</port>
				<port id="3" precision="I64">
					<dim>1</dim>
				</port>
				<port id="4" precision="I64">
					<dim>1</dim>
				</port>
			</input>
			<output>
				<port id="5" precision="FP32" names="/backbone/p2/p2.1/Slice_output_0">
					<dim>16</dim>
					<dim>16</dim>
					<dim>160</dim>
					<dim>160</dim>
				</port>
			</output>
		</layer>
		<layer id="76" name="/backbone/p2/p2.1/Mul_1_output_0" type="Const" version="opset1">
			<data element_type="i64" shape="1" offset="73736" size="8" />
			<output>
				<port id="0" precision="I64" names="/backbone/p2/p2.1/Mul_1_output_0">
					<dim>1</dim>
				</port>
			</output>
		</layer>
		<layer id="77" name="Broadcast_1800" type="Const" version="opset1">
			<data element_type="i64" shape="1" offset="73728" size="8" />
			<output>
				<port id="0" precision="I64">
					<dim>1</dim>
				</port>
			</output>
		</layer>
		<layer id="78" name="/backbone/p2/p2.1/Slice_1" type="Slice" version="opset8">
			<input>
				<port id="0" precision="FP32">
					<dim>16</dim>
					<dim>32</dim>
					<dim>160</dim>
					<dim>160</dim>
				</port>
				<port id="1" precision="I64">
					<dim>1</dim>
				</port>
				<port id="2" precision="I64">
					<dim>1</dim>
				</port>
				<port id="3" precision="I64">
					<dim>1</dim>
				</port>
				<port id="4" precision="I64">
					<dim>1</dim>
				</port>
			</input>
			<output>
				<port id="5" precision="FP32" names="/backbone/p2/p2.1/Slice_1_output_0">
					<dim>16</dim>
					<dim>16</dim>
					<dim>160</dim>
					<dim>160</dim>
				</port>
			</output>
		</layer>
		<layer id="79" name="Constant_28824" type="Const" version="opset1">
			<data element_type="f32" shape="1, 1, 1, 1" offset="73744" size="4" />
			<output>
				<port id="0" precision="FP32">
					<dim>1</dim>
					<dim>1</dim>
					<dim>1</dim>
					<dim>1</dim>
				</port>
			</output>
		</layer>
		<layer id="80" name="Constant_28825" type="Const" version="opset1">
			<data element_type="f32" shape="1, 1, 1, 1" offset="73748" size="4" />
			<output>
				<port id="0" precision="FP32">
					<dim>1</dim>
					<dim>1</dim>
					<dim>1</dim>
					<dim>1</dim>
				</port>
			</output>
		</layer>
		<layer id="81" name="Constant_28826" type="Const" version="opset1">
			<data element_type="f32" shape="1, 1, 1, 1" offset="73744" size="4" />
			<output>
				<port id="0" precision="FP32">
					<dim>1</dim>
					<dim>1</dim>
					<dim>1</dim>
					<dim>1</dim>
				</port>
			</output>
		</layer>
		<layer id="82" name="Constant_28827" type="Const" version="opset1">
			<data element_type="f32" shape="1, 1, 1, 1" offset="73748" size="4" />
			<output>
				<port id="0" precision="FP32">
					<dim>1</dim>
					<dim>1</dim>
					<dim>1</dim>
					<dim>1</dim>
				</port>
			</output>
		</layer>
		<layer id="83" name="/backbone/p2/p2.1/Slice_1_output_0_DequantizeLinear" type="FakeQuantize" version="opset1">
			<data levels="256" auto_broadcast="numpy" />
			<input>
				<port id="0" precision="FP32">
					<dim>16</dim>
					<dim>16</dim>
					<dim>160</dim>
					<dim>160</dim>
				</port>
				<port id="1" precision="FP32">
					<dim>1</dim>
					<dim>1</dim>
					<dim>1</dim>
					<dim>1</dim>
				</port>
				<port id="2" precision="FP32">
					<dim>1</dim>
					<dim>1</dim>
					<dim>1</dim>
					<dim>1</dim>
				</port>
				<port id="3" precision="FP32">
					<dim>1</dim>
					<dim>1</dim>
					<dim>1</dim>
					<dim>1</dim>
				</port>
				<port id="4" precision="FP32">
					<dim>1</dim>
					<dim>1</dim>
					<dim>1</dim>
					<dim>1</dim>
				</port>
			</input>
			<output>
				<port id="5" precision="FP32" names="/backbone/p2/p2.1/Slice_1_output_0_DequantizeLinear_Output">
					<dim>16</dim>
					<dim>16</dim>
					<dim>160</dim>
					<dim>160</dim>
				</port>
			</output>
		</layer>
		<layer id="84" name="onnx::Conv_3266_quantized" type="Const" version="opset1">
			<data element_type="i8" shape="8, 16, 3, 3" offset="73752" size="1152" />
			<output>
				<port id="0" precision="I8" names="onnx::Conv_3266_quantized">
					<dim>8</dim>
					<dim>16</dim>
					<dim>3</dim>
					<dim>3</dim>
				</port>
			</output>
		</layer>
		<layer id="85" name="Convert_164" type="Convert" version="opset1">
			<data destination_type="f32" />
			<input>
				<port id="0" precision="I8">
					<dim>8</dim>
					<dim>16</dim>
					<dim>3</dim>
					<dim>3</dim>
				</port>
			</input>
			<output>
				<port id="1" precision="FP32">
					<dim>8</dim>
					<dim>16</dim>
					<dim>3</dim>
					<dim>3</dim>
				</port>
			</output>
		</layer>
		<layer id="86" name="Constant_28828" type="Const" version="opset1">
			<data element_type="f32" shape="1, 1, 1, 1" offset="74904" size="4" />
			<output>
				<port id="0" precision="FP32">
					<dim>1</dim>
					<dim>1</dim>
					<dim>1</dim>
					<dim>1</dim>
				</port>
			</output>
		</layer>
		<layer id="87" name="onnx::Conv_3266_DequantizeLinear" type="Multiply" version="opset1">
			<data auto_broadcast="numpy" />
			<input>
				<port id="0" precision="FP32">
					<dim>8</dim>
					<dim>16</dim>
					<dim>3</dim>
					<dim>3</dim>
				</port>
				<port id="1" precision="FP32">
					<dim>1</dim>
					<dim>1</dim>
					<dim>1</dim>
					<dim>1</dim>
				</port>
			</input>
			<output>
				<port id="2" precision="FP32" names="onnx::Conv_3266_DequantizeLinear_Output">
					<dim>8</dim>
					<dim>16</dim>
					<dim>3</dim>
					<dim>3</dim>
				</port>
			</output>
		</layer>
		<layer id="88" name="/backbone/p2/p2.1/res_m.0/conv1/conv/Conv/WithoutBiases" type="Convolution" version="opset1">
			<data strides="1, 1" dilations="1, 1" pads_begin="1, 1" pads_end="1, 1" auto_pad="explicit" />
			<input>
				<port id="0" precision="FP32">
					<dim>16</dim>
					<dim>16</dim>
					<dim>160</dim>
					<dim>160</dim>
				</port>
				<port id="1" precision="FP32">
					<dim>8</dim>
					<dim>16</dim>
					<dim>3</dim>
					<dim>3</dim>
				</port>
			</input>
			<output>
				<port id="2" precision="FP32">
					<dim>16</dim>
					<dim>8</dim>
					<dim>160</dim>
					<dim>160</dim>
				</port>
			</output>
		</layer>
		<layer id="89" name="onnx::Conv_3267_quantized" type="Const" version="opset1">
			<data element_type="i32" shape="8" offset="74908" size="32" />
			<output>
				<port id="0" precision="I32" names="onnx::Conv_3267_quantized">
					<dim>8</dim>
				</port>
			</output>
		</layer>
		<layer id="90" name="Convert_172" type="Convert" version="opset1">
			<data destination_type="f32" />
			<input>
				<port id="0" precision="I32">
					<dim>8</dim>
				</port>
			</input>
			<output>
				<port id="1" precision="FP32">
					<dim>8</dim>
				</port>
			</output>
		</layer>
		<layer id="91" name="onnx::Conv_3267_quantized_scale" type="Const" version="opset1">
			<data element_type="f32" shape="1" offset="74940" size="4" />
			<output>
				<port id="0" precision="FP32" names="onnx::Conv_3267_quantized_scale">
					<dim>1</dim>
				</port>
			</output>
		</layer>
		<layer id="92" name="onnx::Conv_3267_DequantizeLinear" type="Multiply" version="opset1">
			<data auto_broadcast="numpy" />
			<input>
				<port id="0" precision="FP32">
					<dim>8</dim>
				</port>
				<port id="1" precision="FP32">
					<dim>1</dim>
				</port>
			</input>
			<output>
				<port id="2" precision="FP32" names="onnx::Conv_3267">
					<dim>8</dim>
				</port>
			</output>
		</layer>
		<layer id="93" name="Concat_1833" type="Const" version="opset1">
			<data element_type="i64" shape="4" offset="74944" size="32" />
			<output>
				<port id="0" precision="I64">
					<dim>4</dim>
				</port>
			</output>
		</layer>
		<layer id="94" name="Reshape_1834" type="Reshape" version="opset1">
			<data special_zero="false" />
			<input>
				<port id="0" precision="FP32">
					<dim>8</dim>
				</port>
				<port id="1" precision="I64">
					<dim>4</dim>
				</port>
			</input>
			<output>
				<port id="2" precision="FP32">
					<dim>1</dim>
					<dim>8</dim>
					<dim>1</dim>
					<dim>1</dim>
				</port>
			</output>
		</layer>
		<layer id="95" name="/backbone/p2/p2.1/res_m.0/conv1/conv/Conv" type="Add" version="opset1">
			<data auto_broadcast="numpy" />
			<input>
				<port id="0" precision="FP32">
					<dim>16</dim>
					<dim>8</dim>
					<dim>160</dim>
					<dim>160</dim>
				</port>
				<port id="1" precision="FP32">
					<dim>1</dim>
					<dim>8</dim>
					<dim>1</dim>
					<dim>1</dim>
				</port>
			</input>
			<output>
				<port id="2" precision="FP32" names="/backbone/p2/p2.1/res_m.0/conv1/conv/Conv_output_0">
					<dim>16</dim>
					<dim>8</dim>
					<dim>160</dim>
					<dim>160</dim>
				</port>
			</output>
		</layer>
		<layer id="96" name="Constant_28829" type="Const" version="opset1">
			<data element_type="f32" shape="1, 1, 1, 1" offset="74976" size="4" />
			<output>
				<port id="0" precision="FP32">
					<dim>1</dim>
					<dim>1</dim>
					<dim>1</dim>
					<dim>1</dim>
				</port>
			</output>
		</layer>
		<layer id="97" name="Constant_28830" type="Const" version="opset1">
			<data element_type="f32" shape="1, 1, 1, 1" offset="74980" size="4" />
			<output>
				<port id="0" precision="FP32">
					<dim>1</dim>
					<dim>1</dim>
					<dim>1</dim>
					<dim>1</dim>
				</port>
			</output>
		</layer>
		<layer id="98" name="Constant_28831" type="Const" version="opset1">
			<data element_type="f32" shape="1, 1, 1, 1" offset="74976" size="4" />
			<output>
				<port id="0" precision="FP32">
					<dim>1</dim>
					<dim>1</dim>
					<dim>1</dim>
					<dim>1</dim>
				</port>
			</output>
		</layer>
		<layer id="99" name="Constant_28832" type="Const" version="opset1">
			<data element_type="f32" shape="1, 1, 1, 1" offset="74980" size="4" />
			<output>
				<port id="0" precision="FP32">
					<dim>1</dim>
					<dim>1</dim>
					<dim>1</dim>
					<dim>1</dim>
				</port>
			</output>
		</layer>
		<layer id="100" name="/backbone/p2/p2.1/res_m.0/conv1/conv/Conv_output_0_DequantizeLinear" type="FakeQuantize" version="opset1">
			<data levels="256" auto_broadcast="numpy" />
			<input>
				<port id="0" precision="FP32">
					<dim>16</dim>
					<dim>8</dim>
					<dim>160</dim>
					<dim>160</dim>
				</port>
				<port id="1" precision="FP32">
					<dim>1</dim>
					<dim>1</dim>
					<dim>1</dim>
					<dim>1</dim>
				</port>
				<port id="2" precision="FP32">
					<dim>1</dim>
					<dim>1</dim>
					<dim>1</dim>
					<dim>1</dim>
				</port>
				<port id="3" precision="FP32">
					<dim>1</dim>
					<dim>1</dim>
					<dim>1</dim>
					<dim>1</dim>
				</port>
				<port id="4" precision="FP32">
					<dim>1</dim>
					<dim>1</dim>
					<dim>1</dim>
					<dim>1</dim>
				</port>
			</input>
			<output>
				<port id="5" precision="FP32" names="/backbone/p2/p2.1/res_m.0/conv1/conv/Conv_output_0_DequantizeLinear_Output">
					<dim>16</dim>
					<dim>8</dim>
					<dim>160</dim>
					<dim>160</dim>
				</port>
			</output>
		</layer>
		<layer id="101" name="/backbone/p2/p2.1/res_m.0/conv1/relu/Mul" type="Swish" version="opset4">
			<input>
				<port id="0" precision="FP32">
					<dim>16</dim>
					<dim>8</dim>
					<dim>160</dim>
					<dim>160</dim>
				</port>
			</input>
			<output>
				<port id="1" precision="FP32" names="/backbone/p2/p2.1/res_m.0/conv1/relu/Mul_output_0">
					<dim>16</dim>
					<dim>8</dim>
					<dim>160</dim>
					<dim>160</dim>
				</port>
			</output>
		</layer>
		<layer id="102" name="Constant_28833" type="Const" version="opset1">
			<data element_type="f32" shape="1, 1, 1, 1" offset="74984" size="4" />
			<output>
				<port id="0" precision="FP32">
					<dim>1</dim>
					<dim>1</dim>
					<dim>1</dim>
					<dim>1</dim>
				</port>
			</output>
		</layer>
		<layer id="103" name="Constant_28834" type="Const" version="opset1">
			<data element_type="f32" shape="1, 1, 1, 1" offset="74988" size="4" />
			<output>
				<port id="0" precision="FP32">
					<dim>1</dim>
					<dim>1</dim>
					<dim>1</dim>
					<dim>1</dim>
				</port>
			</output>
		</layer>
		<layer id="104" name="Constant_28835" type="Const" version="opset1">
			<data element_type="f32" shape="1, 1, 1, 1" offset="74984" size="4" />
			<output>
				<port id="0" precision="FP32">
					<dim>1</dim>
					<dim>1</dim>
					<dim>1</dim>
					<dim>1</dim>
				</port>
			</output>
		</layer>
		<layer id="105" name="Constant_28836" type="Const" version="opset1">
			<data element_type="f32" shape="1, 1, 1, 1" offset="74988" size="4" />
			<output>
				<port id="0" precision="FP32">
					<dim>1</dim>
					<dim>1</dim>
					<dim>1</dim>
					<dim>1</dim>
				</port>
			</output>
		</layer>
		<layer id="106" name="/backbone/p2/p2.1/res_m.0/conv1/relu/Mul_output_0_DequantizeLinear" type="FakeQuantize" version="opset1">
			<data levels="256" auto_broadcast="numpy" />
			<input>
				<port id="0" precision="FP32">
					<dim>16</dim>
					<dim>8</dim>
					<dim>160</dim>
					<dim>160</dim>
				</port>
				<port id="1" precision="FP32">
					<dim>1</dim>
					<dim>1</dim>
					<dim>1</dim>
					<dim>1</dim>
				</port>
				<port id="2" precision="FP32">
					<dim>1</dim>
					<dim>1</dim>
					<dim>1</dim>
					<dim>1</dim>
				</port>
				<port id="3" precision="FP32">
					<dim>1</dim>
					<dim>1</dim>
					<dim>1</dim>
					<dim>1</dim>
				</port>
				<port id="4" precision="FP32">
					<dim>1</dim>
					<dim>1</dim>
					<dim>1</dim>
					<dim>1</dim>
				</port>
			</input>
			<output>
				<port id="5" precision="FP32" names="/backbone/p2/p2.1/res_m.0/conv1/relu/Mul_output_0_DequantizeLinear_Output">
					<dim>16</dim>
					<dim>8</dim>
					<dim>160</dim>
					<dim>160</dim>
				</port>
			</output>
		</layer>
		<layer id="107" name="onnx::Conv_3269_quantized" type="Const" version="opset1">
			<data element_type="i8" shape="16, 8, 3, 3" offset="74992" size="1152" />
			<output>
				<port id="0" precision="I8" names="onnx::Conv_3269_quantized">
					<dim>16</dim>
					<dim>8</dim>
					<dim>3</dim>
					<dim>3</dim>
				</port>
			</output>
		</layer>
		<layer id="108" name="Convert_180" type="Convert" version="opset1">
			<data destination_type="f32" />
			<input>
				<port id="0" precision="I8">
					<dim>16</dim>
					<dim>8</dim>
					<dim>3</dim>
					<dim>3</dim>
				</port>
			</input>
			<output>
				<port id="1" precision="FP32">
					<dim>16</dim>
					<dim>8</dim>
					<dim>3</dim>
					<dim>3</dim>
				</port>
			</output>
		</layer>
		<layer id="109" name="Constant_28837" type="Const" version="opset1">
			<data element_type="f32" shape="1, 1, 1, 1" offset="76144" size="4" />
			<output>
				<port id="0" precision="FP32">
					<dim>1</dim>
					<dim>1</dim>
					<dim>1</dim>
					<dim>1</dim>
				</port>
			</output>
		</layer>
		<layer id="110" name="onnx::Conv_3269_DequantizeLinear" type="Multiply" version="opset1">
			<data auto_broadcast="numpy" />
			<input>
				<port id="0" precision="FP32">
					<dim>16</dim>
					<dim>8</dim>
					<dim>3</dim>
					<dim>3</dim>
				</port>
				<port id="1" precision="FP32">
					<dim>1</dim>
					<dim>1</dim>
					<dim>1</dim>
					<dim>1</dim>
				</port>
			</input>
			<output>
				<port id="2" precision="FP32" names="onnx::Conv_3269_DequantizeLinear_Output">
					<dim>16</dim>
					<dim>8</dim>
					<dim>3</dim>
					<dim>3</dim>
				</port>
			</output>
		</layer>
		<layer id="111" name="/backbone/p2/p2.1/res_m.0/conv2/conv/Conv/WithoutBiases" type="Convolution" version="opset1">
			<data strides="1, 1" dilations="1, 1" pads_begin="1, 1" pads_end="1, 1" auto_pad="explicit" />
			<input>
				<port id="0" precision="FP32">
					<dim>16</dim>
					<dim>8</dim>
					<dim>160</dim>
					<dim>160</dim>
				</port>
				<port id="1" precision="FP32">
					<dim>16</dim>
					<dim>8</dim>
					<dim>3</dim>
					<dim>3</dim>
				</port>
			</input>
			<output>
				<port id="2" precision="FP32">
					<dim>16</dim>
					<dim>16</dim>
					<dim>160</dim>
					<dim>160</dim>
				</port>
			</output>
		</layer>
		<layer id="112" name="onnx::Conv_3270_quantized" type="Const" version="opset1">
			<data element_type="i32" shape="16" offset="76148" size="64" />
			<output>
				<port id="0" precision="I32" names="onnx::Conv_3270_quantized">
					<dim>16</dim>
				</port>
			</output>
		</layer>
		<layer id="113" name="Convert_188" type="Convert" version="opset1">
			<data destination_type="f32" />
			<input>
				<port id="0" precision="I32">
					<dim>16</dim>
				</port>
			</input>
			<output>
				<port id="1" precision="FP32">
					<dim>16</dim>
				</port>
			</output>
		</layer>
		<layer id="114" name="onnx::Conv_3270_quantized_scale" type="Const" version="opset1">
			<data element_type="f32" shape="1" offset="76212" size="4" />
			<output>
				<port id="0" precision="FP32" names="onnx::Conv_3270_quantized_scale">
					<dim>1</dim>
				</port>
			</output>
		</layer>
		<layer id="115" name="onnx::Conv_3270_DequantizeLinear" type="Multiply" version="opset1">
			<data auto_broadcast="numpy" />
			<input>
				<port id="0" precision="FP32">
					<dim>16</dim>
				</port>
				<port id="1" precision="FP32">
					<dim>1</dim>
				</port>
			</input>
			<output>
				<port id="2" precision="FP32" names="onnx::Conv_3270">
					<dim>16</dim>
				</port>
			</output>
		</layer>
		<layer id="116" name="Concat_1884" type="Const" version="opset1">
			<data element_type="i64" shape="4" offset="67712" size="32" />
			<output>
				<port id="0" precision="I64">
					<dim>4</dim>
				</port>
			</output>
		</layer>
		<layer id="117" name="Reshape_1885" type="Reshape" version="opset1">
			<data special_zero="false" />
			<input>
				<port id="0" precision="FP32">
					<dim>16</dim>
				</port>
				<port id="1" precision="I64">
					<dim>4</dim>
				</port>
			</input>
			<output>
				<port id="2" precision="FP32">
					<dim>1</dim>
					<dim>16</dim>
					<dim>1</dim>
					<dim>1</dim>
				</port>
			</output>
		</layer>
		<layer id="118" name="/backbone/p2/p2.1/res_m.0/conv2/conv/Conv" type="Add" version="opset1">
			<data auto_broadcast="numpy" />
			<input>
				<port id="0" precision="FP32">
					<dim>16</dim>
					<dim>16</dim>
					<dim>160</dim>
					<dim>160</dim>
				</port>
				<port id="1" precision="FP32">
					<dim>1</dim>
					<dim>16</dim>
					<dim>1</dim>
					<dim>1</dim>
				</port>
			</input>
			<output>
				<port id="2" precision="FP32" names="/backbone/p2/p2.1/res_m.0/conv2/conv/Conv_output_0">
					<dim>16</dim>
					<dim>16</dim>
					<dim>160</dim>
					<dim>160</dim>
				</port>
			</output>
		</layer>
		<layer id="119" name="Constant_28838" type="Const" version="opset1">
			<data element_type="f32" shape="1, 1, 1, 1" offset="76216" size="4" />
			<output>
				<port id="0" precision="FP32">
					<dim>1</dim>
					<dim>1</dim>
					<dim>1</dim>
					<dim>1</dim>
				</port>
			</output>
		</layer>
		<layer id="120" name="Constant_28839" type="Const" version="opset1">
			<data element_type="f32" shape="1, 1, 1, 1" offset="76220" size="4" />
			<output>
				<port id="0" precision="FP32">
					<dim>1</dim>
					<dim>1</dim>
					<dim>1</dim>
					<dim>1</dim>
				</port>
			</output>
		</layer>
		<layer id="121" name="Constant_28840" type="Const" version="opset1">
			<data element_type="f32" shape="1, 1, 1, 1" offset="76216" size="4" />
			<output>
				<port id="0" precision="FP32">
					<dim>1</dim>
					<dim>1</dim>
					<dim>1</dim>
					<dim>1</dim>
				</port>
			</output>
		</layer>
		<layer id="122" name="Constant_28841" type="Const" version="opset1">
			<data element_type="f32" shape="1, 1, 1, 1" offset="76220" size="4" />
			<output>
				<port id="0" precision="FP32">
					<dim>1</dim>
					<dim>1</dim>
					<dim>1</dim>
					<dim>1</dim>
				</port>
			</output>
		</layer>
		<layer id="123" name="/backbone/p2/p2.1/res_m.0/conv2/conv/Conv_output_0_DequantizeLinear" type="FakeQuantize" version="opset1">
			<data levels="256" auto_broadcast="numpy" />
			<input>
				<port id="0" precision="FP32">
					<dim>16</dim>
					<dim>16</dim>
					<dim>160</dim>
					<dim>160</dim>
				</port>
				<port id="1" precision="FP32">
					<dim>1</dim>
					<dim>1</dim>
					<dim>1</dim>
					<dim>1</dim>
				</port>
				<port id="2" precision="FP32">
					<dim>1</dim>
					<dim>1</dim>
					<dim>1</dim>
					<dim>1</dim>
				</port>
				<port id="3" precision="FP32">
					<dim>1</dim>
					<dim>1</dim>
					<dim>1</dim>
					<dim>1</dim>
				</port>
				<port id="4" precision="FP32">
					<dim>1</dim>
					<dim>1</dim>
					<dim>1</dim>
					<dim>1</dim>
				</port>
			</input>
			<output>
				<port id="5" precision="FP32" names="/backbone/p2/p2.1/res_m.0/conv2/conv/Conv_output_0_DequantizeLinear_Output">
					<dim>16</dim>
					<dim>16</dim>
					<dim>160</dim>
					<dim>160</dim>
				</port>
			</output>
		</layer>
		<layer id="124" name="/backbone/p2/p2.1/res_m.0/conv2/relu/Mul" type="Swish" version="opset4">
			<input>
				<port id="0" precision="FP32">
					<dim>16</dim>
					<dim>16</dim>
					<dim>160</dim>
					<dim>160</dim>
				</port>
			</input>
			<output>
				<port id="1" precision="FP32" names="/backbone/p2/p2.1/res_m.0/conv2/relu/Mul_output_0">
					<dim>16</dim>
					<dim>16</dim>
					<dim>160</dim>
					<dim>160</dim>
				</port>
			</output>
		</layer>
		<layer id="125" name="/backbone/p2/p2.1/res_m.0/Add" type="Add" version="opset1">
			<data auto_broadcast="numpy" />
			<input>
				<port id="0" precision="FP32">
					<dim>16</dim>
					<dim>16</dim>
					<dim>160</dim>
					<dim>160</dim>
				</port>
				<port id="1" precision="FP32">
					<dim>16</dim>
					<dim>16</dim>
					<dim>160</dim>
					<dim>160</dim>
				</port>
			</input>
			<output>
				<port id="2" precision="FP32" names="/backbone/p2/p2.1/res_m.0/Add_output_0">
					<dim>16</dim>
					<dim>16</dim>
					<dim>160</dim>
					<dim>160</dim>
				</port>
			</output>
		</layer>
		<layer id="126" name="/backbone/p2/p2.1/Concat" type="Concat" version="opset1">
			<data axis="1" />
			<input>
				<port id="0" precision="FP32">
					<dim>16</dim>
					<dim>16</dim>
					<dim>160</dim>
					<dim>160</dim>
				</port>
				<port id="1" precision="FP32">
					<dim>16</dim>
					<dim>16</dim>
					<dim>160</dim>
					<dim>160</dim>
				</port>
				<port id="2" precision="FP32">
					<dim>16</dim>
					<dim>16</dim>
					<dim>160</dim>
					<dim>160</dim>
				</port>
			</input>
			<output>
				<port id="3" precision="FP32" names="/backbone/p2/p2.1/Concat_output_0">
					<dim>16</dim>
					<dim>48</dim>
					<dim>160</dim>
					<dim>160</dim>
				</port>
			</output>
		</layer>
		<layer id="127" name="Constant_28842" type="Const" version="opset1">
			<data element_type="f32" shape="1, 1, 1, 1" offset="76224" size="4" />
			<output>
				<port id="0" precision="FP32">
					<dim>1</dim>
					<dim>1</dim>
					<dim>1</dim>
					<dim>1</dim>
				</port>
			</output>
		</layer>
		<layer id="128" name="Constant_28843" type="Const" version="opset1">
			<data element_type="f32" shape="1, 1, 1, 1" offset="76228" size="4" />
			<output>
				<port id="0" precision="FP32">
					<dim>1</dim>
					<dim>1</dim>
					<dim>1</dim>
					<dim>1</dim>
				</port>
			</output>
		</layer>
		<layer id="129" name="Constant_28844" type="Const" version="opset1">
			<data element_type="f32" shape="1, 1, 1, 1" offset="76224" size="4" />
			<output>
				<port id="0" precision="FP32">
					<dim>1</dim>
					<dim>1</dim>
					<dim>1</dim>
					<dim>1</dim>
				</port>
			</output>
		</layer>
		<layer id="130" name="Constant_28845" type="Const" version="opset1">
			<data element_type="f32" shape="1, 1, 1, 1" offset="76228" size="4" />
			<output>
				<port id="0" precision="FP32">
					<dim>1</dim>
					<dim>1</dim>
					<dim>1</dim>
					<dim>1</dim>
				</port>
			</output>
		</layer>
		<layer id="131" name="/backbone/p2/p2.1/Concat_output_0_DequantizeLinear" type="FakeQuantize" version="opset1">
			<data levels="256" auto_broadcast="numpy" />
			<input>
				<port id="0" precision="FP32">
					<dim>16</dim>
					<dim>48</dim>
					<dim>160</dim>
					<dim>160</dim>
				</port>
				<port id="1" precision="FP32">
					<dim>1</dim>
					<dim>1</dim>
					<dim>1</dim>
					<dim>1</dim>
				</port>
				<port id="2" precision="FP32">
					<dim>1</dim>
					<dim>1</dim>
					<dim>1</dim>
					<dim>1</dim>
				</port>
				<port id="3" precision="FP32">
					<dim>1</dim>
					<dim>1</dim>
					<dim>1</dim>
					<dim>1</dim>
				</port>
				<port id="4" precision="FP32">
					<dim>1</dim>
					<dim>1</dim>
					<dim>1</dim>
					<dim>1</dim>
				</port>
			</input>
			<output>
				<port id="5" precision="FP32" names="/backbone/p2/p2.1/Concat_output_0_DequantizeLinear_Output">
					<dim>16</dim>
					<dim>48</dim>
					<dim>160</dim>
					<dim>160</dim>
				</port>
			</output>
		</layer>
		<layer id="132" name="onnx::Conv_3272_quantized" type="Const" version="opset1">
			<data element_type="i8" shape="64, 48, 1, 1" offset="76232" size="3072" />
			<output>
				<port id="0" precision="I8" names="onnx::Conv_3272_quantized">
					<dim>64</dim>
					<dim>48</dim>
					<dim>1</dim>
					<dim>1</dim>
				</port>
			</output>
		</layer>
		<layer id="133" name="Convert_196" type="Convert" version="opset1">
			<data destination_type="f32" />
			<input>
				<port id="0" precision="I8">
					<dim>64</dim>
					<dim>48</dim>
					<dim>1</dim>
					<dim>1</dim>
				</port>
			</input>
			<output>
				<port id="1" precision="FP32">
					<dim>64</dim>
					<dim>48</dim>
					<dim>1</dim>
					<dim>1</dim>
				</port>
			</output>
		</layer>
		<layer id="134" name="Constant_28846" type="Const" version="opset1">
			<data element_type="f32" shape="1, 1, 1, 1" offset="79304" size="4" />
			<output>
				<port id="0" precision="FP32">
					<dim>1</dim>
					<dim>1</dim>
					<dim>1</dim>
					<dim>1</dim>
				</port>
			</output>
		</layer>
		<layer id="135" name="onnx::Conv_3272_DequantizeLinear" type="Multiply" version="opset1">
			<data auto_broadcast="numpy" />
			<input>
				<port id="0" precision="FP32">
					<dim>64</dim>
					<dim>48</dim>
					<dim>1</dim>
					<dim>1</dim>
				</port>
				<port id="1" precision="FP32">
					<dim>1</dim>
					<dim>1</dim>
					<dim>1</dim>
					<dim>1</dim>
				</port>
			</input>
			<output>
				<port id="2" precision="FP32" names="onnx::Conv_3272_DequantizeLinear_Output">
					<dim>64</dim>
					<dim>48</dim>
					<dim>1</dim>
					<dim>1</dim>
				</port>
			</output>
		</layer>
		<layer id="136" name="/backbone/p2/p2.1/conv2/conv/Conv/WithoutBiases" type="Convolution" version="opset1">
			<data strides="1, 1" dilations="1, 1" pads_begin="0, 0" pads_end="0, 0" auto_pad="explicit" />
			<input>
				<port id="0" precision="FP32">
					<dim>16</dim>
					<dim>48</dim>
					<dim>160</dim>
					<dim>160</dim>
				</port>
				<port id="1" precision="FP32">
					<dim>64</dim>
					<dim>48</dim>
					<dim>1</dim>
					<dim>1</dim>
				</port>
			</input>
			<output>
				<port id="2" precision="FP32">
					<dim>16</dim>
					<dim>64</dim>
					<dim>160</dim>
					<dim>160</dim>
				</port>
			</output>
		</layer>
		<layer id="137" name="onnx::Conv_3273_quantized" type="Const" version="opset1">
			<data element_type="i32" shape="64" offset="79308" size="256" />
			<output>
				<port id="0" precision="I32" names="onnx::Conv_3273_quantized">
					<dim>64</dim>
				</port>
			</output>
		</layer>
		<layer id="138" name="Convert_204" type="Convert" version="opset1">
			<data destination_type="f32" />
			<input>
				<port id="0" precision="I32">
					<dim>64</dim>
				</port>
			</input>
			<output>
				<port id="1" precision="FP32">
					<dim>64</dim>
				</port>
			</output>
		</layer>
		<layer id="139" name="onnx::Conv_3273_quantized_scale" type="Const" version="opset1">
			<data element_type="f32" shape="1" offset="79564" size="4" />
			<output>
				<port id="0" precision="FP32" names="onnx::Conv_3273_quantized_scale">
					<dim>1</dim>
				</port>
			</output>
		</layer>
		<layer id="140" name="onnx::Conv_3273_DequantizeLinear" type="Multiply" version="opset1">
			<data auto_broadcast="numpy" />
			<input>
				<port id="0" precision="FP32">
					<dim>64</dim>
				</port>
				<port id="1" precision="FP32">
					<dim>1</dim>
				</port>
			</input>
			<output>
				<port id="2" precision="FP32" names="onnx::Conv_3273">
					<dim>64</dim>
				</port>
			</output>
		</layer>
		<layer id="141" name="Concat_1937" type="Const" version="opset1">
			<data element_type="i64" shape="4" offset="79568" size="32" />
			<output>
				<port id="0" precision="I64">
					<dim>4</dim>
				</port>
			</output>
		</layer>
		<layer id="142" name="Reshape_1938" type="Reshape" version="opset1">
			<data special_zero="false" />
			<input>
				<port id="0" precision="FP32">
					<dim>64</dim>
				</port>
				<port id="1" precision="I64">
					<dim>4</dim>
				</port>
			</input>
			<output>
				<port id="2" precision="FP32">
					<dim>1</dim>
					<dim>64</dim>
					<dim>1</dim>
					<dim>1</dim>
				</port>
			</output>
		</layer>
		<layer id="143" name="/backbone/p2/p2.1/conv2/conv/Conv" type="Add" version="opset1">
			<data auto_broadcast="numpy" />
			<input>
				<port id="0" precision="FP32">
					<dim>16</dim>
					<dim>64</dim>
					<dim>160</dim>
					<dim>160</dim>
				</port>
				<port id="1" precision="FP32">
					<dim>1</dim>
					<dim>64</dim>
					<dim>1</dim>
					<dim>1</dim>
				</port>
			</input>
			<output>
				<port id="2" precision="FP32" names="/backbone/p2/p2.1/conv2/conv/Conv_output_0">
					<dim>16</dim>
					<dim>64</dim>
					<dim>160</dim>
					<dim>160</dim>
				</port>
			</output>
		</layer>
		<layer id="144" name="Constant_28847" type="Const" version="opset1">
			<data element_type="f32" shape="1, 1, 1, 1" offset="79600" size="4" />
			<output>
				<port id="0" precision="FP32">
					<dim>1</dim>
					<dim>1</dim>
					<dim>1</dim>
					<dim>1</dim>
				</port>
			</output>
		</layer>
		<layer id="145" name="Constant_28848" type="Const" version="opset1">
			<data element_type="f32" shape="1, 1, 1, 1" offset="79604" size="4" />
			<output>
				<port id="0" precision="FP32">
					<dim>1</dim>
					<dim>1</dim>
					<dim>1</dim>
					<dim>1</dim>
				</port>
			</output>
		</layer>
		<layer id="146" name="Constant_28849" type="Const" version="opset1">
			<data element_type="f32" shape="1, 1, 1, 1" offset="79600" size="4" />
			<output>
				<port id="0" precision="FP32">
					<dim>1</dim>
					<dim>1</dim>
					<dim>1</dim>
					<dim>1</dim>
				</port>
			</output>
		</layer>
		<layer id="147" name="Constant_28850" type="Const" version="opset1">
			<data element_type="f32" shape="1, 1, 1, 1" offset="79604" size="4" />
			<output>
				<port id="0" precision="FP32">
					<dim>1</dim>
					<dim>1</dim>
					<dim>1</dim>
					<dim>1</dim>
				</port>
			</output>
		</layer>
		<layer id="148" name="/backbone/p2/p2.1/conv2/conv/Conv_output_0_DequantizeLinear" type="FakeQuantize" version="opset1">
			<data levels="256" auto_broadcast="numpy" />
			<input>
				<port id="0" precision="FP32">
					<dim>16</dim>
					<dim>64</dim>
					<dim>160</dim>
					<dim>160</dim>
				</port>
				<port id="1" precision="FP32">
					<dim>1</dim>
					<dim>1</dim>
					<dim>1</dim>
					<dim>1</dim>
				</port>
				<port id="2" precision="FP32">
					<dim>1</dim>
					<dim>1</dim>
					<dim>1</dim>
					<dim>1</dim>
				</port>
				<port id="3" precision="FP32">
					<dim>1</dim>
					<dim>1</dim>
					<dim>1</dim>
					<dim>1</dim>
				</port>
				<port id="4" precision="FP32">
					<dim>1</dim>
					<dim>1</dim>
					<dim>1</dim>
					<dim>1</dim>
				</port>
			</input>
			<output>
				<port id="5" precision="FP32" names="/backbone/p2/p2.1/conv2/conv/Conv_output_0_DequantizeLinear_Output">
					<dim>16</dim>
					<dim>64</dim>
					<dim>160</dim>
					<dim>160</dim>
				</port>
			</output>
		</layer>
		<layer id="149" name="/backbone/p2/p2.1/conv2/relu/Mul" type="Swish" version="opset4">
			<input>
				<port id="0" precision="FP32">
					<dim>16</dim>
					<dim>64</dim>
					<dim>160</dim>
					<dim>160</dim>
				</port>
			</input>
			<output>
				<port id="1" precision="FP32" names="/backbone/p2/p2.1/conv2/relu/Mul_output_0">
					<dim>16</dim>
					<dim>64</dim>
					<dim>160</dim>
					<dim>160</dim>
				</port>
			</output>
		</layer>
		<layer id="150" name="Constant_28851" type="Const" version="opset1">
			<data element_type="f32" shape="1, 1, 1, 1" offset="79608" size="4" />
			<output>
				<port id="0" precision="FP32">
					<dim>1</dim>
					<dim>1</dim>
					<dim>1</dim>
					<dim>1</dim>
				</port>
			</output>
		</layer>
		<layer id="151" name="Constant_28852" type="Const" version="opset1">
			<data element_type="f32" shape="1, 1, 1, 1" offset="79612" size="4" />
			<output>
				<port id="0" precision="FP32">
					<dim>1</dim>
					<dim>1</dim>
					<dim>1</dim>
					<dim>1</dim>
				</port>
			</output>
		</layer>
		<layer id="152" name="Constant_28853" type="Const" version="opset1">
			<data element_type="f32" shape="1, 1, 1, 1" offset="79608" size="4" />
			<output>
				<port id="0" precision="FP32">
					<dim>1</dim>
					<dim>1</dim>
					<dim>1</dim>
					<dim>1</dim>
				</port>
			</output>
		</layer>
		<layer id="153" name="Constant_28854" type="Const" version="opset1">
			<data element_type="f32" shape="1, 1, 1, 1" offset="79612" size="4" />
			<output>
				<port id="0" precision="FP32">
					<dim>1</dim>
					<dim>1</dim>
					<dim>1</dim>
					<dim>1</dim>
				</port>
			</output>
		</layer>
		<layer id="154" name="/backbone/p2/p2.1/conv2/relu/Mul_output_0_DequantizeLinear" type="FakeQuantize" version="opset1">
			<data levels="256" auto_broadcast="numpy" />
			<input>
				<port id="0" precision="FP32">
					<dim>16</dim>
					<dim>64</dim>
					<dim>160</dim>
					<dim>160</dim>
				</port>
				<port id="1" precision="FP32">
					<dim>1</dim>
					<dim>1</dim>
					<dim>1</dim>
					<dim>1</dim>
				</port>
				<port id="2" precision="FP32">
					<dim>1</dim>
					<dim>1</dim>
					<dim>1</dim>
					<dim>1</dim>
				</port>
				<port id="3" precision="FP32">
					<dim>1</dim>
					<dim>1</dim>
					<dim>1</dim>
					<dim>1</dim>
				</port>
				<port id="4" precision="FP32">
					<dim>1</dim>
					<dim>1</dim>
					<dim>1</dim>
					<dim>1</dim>
				</port>
			</input>
			<output>
				<port id="5" precision="FP32" names="/backbone/p2/p2.1/conv2/relu/Mul_output_0_DequantizeLinear_Output">
					<dim>16</dim>
					<dim>64</dim>
					<dim>160</dim>
					<dim>160</dim>
				</port>
			</output>
		</layer>
		<layer id="155" name="onnx::Conv_3275_quantized" type="Const" version="opset1">
			<data element_type="i8" shape="64, 64, 3, 3" offset="79616" size="36864" />
			<output>
				<port id="0" precision="I8" names="onnx::Conv_3275_quantized">
					<dim>64</dim>
					<dim>64</dim>
					<dim>3</dim>
					<dim>3</dim>
				</port>
			</output>
		</layer>
		<layer id="156" name="Convert_212" type="Convert" version="opset1">
			<data destination_type="f32" />
			<input>
				<port id="0" precision="I8">
					<dim>64</dim>
					<dim>64</dim>
					<dim>3</dim>
					<dim>3</dim>
				</port>
			</input>
			<output>
				<port id="1" precision="FP32">
					<dim>64</dim>
					<dim>64</dim>
					<dim>3</dim>
					<dim>3</dim>
				</port>
			</output>
		</layer>
		<layer id="157" name="Constant_28855" type="Const" version="opset1">
			<data element_type="f32" shape="1, 1, 1, 1" offset="116480" size="4" />
			<output>
				<port id="0" precision="FP32">
					<dim>1</dim>
					<dim>1</dim>
					<dim>1</dim>
					<dim>1</dim>
				</port>
			</output>
		</layer>
		<layer id="158" name="onnx::Conv_3275_DequantizeLinear" type="Multiply" version="opset1">
			<data auto_broadcast="numpy" />
			<input>
				<port id="0" precision="FP32">
					<dim>64</dim>
					<dim>64</dim>
					<dim>3</dim>
					<dim>3</dim>
				</port>
				<port id="1" precision="FP32">
					<dim>1</dim>
					<dim>1</dim>
					<dim>1</dim>
					<dim>1</dim>
				</port>
			</input>
			<output>
				<port id="2" precision="FP32" names="onnx::Conv_3275_DequantizeLinear_Output">
					<dim>64</dim>
					<dim>64</dim>
					<dim>3</dim>
					<dim>3</dim>
				</port>
			</output>
		</layer>
		<layer id="159" name="/backbone/p3/p3.0/conv/Conv/WithoutBiases" type="Convolution" version="opset1">
			<data strides="2, 2" dilations="1, 1" pads_begin="1, 1" pads_end="1, 1" auto_pad="explicit" />
			<input>
				<port id="0" precision="FP32">
					<dim>16</dim>
					<dim>64</dim>
					<dim>160</dim>
					<dim>160</dim>
				</port>
				<port id="1" precision="FP32">
					<dim>64</dim>
					<dim>64</dim>
					<dim>3</dim>
					<dim>3</dim>
				</port>
			</input>
			<output>
				<port id="2" precision="FP32">
					<dim>16</dim>
					<dim>64</dim>
					<dim>80</dim>
					<dim>80</dim>
				</port>
			</output>
		</layer>
		<layer id="160" name="onnx::Conv_3276_quantized" type="Const" version="opset1">
			<data element_type="i32" shape="64" offset="116484" size="256" />
			<output>
				<port id="0" precision="I32" names="onnx::Conv_3276_quantized">
					<dim>64</dim>
				</port>
			</output>
		</layer>
		<layer id="161" name="Convert_220" type="Convert" version="opset1">
			<data destination_type="f32" />
			<input>
				<port id="0" precision="I32">
					<dim>64</dim>
				</port>
			</input>
			<output>
				<port id="1" precision="FP32">
					<dim>64</dim>
				</port>
			</output>
		</layer>
		<layer id="162" name="onnx::Conv_3276_quantized_scale" type="Const" version="opset1">
			<data element_type="f32" shape="1" offset="116740" size="4" />
			<output>
				<port id="0" precision="FP32" names="onnx::Conv_3276_quantized_scale">
					<dim>1</dim>
				</port>
			</output>
		</layer>
		<layer id="163" name="onnx::Conv_3276_DequantizeLinear" type="Multiply" version="opset1">
			<data auto_broadcast="numpy" />
			<input>
				<port id="0" precision="FP32">
					<dim>64</dim>
				</port>
				<port id="1" precision="FP32">
					<dim>1</dim>
				</port>
			</input>
			<output>
				<port id="2" precision="FP32" names="onnx::Conv_3276">
					<dim>64</dim>
				</port>
			</output>
		</layer>
		<layer id="164" name="Concat_1988" type="Const" version="opset1">
			<data element_type="i64" shape="4" offset="79568" size="32" />
			<output>
				<port id="0" precision="I64">
					<dim>4</dim>
				</port>
			</output>
		</layer>
		<layer id="165" name="Reshape_1989" type="Reshape" version="opset1">
			<data special_zero="false" />
			<input>
				<port id="0" precision="FP32">
					<dim>64</dim>
				</port>
				<port id="1" precision="I64">
					<dim>4</dim>
				</port>
			</input>
			<output>
				<port id="2" precision="FP32">
					<dim>1</dim>
					<dim>64</dim>
					<dim>1</dim>
					<dim>1</dim>
				</port>
			</output>
		</layer>
		<layer id="166" name="/backbone/p3/p3.0/conv/Conv" type="Add" version="opset1">
			<data auto_broadcast="numpy" />
			<input>
				<port id="0" precision="FP32">
					<dim>16</dim>
					<dim>64</dim>
					<dim>80</dim>
					<dim>80</dim>
				</port>
				<port id="1" precision="FP32">
					<dim>1</dim>
					<dim>64</dim>
					<dim>1</dim>
					<dim>1</dim>
				</port>
			</input>
			<output>
				<port id="2" precision="FP32" names="/backbone/p3/p3.0/conv/Conv_output_0">
					<dim>16</dim>
					<dim>64</dim>
					<dim>80</dim>
					<dim>80</dim>
				</port>
			</output>
		</layer>
		<layer id="167" name="Constant_28856" type="Const" version="opset1">
			<data element_type="f32" shape="1, 1, 1, 1" offset="116744" size="4" />
			<output>
				<port id="0" precision="FP32">
					<dim>1</dim>
					<dim>1</dim>
					<dim>1</dim>
					<dim>1</dim>
				</port>
			</output>
		</layer>
		<layer id="168" name="Constant_28857" type="Const" version="opset1">
			<data element_type="f32" shape="1, 1, 1, 1" offset="116748" size="4" />
			<output>
				<port id="0" precision="FP32">
					<dim>1</dim>
					<dim>1</dim>
					<dim>1</dim>
					<dim>1</dim>
				</port>
			</output>
		</layer>
		<layer id="169" name="Constant_28858" type="Const" version="opset1">
			<data element_type="f32" shape="1, 1, 1, 1" offset="116744" size="4" />
			<output>
				<port id="0" precision="FP32">
					<dim>1</dim>
					<dim>1</dim>
					<dim>1</dim>
					<dim>1</dim>
				</port>
			</output>
		</layer>
		<layer id="170" name="Constant_28859" type="Const" version="opset1">
			<data element_type="f32" shape="1, 1, 1, 1" offset="116748" size="4" />
			<output>
				<port id="0" precision="FP32">
					<dim>1</dim>
					<dim>1</dim>
					<dim>1</dim>
					<dim>1</dim>
				</port>
			</output>
		</layer>
		<layer id="171" name="/backbone/p3/p3.0/conv/Conv_output_0_DequantizeLinear" type="FakeQuantize" version="opset1">
			<data levels="256" auto_broadcast="numpy" />
			<input>
				<port id="0" precision="FP32">
					<dim>16</dim>
					<dim>64</dim>
					<dim>80</dim>
					<dim>80</dim>
				</port>
				<port id="1" precision="FP32">
					<dim>1</dim>
					<dim>1</dim>
					<dim>1</dim>
					<dim>1</dim>
				</port>
				<port id="2" precision="FP32">
					<dim>1</dim>
					<dim>1</dim>
					<dim>1</dim>
					<dim>1</dim>
				</port>
				<port id="3" precision="FP32">
					<dim>1</dim>
					<dim>1</dim>
					<dim>1</dim>
					<dim>1</dim>
				</port>
				<port id="4" precision="FP32">
					<dim>1</dim>
					<dim>1</dim>
					<dim>1</dim>
					<dim>1</dim>
				</port>
			</input>
			<output>
				<port id="5" precision="FP32" names="/backbone/p3/p3.0/conv/Conv_output_0_DequantizeLinear_Output">
					<dim>16</dim>
					<dim>64</dim>
					<dim>80</dim>
					<dim>80</dim>
				</port>
			</output>
		</layer>
		<layer id="172" name="/backbone/p3/p3.0/relu/Mul" type="Swish" version="opset4">
			<input>
				<port id="0" precision="FP32">
					<dim>16</dim>
					<dim>64</dim>
					<dim>80</dim>
					<dim>80</dim>
				</port>
			</input>
			<output>
				<port id="1" precision="FP32" names="/backbone/p3/p3.0/relu/Mul_output_0">
					<dim>16</dim>
					<dim>64</dim>
					<dim>80</dim>
					<dim>80</dim>
				</port>
			</output>
		</layer>
		<layer id="173" name="Constant_28860" type="Const" version="opset1">
			<data element_type="f32" shape="1, 1, 1, 1" offset="116752" size="4" />
			<output>
				<port id="0" precision="FP32">
					<dim>1</dim>
					<dim>1</dim>
					<dim>1</dim>
					<dim>1</dim>
				</port>
			</output>
		</layer>
		<layer id="174" name="Constant_28861" type="Const" version="opset1">
			<data element_type="f32" shape="1, 1, 1, 1" offset="116756" size="4" />
			<output>
				<port id="0" precision="FP32">
					<dim>1</dim>
					<dim>1</dim>
					<dim>1</dim>
					<dim>1</dim>
				</port>
			</output>
		</layer>
		<layer id="175" name="Constant_28862" type="Const" version="opset1">
			<data element_type="f32" shape="1, 1, 1, 1" offset="116752" size="4" />
			<output>
				<port id="0" precision="FP32">
					<dim>1</dim>
					<dim>1</dim>
					<dim>1</dim>
					<dim>1</dim>
				</port>
			</output>
		</layer>
		<layer id="176" name="Constant_28863" type="Const" version="opset1">
			<data element_type="f32" shape="1, 1, 1, 1" offset="116756" size="4" />
			<output>
				<port id="0" precision="FP32">
					<dim>1</dim>
					<dim>1</dim>
					<dim>1</dim>
					<dim>1</dim>
				</port>
			</output>
		</layer>
		<layer id="177" name="/backbone/p3/p3.0/relu/Mul_output_0_DequantizeLinear" type="FakeQuantize" version="opset1">
			<data levels="256" auto_broadcast="numpy" />
			<input>
				<port id="0" precision="FP32">
					<dim>16</dim>
					<dim>64</dim>
					<dim>80</dim>
					<dim>80</dim>
				</port>
				<port id="1" precision="FP32">
					<dim>1</dim>
					<dim>1</dim>
					<dim>1</dim>
					<dim>1</dim>
				</port>
				<port id="2" precision="FP32">
					<dim>1</dim>
					<dim>1</dim>
					<dim>1</dim>
					<dim>1</dim>
				</port>
				<port id="3" precision="FP32">
					<dim>1</dim>
					<dim>1</dim>
					<dim>1</dim>
					<dim>1</dim>
				</port>
				<port id="4" precision="FP32">
					<dim>1</dim>
					<dim>1</dim>
					<dim>1</dim>
					<dim>1</dim>
				</port>
			</input>
			<output>
				<port id="5" precision="FP32" names="/backbone/p3/p3.0/relu/Mul_output_0_DequantizeLinear_Output">
					<dim>16</dim>
					<dim>64</dim>
					<dim>80</dim>
					<dim>80</dim>
				</port>
			</output>
		</layer>
		<layer id="178" name="onnx::Conv_3278_quantized" type="Const" version="opset1">
			<data element_type="i8" shape="64, 64, 1, 1" offset="116760" size="4096" />
			<output>
				<port id="0" precision="I8" names="onnx::Conv_3278_quantized">
					<dim>64</dim>
					<dim>64</dim>
					<dim>1</dim>
					<dim>1</dim>
				</port>
			</output>
		</layer>
		<layer id="179" name="Convert_228" type="Convert" version="opset1">
			<data destination_type="f32" />
			<input>
				<port id="0" precision="I8">
					<dim>64</dim>
					<dim>64</dim>
					<dim>1</dim>
					<dim>1</dim>
				</port>
			</input>
			<output>
				<port id="1" precision="FP32">
					<dim>64</dim>
					<dim>64</dim>
					<dim>1</dim>
					<dim>1</dim>
				</port>
			</output>
		</layer>
		<layer id="180" name="Constant_28864" type="Const" version="opset1">
			<data element_type="f32" shape="1, 1, 1, 1" offset="120856" size="4" />
			<output>
				<port id="0" precision="FP32">
					<dim>1</dim>
					<dim>1</dim>
					<dim>1</dim>
					<dim>1</dim>
				</port>
			</output>
		</layer>
		<layer id="181" name="onnx::Conv_3278_DequantizeLinear" type="Multiply" version="opset1">
			<data auto_broadcast="numpy" />
			<input>
				<port id="0" precision="FP32">
					<dim>64</dim>
					<dim>64</dim>
					<dim>1</dim>
					<dim>1</dim>
				</port>
				<port id="1" precision="FP32">
					<dim>1</dim>
					<dim>1</dim>
					<dim>1</dim>
					<dim>1</dim>
				</port>
			</input>
			<output>
				<port id="2" precision="FP32" names="onnx::Conv_3278_DequantizeLinear_Output">
					<dim>64</dim>
					<dim>64</dim>
					<dim>1</dim>
					<dim>1</dim>
				</port>
			</output>
		</layer>
		<layer id="182" name="/backbone/p3/p3.1/conv1/conv/Conv/WithoutBiases" type="Convolution" version="opset1">
			<data strides="1, 1" dilations="1, 1" pads_begin="0, 0" pads_end="0, 0" auto_pad="explicit" />
			<input>
				<port id="0" precision="FP32">
					<dim>16</dim>
					<dim>64</dim>
					<dim>80</dim>
					<dim>80</dim>
				</port>
				<port id="1" precision="FP32">
					<dim>64</dim>
					<dim>64</dim>
					<dim>1</dim>
					<dim>1</dim>
				</port>
			</input>
			<output>
				<port id="2" precision="FP32">
					<dim>16</dim>
					<dim>64</dim>
					<dim>80</dim>
					<dim>80</dim>
				</port>
			</output>
		</layer>
		<layer id="183" name="onnx::Conv_3279_quantized" type="Const" version="opset1">
			<data element_type="i32" shape="64" offset="120860" size="256" />
			<output>
				<port id="0" precision="I32" names="onnx::Conv_3279_quantized">
					<dim>64</dim>
				</port>
			</output>
		</layer>
		<layer id="184" name="Convert_236" type="Convert" version="opset1">
			<data destination_type="f32" />
			<input>
				<port id="0" precision="I32">
					<dim>64</dim>
				</port>
			</input>
			<output>
				<port id="1" precision="FP32">
					<dim>64</dim>
				</port>
			</output>
		</layer>
		<layer id="185" name="onnx::Conv_3279_quantized_scale" type="Const" version="opset1">
			<data element_type="f32" shape="1" offset="121116" size="4" />
			<output>
				<port id="0" precision="FP32" names="onnx::Conv_3279_quantized_scale">
					<dim>1</dim>
				</port>
			</output>
		</layer>
		<layer id="186" name="onnx::Conv_3279_DequantizeLinear" type="Multiply" version="opset1">
			<data auto_broadcast="numpy" />
			<input>
				<port id="0" precision="FP32">
					<dim>64</dim>
				</port>
				<port id="1" precision="FP32">
					<dim>1</dim>
				</port>
			</input>
			<output>
				<port id="2" precision="FP32" names="onnx::Conv_3279">
					<dim>64</dim>
				</port>
			</output>
		</layer>
		<layer id="187" name="Concat_2039" type="Const" version="opset1">
			<data element_type="i64" shape="4" offset="79568" size="32" />
			<output>
				<port id="0" precision="I64">
					<dim>4</dim>
				</port>
			</output>
		</layer>
		<layer id="188" name="Reshape_2040" type="Reshape" version="opset1">
			<data special_zero="false" />
			<input>
				<port id="0" precision="FP32">
					<dim>64</dim>
				</port>
				<port id="1" precision="I64">
					<dim>4</dim>
				</port>
			</input>
			<output>
				<port id="2" precision="FP32">
					<dim>1</dim>
					<dim>64</dim>
					<dim>1</dim>
					<dim>1</dim>
				</port>
			</output>
		</layer>
		<layer id="189" name="/backbone/p3/p3.1/conv1/conv/Conv" type="Add" version="opset1">
			<data auto_broadcast="numpy" />
			<input>
				<port id="0" precision="FP32">
					<dim>16</dim>
					<dim>64</dim>
					<dim>80</dim>
					<dim>80</dim>
				</port>
				<port id="1" precision="FP32">
					<dim>1</dim>
					<dim>64</dim>
					<dim>1</dim>
					<dim>1</dim>
				</port>
			</input>
			<output>
				<port id="2" precision="FP32" names="/backbone/p3/p3.1/conv1/conv/Conv_output_0">
					<dim>16</dim>
					<dim>64</dim>
					<dim>80</dim>
					<dim>80</dim>
				</port>
			</output>
		</layer>
		<layer id="190" name="Constant_28865" type="Const" version="opset1">
			<data element_type="f32" shape="1, 1, 1, 1" offset="121120" size="4" />
			<output>
				<port id="0" precision="FP32">
					<dim>1</dim>
					<dim>1</dim>
					<dim>1</dim>
					<dim>1</dim>
				</port>
			</output>
		</layer>
		<layer id="191" name="Constant_28866" type="Const" version="opset1">
			<data element_type="f32" shape="1, 1, 1, 1" offset="121124" size="4" />
			<output>
				<port id="0" precision="FP32">
					<dim>1</dim>
					<dim>1</dim>
					<dim>1</dim>
					<dim>1</dim>
				</port>
			</output>
		</layer>
		<layer id="192" name="Constant_28867" type="Const" version="opset1">
			<data element_type="f32" shape="1, 1, 1, 1" offset="121120" size="4" />
			<output>
				<port id="0" precision="FP32">
					<dim>1</dim>
					<dim>1</dim>
					<dim>1</dim>
					<dim>1</dim>
				</port>
			</output>
		</layer>
		<layer id="193" name="Constant_28868" type="Const" version="opset1">
			<data element_type="f32" shape="1, 1, 1, 1" offset="121124" size="4" />
			<output>
				<port id="0" precision="FP32">
					<dim>1</dim>
					<dim>1</dim>
					<dim>1</dim>
					<dim>1</dim>
				</port>
			</output>
		</layer>
		<layer id="194" name="/backbone/p3/p3.1/conv1/conv/Conv_output_0_DequantizeLinear" type="FakeQuantize" version="opset1">
			<data levels="256" auto_broadcast="numpy" />
			<input>
				<port id="0" precision="FP32">
					<dim>16</dim>
					<dim>64</dim>
					<dim>80</dim>
					<dim>80</dim>
				</port>
				<port id="1" precision="FP32">
					<dim>1</dim>
					<dim>1</dim>
					<dim>1</dim>
					<dim>1</dim>
				</port>
				<port id="2" precision="FP32">
					<dim>1</dim>
					<dim>1</dim>
					<dim>1</dim>
					<dim>1</dim>
				</port>
				<port id="3" precision="FP32">
					<dim>1</dim>
					<dim>1</dim>
					<dim>1</dim>
					<dim>1</dim>
				</port>
				<port id="4" precision="FP32">
					<dim>1</dim>
					<dim>1</dim>
					<dim>1</dim>
					<dim>1</dim>
				</port>
			</input>
			<output>
				<port id="5" precision="FP32" names="/backbone/p3/p3.1/conv1/conv/Conv_output_0_DequantizeLinear_Output">
					<dim>16</dim>
					<dim>64</dim>
					<dim>80</dim>
					<dim>80</dim>
				</port>
			</output>
		</layer>
		<layer id="195" name="/backbone/p3/p3.1/conv1/relu/Mul" type="Swish" version="opset4">
			<input>
				<port id="0" precision="FP32">
					<dim>16</dim>
					<dim>64</dim>
					<dim>80</dim>
					<dim>80</dim>
				</port>
			</input>
			<output>
				<port id="1" precision="FP32" names="/backbone/p3/p3.1/conv1/relu/Mul_output_0">
					<dim>16</dim>
					<dim>64</dim>
					<dim>80</dim>
					<dim>80</dim>
				</port>
			</output>
		</layer>
		<layer id="196" name="/backbone/p3/p3.1/Slice" type="Slice" version="opset8">
			<input>
				<port id="0" precision="FP32">
					<dim>16</dim>
					<dim>64</dim>
					<dim>80</dim>
					<dim>80</dim>
				</port>
				<port id="1" precision="I64">
					<dim>1</dim>
				</port>
				<port id="2" precision="I64">
					<dim>1</dim>
				</port>
				<port id="3" precision="I64">
					<dim>1</dim>
				</port>
				<port id="4" precision="I64">
					<dim>1</dim>
				</port>
			</input>
			<output>
				<port id="5" precision="FP32" names="/backbone/p3/p3.1/Slice_output_0">
					<dim>16</dim>
					<dim>32</dim>
					<dim>80</dim>
					<dim>80</dim>
				</port>
			</output>
		</layer>
		<layer id="197" name="/backbone/p3/p3.1/Mul_1_output_0" type="Const" version="opset1">
			<data element_type="i64" shape="1" offset="121128" size="8" />
			<output>
				<port id="0" precision="I64" names="/backbone/p3/p3.1/Mul_1_output_0">
					<dim>1</dim>
				</port>
			</output>
		</layer>
		<layer id="198" name="Broadcast_2072" type="Const" version="opset1">
			<data element_type="i64" shape="1" offset="73728" size="8" />
			<output>
				<port id="0" precision="I64">
					<dim>1</dim>
				</port>
			</output>
		</layer>
		<layer id="199" name="/backbone/p3/p3.1/Slice_1" type="Slice" version="opset8">
			<input>
				<port id="0" precision="FP32">
					<dim>16</dim>
					<dim>64</dim>
					<dim>80</dim>
					<dim>80</dim>
				</port>
				<port id="1" precision="I64">
					<dim>1</dim>
				</port>
				<port id="2" precision="I64">
					<dim>1</dim>
				</port>
				<port id="3" precision="I64">
					<dim>1</dim>
				</port>
				<port id="4" precision="I64">
					<dim>1</dim>
				</port>
			</input>
			<output>
				<port id="5" precision="FP32" names="/backbone/p3/p3.1/Slice_1_output_0">
					<dim>16</dim>
					<dim>32</dim>
					<dim>80</dim>
					<dim>80</dim>
				</port>
			</output>
		</layer>
		<layer id="200" name="Constant_28869" type="Const" version="opset1">
			<data element_type="f32" shape="1, 1, 1, 1" offset="121136" size="4" />
			<output>
				<port id="0" precision="FP32">
					<dim>1</dim>
					<dim>1</dim>
					<dim>1</dim>
					<dim>1</dim>
				</port>
			</output>
		</layer>
		<layer id="201" name="Constant_28870" type="Const" version="opset1">
			<data element_type="f32" shape="1, 1, 1, 1" offset="121140" size="4" />
			<output>
				<port id="0" precision="FP32">
					<dim>1</dim>
					<dim>1</dim>
					<dim>1</dim>
					<dim>1</dim>
				</port>
			</output>
		</layer>
		<layer id="202" name="Constant_28871" type="Const" version="opset1">
			<data element_type="f32" shape="1, 1, 1, 1" offset="121136" size="4" />
			<output>
				<port id="0" precision="FP32">
					<dim>1</dim>
					<dim>1</dim>
					<dim>1</dim>
					<dim>1</dim>
				</port>
			</output>
		</layer>
		<layer id="203" name="Constant_28872" type="Const" version="opset1">
			<data element_type="f32" shape="1, 1, 1, 1" offset="121140" size="4" />
			<output>
				<port id="0" precision="FP32">
					<dim>1</dim>
					<dim>1</dim>
					<dim>1</dim>
					<dim>1</dim>
				</port>
			</output>
		</layer>
		<layer id="204" name="/backbone/p3/p3.1/Slice_1_output_0_DequantizeLinear" type="FakeQuantize" version="opset1">
			<data levels="256" auto_broadcast="numpy" />
			<input>
				<port id="0" precision="FP32">
					<dim>16</dim>
					<dim>32</dim>
					<dim>80</dim>
					<dim>80</dim>
				</port>
				<port id="1" precision="FP32">
					<dim>1</dim>
					<dim>1</dim>
					<dim>1</dim>
					<dim>1</dim>
				</port>
				<port id="2" precision="FP32">
					<dim>1</dim>
					<dim>1</dim>
					<dim>1</dim>
					<dim>1</dim>
				</port>
				<port id="3" precision="FP32">
					<dim>1</dim>
					<dim>1</dim>
					<dim>1</dim>
					<dim>1</dim>
				</port>
				<port id="4" precision="FP32">
					<dim>1</dim>
					<dim>1</dim>
					<dim>1</dim>
					<dim>1</dim>
				</port>
			</input>
			<output>
				<port id="5" precision="FP32" names="/backbone/p3/p3.1/Slice_1_output_0_DequantizeLinear_Output">
					<dim>16</dim>
					<dim>32</dim>
					<dim>80</dim>
					<dim>80</dim>
				</port>
			</output>
		</layer>
		<layer id="205" name="onnx::Conv_3281_quantized" type="Const" version="opset1">
			<data element_type="i8" shape="16, 32, 3, 3" offset="121144" size="4608" />
			<output>
				<port id="0" precision="I8" names="onnx::Conv_3281_quantized">
					<dim>16</dim>
					<dim>32</dim>
					<dim>3</dim>
					<dim>3</dim>
				</port>
			</output>
		</layer>
		<layer id="206" name="Convert_244" type="Convert" version="opset1">
			<data destination_type="f32" />
			<input>
				<port id="0" precision="I8">
					<dim>16</dim>
					<dim>32</dim>
					<dim>3</dim>
					<dim>3</dim>
				</port>
			</input>
			<output>
				<port id="1" precision="FP32">
					<dim>16</dim>
					<dim>32</dim>
					<dim>3</dim>
					<dim>3</dim>
				</port>
			</output>
		</layer>
		<layer id="207" name="Constant_28873" type="Const" version="opset1">
			<data element_type="f32" shape="1, 1, 1, 1" offset="125752" size="4" />
			<output>
				<port id="0" precision="FP32">
					<dim>1</dim>
					<dim>1</dim>
					<dim>1</dim>
					<dim>1</dim>
				</port>
			</output>
		</layer>
		<layer id="208" name="onnx::Conv_3281_DequantizeLinear" type="Multiply" version="opset1">
			<data auto_broadcast="numpy" />
			<input>
				<port id="0" precision="FP32">
					<dim>16</dim>
					<dim>32</dim>
					<dim>3</dim>
					<dim>3</dim>
				</port>
				<port id="1" precision="FP32">
					<dim>1</dim>
					<dim>1</dim>
					<dim>1</dim>
					<dim>1</dim>
				</port>
			</input>
			<output>
				<port id="2" precision="FP32" names="onnx::Conv_3281_DequantizeLinear_Output">
					<dim>16</dim>
					<dim>32</dim>
					<dim>3</dim>
					<dim>3</dim>
				</port>
			</output>
		</layer>
		<layer id="209" name="/backbone/p3/p3.1/res_m.0/conv1/conv/Conv/WithoutBiases" type="Convolution" version="opset1">
			<data strides="1, 1" dilations="1, 1" pads_begin="1, 1" pads_end="1, 1" auto_pad="explicit" />
			<input>
				<port id="0" precision="FP32">
					<dim>16</dim>
					<dim>32</dim>
					<dim>80</dim>
					<dim>80</dim>
				</port>
				<port id="1" precision="FP32">
					<dim>16</dim>
					<dim>32</dim>
					<dim>3</dim>
					<dim>3</dim>
				</port>
			</input>
			<output>
				<port id="2" precision="FP32">
					<dim>16</dim>
					<dim>16</dim>
					<dim>80</dim>
					<dim>80</dim>
				</port>
			</output>
		</layer>
		<layer id="210" name="onnx::Conv_3282_quantized" type="Const" version="opset1">
			<data element_type="i32" shape="16" offset="125756" size="64" />
			<output>
				<port id="0" precision="I32" names="onnx::Conv_3282_quantized">
					<dim>16</dim>
				</port>
			</output>
		</layer>
		<layer id="211" name="Convert_252" type="Convert" version="opset1">
			<data destination_type="f32" />
			<input>
				<port id="0" precision="I32">
					<dim>16</dim>
				</port>
			</input>
			<output>
				<port id="1" precision="FP32">
					<dim>16</dim>
				</port>
			</output>
		</layer>
		<layer id="212" name="onnx::Conv_3282_quantized_scale" type="Const" version="opset1">
			<data element_type="f32" shape="1" offset="125820" size="4" />
			<output>
				<port id="0" precision="FP32" names="onnx::Conv_3282_quantized_scale">
					<dim>1</dim>
				</port>
			</output>
		</layer>
		<layer id="213" name="onnx::Conv_3282_DequantizeLinear" type="Multiply" version="opset1">
			<data auto_broadcast="numpy" />
			<input>
				<port id="0" precision="FP32">
					<dim>16</dim>
				</port>
				<port id="1" precision="FP32">
					<dim>1</dim>
				</port>
			</input>
			<output>
				<port id="2" precision="FP32" names="onnx::Conv_3282">
					<dim>16</dim>
				</port>
			</output>
		</layer>
		<layer id="214" name="Concat_2105" type="Const" version="opset1">
			<data element_type="i64" shape="4" offset="67712" size="32" />
			<output>
				<port id="0" precision="I64">
					<dim>4</dim>
				</port>
			</output>
		</layer>
		<layer id="215" name="Reshape_2106" type="Reshape" version="opset1">
			<data special_zero="false" />
			<input>
				<port id="0" precision="FP32">
					<dim>16</dim>
				</port>
				<port id="1" precision="I64">
					<dim>4</dim>
				</port>
			</input>
			<output>
				<port id="2" precision="FP32">
					<dim>1</dim>
					<dim>16</dim>
					<dim>1</dim>
					<dim>1</dim>
				</port>
			</output>
		</layer>
		<layer id="216" name="/backbone/p3/p3.1/res_m.0/conv1/conv/Conv" type="Add" version="opset1">
			<data auto_broadcast="numpy" />
			<input>
				<port id="0" precision="FP32">
					<dim>16</dim>
					<dim>16</dim>
					<dim>80</dim>
					<dim>80</dim>
				</port>
				<port id="1" precision="FP32">
					<dim>1</dim>
					<dim>16</dim>
					<dim>1</dim>
					<dim>1</dim>
				</port>
			</input>
			<output>
				<port id="2" precision="FP32" names="/backbone/p3/p3.1/res_m.0/conv1/conv/Conv_output_0">
					<dim>16</dim>
					<dim>16</dim>
					<dim>80</dim>
					<dim>80</dim>
				</port>
			</output>
		</layer>
		<layer id="217" name="Constant_28874" type="Const" version="opset1">
			<data element_type="f32" shape="1, 1, 1, 1" offset="125824" size="4" />
			<output>
				<port id="0" precision="FP32">
					<dim>1</dim>
					<dim>1</dim>
					<dim>1</dim>
					<dim>1</dim>
				</port>
			</output>
		</layer>
		<layer id="218" name="Constant_28875" type="Const" version="opset1">
			<data element_type="f32" shape="1, 1, 1, 1" offset="125828" size="4" />
			<output>
				<port id="0" precision="FP32">
					<dim>1</dim>
					<dim>1</dim>
					<dim>1</dim>
					<dim>1</dim>
				</port>
			</output>
		</layer>
		<layer id="219" name="Constant_28876" type="Const" version="opset1">
			<data element_type="f32" shape="1, 1, 1, 1" offset="125824" size="4" />
			<output>
				<port id="0" precision="FP32">
					<dim>1</dim>
					<dim>1</dim>
					<dim>1</dim>
					<dim>1</dim>
				</port>
			</output>
		</layer>
		<layer id="220" name="Constant_28877" type="Const" version="opset1">
			<data element_type="f32" shape="1, 1, 1, 1" offset="125828" size="4" />
			<output>
				<port id="0" precision="FP32">
					<dim>1</dim>
					<dim>1</dim>
					<dim>1</dim>
					<dim>1</dim>
				</port>
			</output>
		</layer>
		<layer id="221" name="/backbone/p3/p3.1/res_m.0/conv1/conv/Conv_output_0_DequantizeLinear" type="FakeQuantize" version="opset1">
			<data levels="256" auto_broadcast="numpy" />
			<input>
				<port id="0" precision="FP32">
					<dim>16</dim>
					<dim>16</dim>
					<dim>80</dim>
					<dim>80</dim>
				</port>
				<port id="1" precision="FP32">
					<dim>1</dim>
					<dim>1</dim>
					<dim>1</dim>
					<dim>1</dim>
				</port>
				<port id="2" precision="FP32">
					<dim>1</dim>
					<dim>1</dim>
					<dim>1</dim>
					<dim>1</dim>
				</port>
				<port id="3" precision="FP32">
					<dim>1</dim>
					<dim>1</dim>
					<dim>1</dim>
					<dim>1</dim>
				</port>
				<port id="4" precision="FP32">
					<dim>1</dim>
					<dim>1</dim>
					<dim>1</dim>
					<dim>1</dim>
				</port>
			</input>
			<output>
				<port id="5" precision="FP32" names="/backbone/p3/p3.1/res_m.0/conv1/conv/Conv_output_0_DequantizeLinear_Output">
					<dim>16</dim>
					<dim>16</dim>
					<dim>80</dim>
					<dim>80</dim>
				</port>
			</output>
		</layer>
		<layer id="222" name="/backbone/p3/p3.1/res_m.0/conv1/relu/Mul" type="Swish" version="opset4">
			<input>
				<port id="0" precision="FP32">
					<dim>16</dim>
					<dim>16</dim>
					<dim>80</dim>
					<dim>80</dim>
				</port>
			</input>
			<output>
				<port id="1" precision="FP32" names="/backbone/p3/p3.1/res_m.0/conv1/relu/Mul_output_0">
					<dim>16</dim>
					<dim>16</dim>
					<dim>80</dim>
					<dim>80</dim>
				</port>
			</output>
		</layer>
		<layer id="223" name="Constant_28878" type="Const" version="opset1">
			<data element_type="f32" shape="1, 1, 1, 1" offset="125832" size="4" />
			<output>
				<port id="0" precision="FP32">
					<dim>1</dim>
					<dim>1</dim>
					<dim>1</dim>
					<dim>1</dim>
				</port>
			</output>
		</layer>
		<layer id="224" name="Constant_28879" type="Const" version="opset1">
			<data element_type="f32" shape="1, 1, 1, 1" offset="125836" size="4" />
			<output>
				<port id="0" precision="FP32">
					<dim>1</dim>
					<dim>1</dim>
					<dim>1</dim>
					<dim>1</dim>
				</port>
			</output>
		</layer>
		<layer id="225" name="Constant_28880" type="Const" version="opset1">
			<data element_type="f32" shape="1, 1, 1, 1" offset="125832" size="4" />
			<output>
				<port id="0" precision="FP32">
					<dim>1</dim>
					<dim>1</dim>
					<dim>1</dim>
					<dim>1</dim>
				</port>
			</output>
		</layer>
		<layer id="226" name="Constant_28881" type="Const" version="opset1">
			<data element_type="f32" shape="1, 1, 1, 1" offset="125836" size="4" />
			<output>
				<port id="0" precision="FP32">
					<dim>1</dim>
					<dim>1</dim>
					<dim>1</dim>
					<dim>1</dim>
				</port>
			</output>
		</layer>
		<layer id="227" name="/backbone/p3/p3.1/res_m.0/conv1/relu/Mul_output_0_DequantizeLinear" type="FakeQuantize" version="opset1">
			<data levels="256" auto_broadcast="numpy" />
			<input>
				<port id="0" precision="FP32">
					<dim>16</dim>
					<dim>16</dim>
					<dim>80</dim>
					<dim>80</dim>
				</port>
				<port id="1" precision="FP32">
					<dim>1</dim>
					<dim>1</dim>
					<dim>1</dim>
					<dim>1</dim>
				</port>
				<port id="2" precision="FP32">
					<dim>1</dim>
					<dim>1</dim>
					<dim>1</dim>
					<dim>1</dim>
				</port>
				<port id="3" precision="FP32">
					<dim>1</dim>
					<dim>1</dim>
					<dim>1</dim>
					<dim>1</dim>
				</port>
				<port id="4" precision="FP32">
					<dim>1</dim>
					<dim>1</dim>
					<dim>1</dim>
					<dim>1</dim>
				</port>
			</input>
			<output>
				<port id="5" precision="FP32" names="/backbone/p3/p3.1/res_m.0/conv1/relu/Mul_output_0_DequantizeLinear_Output">
					<dim>16</dim>
					<dim>16</dim>
					<dim>80</dim>
					<dim>80</dim>
				</port>
			</output>
		</layer>
		<layer id="228" name="onnx::Conv_3284_quantized" type="Const" version="opset1">
			<data element_type="i8" shape="32, 16, 3, 3" offset="125840" size="4608" />
			<output>
				<port id="0" precision="I8" names="onnx::Conv_3284_quantized">
					<dim>32</dim>
					<dim>16</dim>
					<dim>3</dim>
					<dim>3</dim>
				</port>
			</output>
		</layer>
		<layer id="229" name="Convert_260" type="Convert" version="opset1">
			<data destination_type="f32" />
			<input>
				<port id="0" precision="I8">
					<dim>32</dim>
					<dim>16</dim>
					<dim>3</dim>
					<dim>3</dim>
				</port>
			</input>
			<output>
				<port id="1" precision="FP32">
					<dim>32</dim>
					<dim>16</dim>
					<dim>3</dim>
					<dim>3</dim>
				</port>
			</output>
		</layer>
		<layer id="230" name="Constant_28882" type="Const" version="opset1">
			<data element_type="f32" shape="1, 1, 1, 1" offset="130448" size="4" />
			<output>
				<port id="0" precision="FP32">
					<dim>1</dim>
					<dim>1</dim>
					<dim>1</dim>
					<dim>1</dim>
				</port>
			</output>
		</layer>
		<layer id="231" name="onnx::Conv_3284_DequantizeLinear" type="Multiply" version="opset1">
			<data auto_broadcast="numpy" />
			<input>
				<port id="0" precision="FP32">
					<dim>32</dim>
					<dim>16</dim>
					<dim>3</dim>
					<dim>3</dim>
				</port>
				<port id="1" precision="FP32">
					<dim>1</dim>
					<dim>1</dim>
					<dim>1</dim>
					<dim>1</dim>
				</port>
			</input>
			<output>
				<port id="2" precision="FP32" names="onnx::Conv_3284_DequantizeLinear_Output">
					<dim>32</dim>
					<dim>16</dim>
					<dim>3</dim>
					<dim>3</dim>
				</port>
			</output>
		</layer>
		<layer id="232" name="/backbone/p3/p3.1/res_m.0/conv2/conv/Conv/WithoutBiases" type="Convolution" version="opset1">
			<data strides="1, 1" dilations="1, 1" pads_begin="1, 1" pads_end="1, 1" auto_pad="explicit" />
			<input>
				<port id="0" precision="FP32">
					<dim>16</dim>
					<dim>16</dim>
					<dim>80</dim>
					<dim>80</dim>
				</port>
				<port id="1" precision="FP32">
					<dim>32</dim>
					<dim>16</dim>
					<dim>3</dim>
					<dim>3</dim>
				</port>
			</input>
			<output>
				<port id="2" precision="FP32">
					<dim>16</dim>
					<dim>32</dim>
					<dim>80</dim>
					<dim>80</dim>
				</port>
			</output>
		</layer>
		<layer id="233" name="onnx::Conv_3285_quantized" type="Const" version="opset1">
			<data element_type="i32" shape="32" offset="130452" size="128" />
			<output>
				<port id="0" precision="I32" names="onnx::Conv_3285_quantized">
					<dim>32</dim>
				</port>
			</output>
		</layer>
		<layer id="234" name="Convert_268" type="Convert" version="opset1">
			<data destination_type="f32" />
			<input>
				<port id="0" precision="I32">
					<dim>32</dim>
				</port>
			</input>
			<output>
				<port id="1" precision="FP32">
					<dim>32</dim>
				</port>
			</output>
		</layer>
		<layer id="235" name="onnx::Conv_3285_quantized_scale" type="Const" version="opset1">
			<data element_type="f32" shape="1" offset="130580" size="4" />
			<output>
				<port id="0" precision="FP32" names="onnx::Conv_3285_quantized_scale">
					<dim>1</dim>
				</port>
			</output>
		</layer>
		<layer id="236" name="onnx::Conv_3285_DequantizeLinear" type="Multiply" version="opset1">
			<data auto_broadcast="numpy" />
			<input>
				<port id="0" precision="FP32">
					<dim>32</dim>
				</port>
				<port id="1" precision="FP32">
					<dim>1</dim>
				</port>
			</input>
			<output>
				<port id="2" precision="FP32" names="onnx::Conv_3285">
					<dim>32</dim>
				</port>
			</output>
		</layer>
		<layer id="237" name="Concat_2156" type="Const" version="opset1">
			<data element_type="i64" shape="4" offset="72500" size="32" />
			<output>
				<port id="0" precision="I64">
					<dim>4</dim>
				</port>
			</output>
		</layer>
		<layer id="238" name="Reshape_2157" type="Reshape" version="opset1">
			<data special_zero="false" />
			<input>
				<port id="0" precision="FP32">
					<dim>32</dim>
				</port>
				<port id="1" precision="I64">
					<dim>4</dim>
				</port>
			</input>
			<output>
				<port id="2" precision="FP32">
					<dim>1</dim>
					<dim>32</dim>
					<dim>1</dim>
					<dim>1</dim>
				</port>
			</output>
		</layer>
		<layer id="239" name="/backbone/p3/p3.1/res_m.0/conv2/conv/Conv" type="Add" version="opset1">
			<data auto_broadcast="numpy" />
			<input>
				<port id="0" precision="FP32">
					<dim>16</dim>
					<dim>32</dim>
					<dim>80</dim>
					<dim>80</dim>
				</port>
				<port id="1" precision="FP32">
					<dim>1</dim>
					<dim>32</dim>
					<dim>1</dim>
					<dim>1</dim>
				</port>
			</input>
			<output>
				<port id="2" precision="FP32" names="/backbone/p3/p3.1/res_m.0/conv2/conv/Conv_output_0">
					<dim>16</dim>
					<dim>32</dim>
					<dim>80</dim>
					<dim>80</dim>
				</port>
			</output>
		</layer>
		<layer id="240" name="Constant_28883" type="Const" version="opset1">
			<data element_type="f32" shape="1, 1, 1, 1" offset="130584" size="4" />
			<output>
				<port id="0" precision="FP32">
					<dim>1</dim>
					<dim>1</dim>
					<dim>1</dim>
					<dim>1</dim>
				</port>
			</output>
		</layer>
		<layer id="241" name="Constant_28884" type="Const" version="opset1">
			<data element_type="f32" shape="1, 1, 1, 1" offset="130588" size="4" />
			<output>
				<port id="0" precision="FP32">
					<dim>1</dim>
					<dim>1</dim>
					<dim>1</dim>
					<dim>1</dim>
				</port>
			</output>
		</layer>
		<layer id="242" name="Constant_28885" type="Const" version="opset1">
			<data element_type="f32" shape="1, 1, 1, 1" offset="130584" size="4" />
			<output>
				<port id="0" precision="FP32">
					<dim>1</dim>
					<dim>1</dim>
					<dim>1</dim>
					<dim>1</dim>
				</port>
			</output>
		</layer>
		<layer id="243" name="Constant_28886" type="Const" version="opset1">
			<data element_type="f32" shape="1, 1, 1, 1" offset="130588" size="4" />
			<output>
				<port id="0" precision="FP32">
					<dim>1</dim>
					<dim>1</dim>
					<dim>1</dim>
					<dim>1</dim>
				</port>
			</output>
		</layer>
		<layer id="244" name="/backbone/p3/p3.1/res_m.0/conv2/conv/Conv_output_0_DequantizeLinear" type="FakeQuantize" version="opset1">
			<data levels="256" auto_broadcast="numpy" />
			<input>
				<port id="0" precision="FP32">
					<dim>16</dim>
					<dim>32</dim>
					<dim>80</dim>
					<dim>80</dim>
				</port>
				<port id="1" precision="FP32">
					<dim>1</dim>
					<dim>1</dim>
					<dim>1</dim>
					<dim>1</dim>
				</port>
				<port id="2" precision="FP32">
					<dim>1</dim>
					<dim>1</dim>
					<dim>1</dim>
					<dim>1</dim>
				</port>
				<port id="3" precision="FP32">
					<dim>1</dim>
					<dim>1</dim>
					<dim>1</dim>
					<dim>1</dim>
				</port>
				<port id="4" precision="FP32">
					<dim>1</dim>
					<dim>1</dim>
					<dim>1</dim>
					<dim>1</dim>
				</port>
			</input>
			<output>
				<port id="5" precision="FP32" names="/backbone/p3/p3.1/res_m.0/conv2/conv/Conv_output_0_DequantizeLinear_Output">
					<dim>16</dim>
					<dim>32</dim>
					<dim>80</dim>
					<dim>80</dim>
				</port>
			</output>
		</layer>
		<layer id="245" name="/backbone/p3/p3.1/res_m.0/conv2/relu/Mul" type="Swish" version="opset4">
			<input>
				<port id="0" precision="FP32">
					<dim>16</dim>
					<dim>32</dim>
					<dim>80</dim>
					<dim>80</dim>
				</port>
			</input>
			<output>
				<port id="1" precision="FP32" names="/backbone/p3/p3.1/res_m.0/conv2/relu/Mul_output_0">
					<dim>16</dim>
					<dim>32</dim>
					<dim>80</dim>
					<dim>80</dim>
				</port>
			</output>
		</layer>
		<layer id="246" name="/backbone/p3/p3.1/res_m.0/Add" type="Add" version="opset1">
			<data auto_broadcast="numpy" />
			<input>
				<port id="0" precision="FP32">
					<dim>16</dim>
					<dim>32</dim>
					<dim>80</dim>
					<dim>80</dim>
				</port>
				<port id="1" precision="FP32">
					<dim>16</dim>
					<dim>32</dim>
					<dim>80</dim>
					<dim>80</dim>
				</port>
			</input>
			<output>
				<port id="2" precision="FP32" names="/backbone/p3/p3.1/res_m.0/Add_output_0">
					<dim>16</dim>
					<dim>32</dim>
					<dim>80</dim>
					<dim>80</dim>
				</port>
			</output>
		</layer>
		<layer id="247" name="/backbone/p3/p3.1/Concat" type="Concat" version="opset1">
			<data axis="1" />
			<input>
				<port id="0" precision="FP32">
					<dim>16</dim>
					<dim>32</dim>
					<dim>80</dim>
					<dim>80</dim>
				</port>
				<port id="1" precision="FP32">
					<dim>16</dim>
					<dim>32</dim>
					<dim>80</dim>
					<dim>80</dim>
				</port>
				<port id="2" precision="FP32">
					<dim>16</dim>
					<dim>32</dim>
					<dim>80</dim>
					<dim>80</dim>
				</port>
			</input>
			<output>
				<port id="3" precision="FP32" names="/backbone/p3/p3.1/Concat_output_0">
					<dim>16</dim>
					<dim>96</dim>
					<dim>80</dim>
					<dim>80</dim>
				</port>
			</output>
		</layer>
		<layer id="248" name="Constant_28887" type="Const" version="opset1">
			<data element_type="f32" shape="1, 1, 1, 1" offset="130592" size="4" />
			<output>
				<port id="0" precision="FP32">
					<dim>1</dim>
					<dim>1</dim>
					<dim>1</dim>
					<dim>1</dim>
				</port>
			</output>
		</layer>
		<layer id="249" name="Constant_28888" type="Const" version="opset1">
			<data element_type="f32" shape="1, 1, 1, 1" offset="130596" size="4" />
			<output>
				<port id="0" precision="FP32">
					<dim>1</dim>
					<dim>1</dim>
					<dim>1</dim>
					<dim>1</dim>
				</port>
			</output>
		</layer>
		<layer id="250" name="Constant_28889" type="Const" version="opset1">
			<data element_type="f32" shape="1, 1, 1, 1" offset="130592" size="4" />
			<output>
				<port id="0" precision="FP32">
					<dim>1</dim>
					<dim>1</dim>
					<dim>1</dim>
					<dim>1</dim>
				</port>
			</output>
		</layer>
		<layer id="251" name="Constant_28890" type="Const" version="opset1">
			<data element_type="f32" shape="1, 1, 1, 1" offset="130596" size="4" />
			<output>
				<port id="0" precision="FP32">
					<dim>1</dim>
					<dim>1</dim>
					<dim>1</dim>
					<dim>1</dim>
				</port>
			</output>
		</layer>
		<layer id="252" name="/backbone/p3/p3.1/Concat_output_0_DequantizeLinear" type="FakeQuantize" version="opset1">
			<data levels="256" auto_broadcast="numpy" />
			<input>
				<port id="0" precision="FP32">
					<dim>16</dim>
					<dim>96</dim>
					<dim>80</dim>
					<dim>80</dim>
				</port>
				<port id="1" precision="FP32">
					<dim>1</dim>
					<dim>1</dim>
					<dim>1</dim>
					<dim>1</dim>
				</port>
				<port id="2" precision="FP32">
					<dim>1</dim>
					<dim>1</dim>
					<dim>1</dim>
					<dim>1</dim>
				</port>
				<port id="3" precision="FP32">
					<dim>1</dim>
					<dim>1</dim>
					<dim>1</dim>
					<dim>1</dim>
				</port>
				<port id="4" precision="FP32">
					<dim>1</dim>
					<dim>1</dim>
					<dim>1</dim>
					<dim>1</dim>
				</port>
			</input>
			<output>
				<port id="5" precision="FP32" names="/backbone/p3/p3.1/Concat_output_0_DequantizeLinear_Output">
					<dim>16</dim>
					<dim>96</dim>
					<dim>80</dim>
					<dim>80</dim>
				</port>
			</output>
		</layer>
		<layer id="253" name="onnx::Conv_3287_quantized" type="Const" version="opset1">
			<data element_type="i8" shape="128, 96, 1, 1" offset="130600" size="12288" />
			<output>
				<port id="0" precision="I8" names="onnx::Conv_3287_quantized">
					<dim>128</dim>
					<dim>96</dim>
					<dim>1</dim>
					<dim>1</dim>
				</port>
			</output>
		</layer>
		<layer id="254" name="Convert_276" type="Convert" version="opset1">
			<data destination_type="f32" />
			<input>
				<port id="0" precision="I8">
					<dim>128</dim>
					<dim>96</dim>
					<dim>1</dim>
					<dim>1</dim>
				</port>
			</input>
			<output>
				<port id="1" precision="FP32">
					<dim>128</dim>
					<dim>96</dim>
					<dim>1</dim>
					<dim>1</dim>
				</port>
			</output>
		</layer>
		<layer id="255" name="Constant_28891" type="Const" version="opset1">
			<data element_type="f32" shape="1, 1, 1, 1" offset="142888" size="4" />
			<output>
				<port id="0" precision="FP32">
					<dim>1</dim>
					<dim>1</dim>
					<dim>1</dim>
					<dim>1</dim>
				</port>
			</output>
		</layer>
		<layer id="256" name="onnx::Conv_3287_DequantizeLinear" type="Multiply" version="opset1">
			<data auto_broadcast="numpy" />
			<input>
				<port id="0" precision="FP32">
					<dim>128</dim>
					<dim>96</dim>
					<dim>1</dim>
					<dim>1</dim>
				</port>
				<port id="1" precision="FP32">
					<dim>1</dim>
					<dim>1</dim>
					<dim>1</dim>
					<dim>1</dim>
				</port>
			</input>
			<output>
				<port id="2" precision="FP32" names="onnx::Conv_3287_DequantizeLinear_Output">
					<dim>128</dim>
					<dim>96</dim>
					<dim>1</dim>
					<dim>1</dim>
				</port>
			</output>
		</layer>
		<layer id="257" name="/backbone/p3/p3.1/conv2/conv/Conv/WithoutBiases" type="Convolution" version="opset1">
			<data strides="1, 1" dilations="1, 1" pads_begin="0, 0" pads_end="0, 0" auto_pad="explicit" />
			<input>
				<port id="0" precision="FP32">
					<dim>16</dim>
					<dim>96</dim>
					<dim>80</dim>
					<dim>80</dim>
				</port>
				<port id="1" precision="FP32">
					<dim>128</dim>
					<dim>96</dim>
					<dim>1</dim>
					<dim>1</dim>
				</port>
			</input>
			<output>
				<port id="2" precision="FP32">
					<dim>16</dim>
					<dim>128</dim>
					<dim>80</dim>
					<dim>80</dim>
				</port>
			</output>
		</layer>
		<layer id="258" name="onnx::Conv_3288_quantized" type="Const" version="opset1">
			<data element_type="i32" shape="128" offset="142892" size="512" />
			<output>
				<port id="0" precision="I32" names="onnx::Conv_3288_quantized">
					<dim>128</dim>
				</port>
			</output>
		</layer>
		<layer id="259" name="Convert_284" type="Convert" version="opset1">
			<data destination_type="f32" />
			<input>
				<port id="0" precision="I32">
					<dim>128</dim>
				</port>
			</input>
			<output>
				<port id="1" precision="FP32">
					<dim>128</dim>
				</port>
			</output>
		</layer>
		<layer id="260" name="onnx::Conv_3288_quantized_scale" type="Const" version="opset1">
			<data element_type="f32" shape="1" offset="143404" size="4" />
			<output>
				<port id="0" precision="FP32" names="onnx::Conv_3288_quantized_scale">
					<dim>1</dim>
				</port>
			</output>
		</layer>
		<layer id="261" name="onnx::Conv_3288_DequantizeLinear" type="Multiply" version="opset1">
			<data auto_broadcast="numpy" />
			<input>
				<port id="0" precision="FP32">
					<dim>128</dim>
				</port>
				<port id="1" precision="FP32">
					<dim>1</dim>
				</port>
			</input>
			<output>
				<port id="2" precision="FP32" names="onnx::Conv_3288">
					<dim>128</dim>
				</port>
			</output>
		</layer>
		<layer id="262" name="Concat_2209" type="Const" version="opset1">
			<data element_type="i64" shape="4" offset="143408" size="32" />
			<output>
				<port id="0" precision="I64">
					<dim>4</dim>
				</port>
			</output>
		</layer>
		<layer id="263" name="Reshape_2210" type="Reshape" version="opset1">
			<data special_zero="false" />
			<input>
				<port id="0" precision="FP32">
					<dim>128</dim>
				</port>
				<port id="1" precision="I64">
					<dim>4</dim>
				</port>
			</input>
			<output>
				<port id="2" precision="FP32">
					<dim>1</dim>
					<dim>128</dim>
					<dim>1</dim>
					<dim>1</dim>
				</port>
			</output>
		</layer>
		<layer id="264" name="/backbone/p3/p3.1/conv2/conv/Conv" type="Add" version="opset1">
			<data auto_broadcast="numpy" />
			<input>
				<port id="0" precision="FP32">
					<dim>16</dim>
					<dim>128</dim>
					<dim>80</dim>
					<dim>80</dim>
				</port>
				<port id="1" precision="FP32">
					<dim>1</dim>
					<dim>128</dim>
					<dim>1</dim>
					<dim>1</dim>
				</port>
			</input>
			<output>
				<port id="2" precision="FP32" names="/backbone/p3/p3.1/conv2/conv/Conv_output_0">
					<dim>16</dim>
					<dim>128</dim>
					<dim>80</dim>
					<dim>80</dim>
				</port>
			</output>
		</layer>
		<layer id="265" name="Constant_28892" type="Const" version="opset1">
			<data element_type="f32" shape="1, 1, 1, 1" offset="143440" size="4" />
			<output>
				<port id="0" precision="FP32">
					<dim>1</dim>
					<dim>1</dim>
					<dim>1</dim>
					<dim>1</dim>
				</port>
			</output>
		</layer>
		<layer id="266" name="Constant_28893" type="Const" version="opset1">
			<data element_type="f32" shape="1, 1, 1, 1" offset="143444" size="4" />
			<output>
				<port id="0" precision="FP32">
					<dim>1</dim>
					<dim>1</dim>
					<dim>1</dim>
					<dim>1</dim>
				</port>
			</output>
		</layer>
		<layer id="267" name="Constant_28894" type="Const" version="opset1">
			<data element_type="f32" shape="1, 1, 1, 1" offset="143440" size="4" />
			<output>
				<port id="0" precision="FP32">
					<dim>1</dim>
					<dim>1</dim>
					<dim>1</dim>
					<dim>1</dim>
				</port>
			</output>
		</layer>
		<layer id="268" name="Constant_28895" type="Const" version="opset1">
			<data element_type="f32" shape="1, 1, 1, 1" offset="143444" size="4" />
			<output>
				<port id="0" precision="FP32">
					<dim>1</dim>
					<dim>1</dim>
					<dim>1</dim>
					<dim>1</dim>
				</port>
			</output>
		</layer>
		<layer id="269" name="/backbone/p3/p3.1/conv2/conv/Conv_output_0_DequantizeLinear" type="FakeQuantize" version="opset1">
			<data levels="256" auto_broadcast="numpy" />
			<input>
				<port id="0" precision="FP32">
					<dim>16</dim>
					<dim>128</dim>
					<dim>80</dim>
					<dim>80</dim>
				</port>
				<port id="1" precision="FP32">
					<dim>1</dim>
					<dim>1</dim>
					<dim>1</dim>
					<dim>1</dim>
				</port>
				<port id="2" precision="FP32">
					<dim>1</dim>
					<dim>1</dim>
					<dim>1</dim>
					<dim>1</dim>
				</port>
				<port id="3" precision="FP32">
					<dim>1</dim>
					<dim>1</dim>
					<dim>1</dim>
					<dim>1</dim>
				</port>
				<port id="4" precision="FP32">
					<dim>1</dim>
					<dim>1</dim>
					<dim>1</dim>
					<dim>1</dim>
				</port>
			</input>
			<output>
				<port id="5" precision="FP32" names="/backbone/p3/p3.1/conv2/conv/Conv_output_0_DequantizeLinear_Output">
					<dim>16</dim>
					<dim>128</dim>
					<dim>80</dim>
					<dim>80</dim>
				</port>
			</output>
		</layer>
		<layer id="270" name="/backbone/p3/p3.1/conv2/relu/Mul" type="Swish" version="opset4">
			<input>
				<port id="0" precision="FP32">
					<dim>16</dim>
					<dim>128</dim>
					<dim>80</dim>
					<dim>80</dim>
				</port>
			</input>
			<output>
				<port id="1" precision="FP32" names="/backbone/p3/p3.1/conv2/relu/Mul_output_0">
					<dim>16</dim>
					<dim>128</dim>
					<dim>80</dim>
					<dim>80</dim>
				</port>
			</output>
		</layer>
		<layer id="271" name="Constant_28896" type="Const" version="opset1">
			<data element_type="f32" shape="1, 1, 1, 1" offset="143448" size="4" />
			<output>
				<port id="0" precision="FP32">
					<dim>1</dim>
					<dim>1</dim>
					<dim>1</dim>
					<dim>1</dim>
				</port>
			</output>
		</layer>
		<layer id="272" name="Constant_28897" type="Const" version="opset1">
			<data element_type="f32" shape="1, 1, 1, 1" offset="143452" size="4" />
			<output>
				<port id="0" precision="FP32">
					<dim>1</dim>
					<dim>1</dim>
					<dim>1</dim>
					<dim>1</dim>
				</port>
			</output>
		</layer>
		<layer id="273" name="Constant_28898" type="Const" version="opset1">
			<data element_type="f32" shape="1, 1, 1, 1" offset="143448" size="4" />
			<output>
				<port id="0" precision="FP32">
					<dim>1</dim>
					<dim>1</dim>
					<dim>1</dim>
					<dim>1</dim>
				</port>
			</output>
		</layer>
		<layer id="274" name="Constant_28899" type="Const" version="opset1">
			<data element_type="f32" shape="1, 1, 1, 1" offset="143452" size="4" />
			<output>
				<port id="0" precision="FP32">
					<dim>1</dim>
					<dim>1</dim>
					<dim>1</dim>
					<dim>1</dim>
				</port>
			</output>
		</layer>
		<layer id="275" name="/backbone/p3/p3.1/conv2/relu/Mul_output_0_DequantizeLinear" type="FakeQuantize" version="opset1">
			<data levels="256" auto_broadcast="numpy" />
			<input>
				<port id="0" precision="FP32">
					<dim>16</dim>
					<dim>128</dim>
					<dim>80</dim>
					<dim>80</dim>
				</port>
				<port id="1" precision="FP32">
					<dim>1</dim>
					<dim>1</dim>
					<dim>1</dim>
					<dim>1</dim>
				</port>
				<port id="2" precision="FP32">
					<dim>1</dim>
					<dim>1</dim>
					<dim>1</dim>
					<dim>1</dim>
				</port>
				<port id="3" precision="FP32">
					<dim>1</dim>
					<dim>1</dim>
					<dim>1</dim>
					<dim>1</dim>
				</port>
				<port id="4" precision="FP32">
					<dim>1</dim>
					<dim>1</dim>
					<dim>1</dim>
					<dim>1</dim>
				</port>
			</input>
			<output>
				<port id="5" precision="FP32" names="/backbone/p3/p3.1/conv2/relu/Mul_output_0_DequantizeLinear_Output">
					<dim>16</dim>
					<dim>128</dim>
					<dim>80</dim>
					<dim>80</dim>
				</port>
			</output>
		</layer>
		<layer id="276" name="onnx::Conv_3290_quantized" type="Const" version="opset1">
			<data element_type="i8" shape="128, 128, 3, 3" offset="143456" size="147456" />
			<output>
				<port id="0" precision="I8" names="onnx::Conv_3290_quantized">
					<dim>128</dim>
					<dim>128</dim>
					<dim>3</dim>
					<dim>3</dim>
				</port>
			</output>
		</layer>
		<layer id="277" name="Convert_292" type="Convert" version="opset1">
			<data destination_type="f32" />
			<input>
				<port id="0" precision="I8">
					<dim>128</dim>
					<dim>128</dim>
					<dim>3</dim>
					<dim>3</dim>
				</port>
			</input>
			<output>
				<port id="1" precision="FP32">
					<dim>128</dim>
					<dim>128</dim>
					<dim>3</dim>
					<dim>3</dim>
				</port>
			</output>
		</layer>
		<layer id="278" name="Constant_28900" type="Const" version="opset1">
			<data element_type="f32" shape="1, 1, 1, 1" offset="290912" size="4" />
			<output>
				<port id="0" precision="FP32">
					<dim>1</dim>
					<dim>1</dim>
					<dim>1</dim>
					<dim>1</dim>
				</port>
			</output>
		</layer>
		<layer id="279" name="onnx::Conv_3290_DequantizeLinear" type="Multiply" version="opset1">
			<data auto_broadcast="numpy" />
			<input>
				<port id="0" precision="FP32">
					<dim>128</dim>
					<dim>128</dim>
					<dim>3</dim>
					<dim>3</dim>
				</port>
				<port id="1" precision="FP32">
					<dim>1</dim>
					<dim>1</dim>
					<dim>1</dim>
					<dim>1</dim>
				</port>
			</input>
			<output>
				<port id="2" precision="FP32" names="onnx::Conv_3290_DequantizeLinear_Output">
					<dim>128</dim>
					<dim>128</dim>
					<dim>3</dim>
					<dim>3</dim>
				</port>
			</output>
		</layer>
		<layer id="280" name="/backbone/p4/p4.0/conv/Conv/WithoutBiases" type="Convolution" version="opset1">
			<data strides="2, 2" dilations="1, 1" pads_begin="1, 1" pads_end="1, 1" auto_pad="explicit" />
			<input>
				<port id="0" precision="FP32">
					<dim>16</dim>
					<dim>128</dim>
					<dim>80</dim>
					<dim>80</dim>
				</port>
				<port id="1" precision="FP32">
					<dim>128</dim>
					<dim>128</dim>
					<dim>3</dim>
					<dim>3</dim>
				</port>
			</input>
			<output>
				<port id="2" precision="FP32">
					<dim>16</dim>
					<dim>128</dim>
					<dim>40</dim>
					<dim>40</dim>
				</port>
			</output>
		</layer>
		<layer id="281" name="onnx::Conv_3291_quantized" type="Const" version="opset1">
			<data element_type="i32" shape="128" offset="290916" size="512" />
			<output>
				<port id="0" precision="I32" names="onnx::Conv_3291_quantized">
					<dim>128</dim>
				</port>
			</output>
		</layer>
		<layer id="282" name="Convert_300" type="Convert" version="opset1">
			<data destination_type="f32" />
			<input>
				<port id="0" precision="I32">
					<dim>128</dim>
				</port>
			</input>
			<output>
				<port id="1" precision="FP32">
					<dim>128</dim>
				</port>
			</output>
		</layer>
		<layer id="283" name="onnx::Conv_3291_quantized_scale" type="Const" version="opset1">
			<data element_type="f32" shape="1" offset="291428" size="4" />
			<output>
				<port id="0" precision="FP32" names="onnx::Conv_3291_quantized_scale">
					<dim>1</dim>
				</port>
			</output>
		</layer>
		<layer id="284" name="onnx::Conv_3291_DequantizeLinear" type="Multiply" version="opset1">
			<data auto_broadcast="numpy" />
			<input>
				<port id="0" precision="FP32">
					<dim>128</dim>
				</port>
				<port id="1" precision="FP32">
					<dim>1</dim>
				</port>
			</input>
			<output>
				<port id="2" precision="FP32" names="onnx::Conv_3291">
					<dim>128</dim>
				</port>
			</output>
		</layer>
		<layer id="285" name="Concat_2260" type="Const" version="opset1">
			<data element_type="i64" shape="4" offset="143408" size="32" />
			<output>
				<port id="0" precision="I64">
					<dim>4</dim>
				</port>
			</output>
		</layer>
		<layer id="286" name="Reshape_2261" type="Reshape" version="opset1">
			<data special_zero="false" />
			<input>
				<port id="0" precision="FP32">
					<dim>128</dim>
				</port>
				<port id="1" precision="I64">
					<dim>4</dim>
				</port>
			</input>
			<output>
				<port id="2" precision="FP32">
					<dim>1</dim>
					<dim>128</dim>
					<dim>1</dim>
					<dim>1</dim>
				</port>
			</output>
		</layer>
		<layer id="287" name="/backbone/p4/p4.0/conv/Conv" type="Add" version="opset1">
			<data auto_broadcast="numpy" />
			<input>
				<port id="0" precision="FP32">
					<dim>16</dim>
					<dim>128</dim>
					<dim>40</dim>
					<dim>40</dim>
				</port>
				<port id="1" precision="FP32">
					<dim>1</dim>
					<dim>128</dim>
					<dim>1</dim>
					<dim>1</dim>
				</port>
			</input>
			<output>
				<port id="2" precision="FP32" names="/backbone/p4/p4.0/conv/Conv_output_0">
					<dim>16</dim>
					<dim>128</dim>
					<dim>40</dim>
					<dim>40</dim>
				</port>
			</output>
		</layer>
		<layer id="288" name="Constant_28901" type="Const" version="opset1">
			<data element_type="f32" shape="1, 1, 1, 1" offset="291432" size="4" />
			<output>
				<port id="0" precision="FP32">
					<dim>1</dim>
					<dim>1</dim>
					<dim>1</dim>
					<dim>1</dim>
				</port>
			</output>
		</layer>
		<layer id="289" name="Constant_28902" type="Const" version="opset1">
			<data element_type="f32" shape="1, 1, 1, 1" offset="291436" size="4" />
			<output>
				<port id="0" precision="FP32">
					<dim>1</dim>
					<dim>1</dim>
					<dim>1</dim>
					<dim>1</dim>
				</port>
			</output>
		</layer>
		<layer id="290" name="Constant_28903" type="Const" version="opset1">
			<data element_type="f32" shape="1, 1, 1, 1" offset="291432" size="4" />
			<output>
				<port id="0" precision="FP32">
					<dim>1</dim>
					<dim>1</dim>
					<dim>1</dim>
					<dim>1</dim>
				</port>
			</output>
		</layer>
		<layer id="291" name="Constant_28904" type="Const" version="opset1">
			<data element_type="f32" shape="1, 1, 1, 1" offset="291436" size="4" />
			<output>
				<port id="0" precision="FP32">
					<dim>1</dim>
					<dim>1</dim>
					<dim>1</dim>
					<dim>1</dim>
				</port>
			</output>
		</layer>
		<layer id="292" name="/backbone/p4/p4.0/conv/Conv_output_0_DequantizeLinear" type="FakeQuantize" version="opset1">
			<data levels="256" auto_broadcast="numpy" />
			<input>
				<port id="0" precision="FP32">
					<dim>16</dim>
					<dim>128</dim>
					<dim>40</dim>
					<dim>40</dim>
				</port>
				<port id="1" precision="FP32">
					<dim>1</dim>
					<dim>1</dim>
					<dim>1</dim>
					<dim>1</dim>
				</port>
				<port id="2" precision="FP32">
					<dim>1</dim>
					<dim>1</dim>
					<dim>1</dim>
					<dim>1</dim>
				</port>
				<port id="3" precision="FP32">
					<dim>1</dim>
					<dim>1</dim>
					<dim>1</dim>
					<dim>1</dim>
				</port>
				<port id="4" precision="FP32">
					<dim>1</dim>
					<dim>1</dim>
					<dim>1</dim>
					<dim>1</dim>
				</port>
			</input>
			<output>
				<port id="5" precision="FP32" names="/backbone/p4/p4.0/conv/Conv_output_0_DequantizeLinear_Output">
					<dim>16</dim>
					<dim>128</dim>
					<dim>40</dim>
					<dim>40</dim>
				</port>
			</output>
		</layer>
		<layer id="293" name="/backbone/p4/p4.0/relu/Mul" type="Swish" version="opset4">
			<input>
				<port id="0" precision="FP32">
					<dim>16</dim>
					<dim>128</dim>
					<dim>40</dim>
					<dim>40</dim>
				</port>
			</input>
			<output>
				<port id="1" precision="FP32" names="/backbone/p4/p4.0/relu/Mul_output_0">
					<dim>16</dim>
					<dim>128</dim>
					<dim>40</dim>
					<dim>40</dim>
				</port>
			</output>
		</layer>
		<layer id="294" name="Constant_28905" type="Const" version="opset1">
			<data element_type="f32" shape="1, 1, 1, 1" offset="291440" size="4" />
			<output>
				<port id="0" precision="FP32">
					<dim>1</dim>
					<dim>1</dim>
					<dim>1</dim>
					<dim>1</dim>
				</port>
			</output>
		</layer>
		<layer id="295" name="Constant_28906" type="Const" version="opset1">
			<data element_type="f32" shape="1, 1, 1, 1" offset="291444" size="4" />
			<output>
				<port id="0" precision="FP32">
					<dim>1</dim>
					<dim>1</dim>
					<dim>1</dim>
					<dim>1</dim>
				</port>
			</output>
		</layer>
		<layer id="296" name="Constant_28907" type="Const" version="opset1">
			<data element_type="f32" shape="1, 1, 1, 1" offset="291440" size="4" />
			<output>
				<port id="0" precision="FP32">
					<dim>1</dim>
					<dim>1</dim>
					<dim>1</dim>
					<dim>1</dim>
				</port>
			</output>
		</layer>
		<layer id="297" name="Constant_28908" type="Const" version="opset1">
			<data element_type="f32" shape="1, 1, 1, 1" offset="291444" size="4" />
			<output>
				<port id="0" precision="FP32">
					<dim>1</dim>
					<dim>1</dim>
					<dim>1</dim>
					<dim>1</dim>
				</port>
			</output>
		</layer>
		<layer id="298" name="/backbone/p4/p4.0/relu/Mul_output_0_DequantizeLinear" type="FakeQuantize" version="opset1">
			<data levels="256" auto_broadcast="numpy" />
			<input>
				<port id="0" precision="FP32">
					<dim>16</dim>
					<dim>128</dim>
					<dim>40</dim>
					<dim>40</dim>
				</port>
				<port id="1" precision="FP32">
					<dim>1</dim>
					<dim>1</dim>
					<dim>1</dim>
					<dim>1</dim>
				</port>
				<port id="2" precision="FP32">
					<dim>1</dim>
					<dim>1</dim>
					<dim>1</dim>
					<dim>1</dim>
				</port>
				<port id="3" precision="FP32">
					<dim>1</dim>
					<dim>1</dim>
					<dim>1</dim>
					<dim>1</dim>
				</port>
				<port id="4" precision="FP32">
					<dim>1</dim>
					<dim>1</dim>
					<dim>1</dim>
					<dim>1</dim>
				</port>
			</input>
			<output>
				<port id="5" precision="FP32" names="/backbone/p4/p4.0/relu/Mul_output_0_DequantizeLinear_Output">
					<dim>16</dim>
					<dim>128</dim>
					<dim>40</dim>
					<dim>40</dim>
				</port>
			</output>
		</layer>
		<layer id="299" name="onnx::Conv_3293_quantized" type="Const" version="opset1">
			<data element_type="i8" shape="128, 128, 1, 1" offset="291448" size="16384" />
			<output>
				<port id="0" precision="I8" names="onnx::Conv_3293_quantized">
					<dim>128</dim>
					<dim>128</dim>
					<dim>1</dim>
					<dim>1</dim>
				</port>
			</output>
		</layer>
		<layer id="300" name="Convert_308" type="Convert" version="opset1">
			<data destination_type="f32" />
			<input>
				<port id="0" precision="I8">
					<dim>128</dim>
					<dim>128</dim>
					<dim>1</dim>
					<dim>1</dim>
				</port>
			</input>
			<output>
				<port id="1" precision="FP32">
					<dim>128</dim>
					<dim>128</dim>
					<dim>1</dim>
					<dim>1</dim>
				</port>
			</output>
		</layer>
		<layer id="301" name="Constant_28909" type="Const" version="opset1">
			<data element_type="f32" shape="1, 1, 1, 1" offset="307832" size="4" />
			<output>
				<port id="0" precision="FP32">
					<dim>1</dim>
					<dim>1</dim>
					<dim>1</dim>
					<dim>1</dim>
				</port>
			</output>
		</layer>
		<layer id="302" name="onnx::Conv_3293_DequantizeLinear" type="Multiply" version="opset1">
			<data auto_broadcast="numpy" />
			<input>
				<port id="0" precision="FP32">
					<dim>128</dim>
					<dim>128</dim>
					<dim>1</dim>
					<dim>1</dim>
				</port>
				<port id="1" precision="FP32">
					<dim>1</dim>
					<dim>1</dim>
					<dim>1</dim>
					<dim>1</dim>
				</port>
			</input>
			<output>
				<port id="2" precision="FP32" names="onnx::Conv_3293_DequantizeLinear_Output">
					<dim>128</dim>
					<dim>128</dim>
					<dim>1</dim>
					<dim>1</dim>
				</port>
			</output>
		</layer>
		<layer id="303" name="/backbone/p4/p4.1/conv1/conv/Conv/WithoutBiases" type="Convolution" version="opset1">
			<data strides="1, 1" dilations="1, 1" pads_begin="0, 0" pads_end="0, 0" auto_pad="explicit" />
			<input>
				<port id="0" precision="FP32">
					<dim>16</dim>
					<dim>128</dim>
					<dim>40</dim>
					<dim>40</dim>
				</port>
				<port id="1" precision="FP32">
					<dim>128</dim>
					<dim>128</dim>
					<dim>1</dim>
					<dim>1</dim>
				</port>
			</input>
			<output>
				<port id="2" precision="FP32">
					<dim>16</dim>
					<dim>128</dim>
					<dim>40</dim>
					<dim>40</dim>
				</port>
			</output>
		</layer>
		<layer id="304" name="onnx::Conv_3294_quantized" type="Const" version="opset1">
			<data element_type="i32" shape="128" offset="307836" size="512" />
			<output>
				<port id="0" precision="I32" names="onnx::Conv_3294_quantized">
					<dim>128</dim>
				</port>
			</output>
		</layer>
		<layer id="305" name="Convert_316" type="Convert" version="opset1">
			<data destination_type="f32" />
			<input>
				<port id="0" precision="I32">
					<dim>128</dim>
				</port>
			</input>
			<output>
				<port id="1" precision="FP32">
					<dim>128</dim>
				</port>
			</output>
		</layer>
		<layer id="306" name="onnx::Conv_3294_quantized_scale" type="Const" version="opset1">
			<data element_type="f32" shape="1" offset="308348" size="4" />
			<output>
				<port id="0" precision="FP32" names="onnx::Conv_3294_quantized_scale">
					<dim>1</dim>
				</port>
			</output>
		</layer>
		<layer id="307" name="onnx::Conv_3294_DequantizeLinear" type="Multiply" version="opset1">
			<data auto_broadcast="numpy" />
			<input>
				<port id="0" precision="FP32">
					<dim>128</dim>
				</port>
				<port id="1" precision="FP32">
					<dim>1</dim>
				</port>
			</input>
			<output>
				<port id="2" precision="FP32" names="onnx::Conv_3294">
					<dim>128</dim>
				</port>
			</output>
		</layer>
		<layer id="308" name="Concat_2311" type="Const" version="opset1">
			<data element_type="i64" shape="4" offset="143408" size="32" />
			<output>
				<port id="0" precision="I64">
					<dim>4</dim>
				</port>
			</output>
		</layer>
		<layer id="309" name="Reshape_2312" type="Reshape" version="opset1">
			<data special_zero="false" />
			<input>
				<port id="0" precision="FP32">
					<dim>128</dim>
				</port>
				<port id="1" precision="I64">
					<dim>4</dim>
				</port>
			</input>
			<output>
				<port id="2" precision="FP32">
					<dim>1</dim>
					<dim>128</dim>
					<dim>1</dim>
					<dim>1</dim>
				</port>
			</output>
		</layer>
		<layer id="310" name="/backbone/p4/p4.1/conv1/conv/Conv" type="Add" version="opset1">
			<data auto_broadcast="numpy" />
			<input>
				<port id="0" precision="FP32">
					<dim>16</dim>
					<dim>128</dim>
					<dim>40</dim>
					<dim>40</dim>
				</port>
				<port id="1" precision="FP32">
					<dim>1</dim>
					<dim>128</dim>
					<dim>1</dim>
					<dim>1</dim>
				</port>
			</input>
			<output>
				<port id="2" precision="FP32" names="/backbone/p4/p4.1/conv1/conv/Conv_output_0">
					<dim>16</dim>
					<dim>128</dim>
					<dim>40</dim>
					<dim>40</dim>
				</port>
			</output>
		</layer>
		<layer id="311" name="Constant_28910" type="Const" version="opset1">
			<data element_type="f32" shape="1, 1, 1, 1" offset="308352" size="4" />
			<output>
				<port id="0" precision="FP32">
					<dim>1</dim>
					<dim>1</dim>
					<dim>1</dim>
					<dim>1</dim>
				</port>
			</output>
		</layer>
		<layer id="312" name="Constant_28911" type="Const" version="opset1">
			<data element_type="f32" shape="1, 1, 1, 1" offset="308356" size="4" />
			<output>
				<port id="0" precision="FP32">
					<dim>1</dim>
					<dim>1</dim>
					<dim>1</dim>
					<dim>1</dim>
				</port>
			</output>
		</layer>
		<layer id="313" name="Constant_28912" type="Const" version="opset1">
			<data element_type="f32" shape="1, 1, 1, 1" offset="308352" size="4" />
			<output>
				<port id="0" precision="FP32">
					<dim>1</dim>
					<dim>1</dim>
					<dim>1</dim>
					<dim>1</dim>
				</port>
			</output>
		</layer>
		<layer id="314" name="Constant_28913" type="Const" version="opset1">
			<data element_type="f32" shape="1, 1, 1, 1" offset="308356" size="4" />
			<output>
				<port id="0" precision="FP32">
					<dim>1</dim>
					<dim>1</dim>
					<dim>1</dim>
					<dim>1</dim>
				</port>
			</output>
		</layer>
		<layer id="315" name="/backbone/p4/p4.1/conv1/conv/Conv_output_0_DequantizeLinear" type="FakeQuantize" version="opset1">
			<data levels="256" auto_broadcast="numpy" />
			<input>
				<port id="0" precision="FP32">
					<dim>16</dim>
					<dim>128</dim>
					<dim>40</dim>
					<dim>40</dim>
				</port>
				<port id="1" precision="FP32">
					<dim>1</dim>
					<dim>1</dim>
					<dim>1</dim>
					<dim>1</dim>
				</port>
				<port id="2" precision="FP32">
					<dim>1</dim>
					<dim>1</dim>
					<dim>1</dim>
					<dim>1</dim>
				</port>
				<port id="3" precision="FP32">
					<dim>1</dim>
					<dim>1</dim>
					<dim>1</dim>
					<dim>1</dim>
				</port>
				<port id="4" precision="FP32">
					<dim>1</dim>
					<dim>1</dim>
					<dim>1</dim>
					<dim>1</dim>
				</port>
			</input>
			<output>
				<port id="5" precision="FP32" names="/backbone/p4/p4.1/conv1/conv/Conv_output_0_DequantizeLinear_Output">
					<dim>16</dim>
					<dim>128</dim>
					<dim>40</dim>
					<dim>40</dim>
				</port>
			</output>
		</layer>
		<layer id="316" name="/backbone/p4/p4.1/conv1/relu/Mul" type="Swish" version="opset4">
			<input>
				<port id="0" precision="FP32">
					<dim>16</dim>
					<dim>128</dim>
					<dim>40</dim>
					<dim>40</dim>
				</port>
			</input>
			<output>
				<port id="1" precision="FP32" names="/backbone/p4/p4.1/conv1/relu/Mul_output_0">
					<dim>16</dim>
					<dim>128</dim>
					<dim>40</dim>
					<dim>40</dim>
				</port>
			</output>
		</layer>
		<layer id="317" name="/backbone/p4/p4.1/Slice" type="Slice" version="opset8">
			<input>
				<port id="0" precision="FP32">
					<dim>16</dim>
					<dim>128</dim>
					<dim>40</dim>
					<dim>40</dim>
				</port>
				<port id="1" precision="I64">
					<dim>1</dim>
				</port>
				<port id="2" precision="I64">
					<dim>1</dim>
				</port>
				<port id="3" precision="I64">
					<dim>1</dim>
				</port>
				<port id="4" precision="I64">
					<dim>1</dim>
				</port>
			</input>
			<output>
				<port id="5" precision="FP32" names="/backbone/p4/p4.1/Slice_output_0">
					<dim>16</dim>
					<dim>64</dim>
					<dim>40</dim>
					<dim>40</dim>
				</port>
			</output>
		</layer>
		<layer id="318" name="/backbone/p5/p5.3/res_m/res_m.0/conv1/Constant_5_output_0" type="Const" version="opset1">
			<data element_type="i64" shape="1" offset="308360" size="8" />
			<output>
				<port id="0" precision="I64" names="/backbone/p5/p5.3/res_m/res_m.0/conv1/Constant_5_output_0">
					<dim>1</dim>
				</port>
			</output>
		</layer>
		<layer id="319" name="Broadcast_2344" type="Const" version="opset1">
			<data element_type="i64" shape="1" offset="73728" size="8" />
			<output>
				<port id="0" precision="I64">
					<dim>1</dim>
				</port>
			</output>
		</layer>
		<layer id="320" name="/backbone/p4/p4.1/Slice_1" type="Slice" version="opset8">
			<input>
				<port id="0" precision="FP32">
					<dim>16</dim>
					<dim>128</dim>
					<dim>40</dim>
					<dim>40</dim>
				</port>
				<port id="1" precision="I64">
					<dim>1</dim>
				</port>
				<port id="2" precision="I64">
					<dim>1</dim>
				</port>
				<port id="3" precision="I64">
					<dim>1</dim>
				</port>
				<port id="4" precision="I64">
					<dim>1</dim>
				</port>
			</input>
			<output>
				<port id="5" precision="FP32" names="/backbone/p4/p4.1/Slice_1_output_0">
					<dim>16</dim>
					<dim>64</dim>
					<dim>40</dim>
					<dim>40</dim>
				</port>
			</output>
		</layer>
		<layer id="321" name="Constant_28914" type="Const" version="opset1">
			<data element_type="f32" shape="1, 1, 1, 1" offset="308368" size="4" />
			<output>
				<port id="0" precision="FP32">
					<dim>1</dim>
					<dim>1</dim>
					<dim>1</dim>
					<dim>1</dim>
				</port>
			</output>
		</layer>
		<layer id="322" name="Constant_28915" type="Const" version="opset1">
			<data element_type="f32" shape="1, 1, 1, 1" offset="308372" size="4" />
			<output>
				<port id="0" precision="FP32">
					<dim>1</dim>
					<dim>1</dim>
					<dim>1</dim>
					<dim>1</dim>
				</port>
			</output>
		</layer>
		<layer id="323" name="Constant_28916" type="Const" version="opset1">
			<data element_type="f32" shape="1, 1, 1, 1" offset="308368" size="4" />
			<output>
				<port id="0" precision="FP32">
					<dim>1</dim>
					<dim>1</dim>
					<dim>1</dim>
					<dim>1</dim>
				</port>
			</output>
		</layer>
		<layer id="324" name="Constant_28917" type="Const" version="opset1">
			<data element_type="f32" shape="1, 1, 1, 1" offset="308372" size="4" />
			<output>
				<port id="0" precision="FP32">
					<dim>1</dim>
					<dim>1</dim>
					<dim>1</dim>
					<dim>1</dim>
				</port>
			</output>
		</layer>
		<layer id="325" name="/backbone/p4/p4.1/Slice_1_output_0_DequantizeLinear" type="FakeQuantize" version="opset1">
			<data levels="256" auto_broadcast="numpy" />
			<input>
				<port id="0" precision="FP32">
					<dim>16</dim>
					<dim>64</dim>
					<dim>40</dim>
					<dim>40</dim>
				</port>
				<port id="1" precision="FP32">
					<dim>1</dim>
					<dim>1</dim>
					<dim>1</dim>
					<dim>1</dim>
				</port>
				<port id="2" precision="FP32">
					<dim>1</dim>
					<dim>1</dim>
					<dim>1</dim>
					<dim>1</dim>
				</port>
				<port id="3" precision="FP32">
					<dim>1</dim>
					<dim>1</dim>
					<dim>1</dim>
					<dim>1</dim>
				</port>
				<port id="4" precision="FP32">
					<dim>1</dim>
					<dim>1</dim>
					<dim>1</dim>
					<dim>1</dim>
				</port>
			</input>
			<output>
				<port id="5" precision="FP32" names="/backbone/p4/p4.1/Slice_1_output_0_DequantizeLinear_Output">
					<dim>16</dim>
					<dim>64</dim>
					<dim>40</dim>
					<dim>40</dim>
				</port>
			</output>
		</layer>
		<layer id="326" name="onnx::Conv_3296_quantized" type="Const" version="opset1">
			<data element_type="i8" shape="32, 64, 1, 1" offset="308376" size="2048" />
			<output>
				<port id="0" precision="I8" names="onnx::Conv_3296_quantized">
					<dim>32</dim>
					<dim>64</dim>
					<dim>1</dim>
					<dim>1</dim>
				</port>
			</output>
		</layer>
		<layer id="327" name="Convert_324" type="Convert" version="opset1">
			<data destination_type="f32" />
			<input>
				<port id="0" precision="I8">
					<dim>32</dim>
					<dim>64</dim>
					<dim>1</dim>
					<dim>1</dim>
				</port>
			</input>
			<output>
				<port id="1" precision="FP32">
					<dim>32</dim>
					<dim>64</dim>
					<dim>1</dim>
					<dim>1</dim>
				</port>
			</output>
		</layer>
		<layer id="328" name="Constant_28918" type="Const" version="opset1">
			<data element_type="f32" shape="1, 1, 1, 1" offset="310424" size="4" />
			<output>
				<port id="0" precision="FP32">
					<dim>1</dim>
					<dim>1</dim>
					<dim>1</dim>
					<dim>1</dim>
				</port>
			</output>
		</layer>
		<layer id="329" name="onnx::Conv_3296_DequantizeLinear" type="Multiply" version="opset1">
			<data auto_broadcast="numpy" />
			<input>
				<port id="0" precision="FP32">
					<dim>32</dim>
					<dim>64</dim>
					<dim>1</dim>
					<dim>1</dim>
				</port>
				<port id="1" precision="FP32">
					<dim>1</dim>
					<dim>1</dim>
					<dim>1</dim>
					<dim>1</dim>
				</port>
			</input>
			<output>
				<port id="2" precision="FP32" names="onnx::Conv_3296_DequantizeLinear_Output">
					<dim>32</dim>
					<dim>64</dim>
					<dim>1</dim>
					<dim>1</dim>
				</port>
			</output>
		</layer>
		<layer id="330" name="/backbone/p4/p4.1/res_m.0/conv1/conv/Conv/WithoutBiases" type="Convolution" version="opset1">
			<data strides="1, 1" dilations="1, 1" pads_begin="0, 0" pads_end="0, 0" auto_pad="explicit" />
			<input>
				<port id="0" precision="FP32">
					<dim>16</dim>
					<dim>64</dim>
					<dim>40</dim>
					<dim>40</dim>
				</port>
				<port id="1" precision="FP32">
					<dim>32</dim>
					<dim>64</dim>
					<dim>1</dim>
					<dim>1</dim>
				</port>
			</input>
			<output>
				<port id="2" precision="FP32">
					<dim>16</dim>
					<dim>32</dim>
					<dim>40</dim>
					<dim>40</dim>
				</port>
			</output>
		</layer>
		<layer id="331" name="onnx::Conv_3297_quantized" type="Const" version="opset1">
			<data element_type="i32" shape="32" offset="310428" size="128" />
			<output>
				<port id="0" precision="I32" names="onnx::Conv_3297_quantized">
					<dim>32</dim>
				</port>
			</output>
		</layer>
		<layer id="332" name="Convert_332" type="Convert" version="opset1">
			<data destination_type="f32" />
			<input>
				<port id="0" precision="I32">
					<dim>32</dim>
				</port>
			</input>
			<output>
				<port id="1" precision="FP32">
					<dim>32</dim>
				</port>
			</output>
		</layer>
		<layer id="333" name="onnx::Conv_3297_quantized_scale" type="Const" version="opset1">
			<data element_type="f32" shape="1" offset="310556" size="4" />
			<output>
				<port id="0" precision="FP32" names="onnx::Conv_3297_quantized_scale">
					<dim>1</dim>
				</port>
			</output>
		</layer>
		<layer id="334" name="onnx::Conv_3297_DequantizeLinear" type="Multiply" version="opset1">
			<data auto_broadcast="numpy" />
			<input>
				<port id="0" precision="FP32">
					<dim>32</dim>
				</port>
				<port id="1" precision="FP32">
					<dim>1</dim>
				</port>
			</input>
			<output>
				<port id="2" precision="FP32" names="onnx::Conv_3297">
					<dim>32</dim>
				</port>
			</output>
		</layer>
		<layer id="335" name="Concat_2377" type="Const" version="opset1">
			<data element_type="i64" shape="4" offset="72500" size="32" />
			<output>
				<port id="0" precision="I64">
					<dim>4</dim>
				</port>
			</output>
		</layer>
		<layer id="336" name="Reshape_2378" type="Reshape" version="opset1">
			<data special_zero="false" />
			<input>
				<port id="0" precision="FP32">
					<dim>32</dim>
				</port>
				<port id="1" precision="I64">
					<dim>4</dim>
				</port>
			</input>
			<output>
				<port id="2" precision="FP32">
					<dim>1</dim>
					<dim>32</dim>
					<dim>1</dim>
					<dim>1</dim>
				</port>
			</output>
		</layer>
		<layer id="337" name="/backbone/p4/p4.1/res_m.0/conv1/conv/Conv" type="Add" version="opset1">
			<data auto_broadcast="numpy" />
			<input>
				<port id="0" precision="FP32">
					<dim>16</dim>
					<dim>32</dim>
					<dim>40</dim>
					<dim>40</dim>
				</port>
				<port id="1" precision="FP32">
					<dim>1</dim>
					<dim>32</dim>
					<dim>1</dim>
					<dim>1</dim>
				</port>
			</input>
			<output>
				<port id="2" precision="FP32" names="/backbone/p4/p4.1/res_m.0/conv1/conv/Conv_output_0">
					<dim>16</dim>
					<dim>32</dim>
					<dim>40</dim>
					<dim>40</dim>
				</port>
			</output>
		</layer>
		<layer id="338" name="Constant_28919" type="Const" version="opset1">
			<data element_type="f32" shape="1, 1, 1, 1" offset="310560" size="4" />
			<output>
				<port id="0" precision="FP32">
					<dim>1</dim>
					<dim>1</dim>
					<dim>1</dim>
					<dim>1</dim>
				</port>
			</output>
		</layer>
		<layer id="339" name="Constant_28920" type="Const" version="opset1">
			<data element_type="f32" shape="1, 1, 1, 1" offset="310564" size="4" />
			<output>
				<port id="0" precision="FP32">
					<dim>1</dim>
					<dim>1</dim>
					<dim>1</dim>
					<dim>1</dim>
				</port>
			</output>
		</layer>
		<layer id="340" name="Constant_28921" type="Const" version="opset1">
			<data element_type="f32" shape="1, 1, 1, 1" offset="310560" size="4" />
			<output>
				<port id="0" precision="FP32">
					<dim>1</dim>
					<dim>1</dim>
					<dim>1</dim>
					<dim>1</dim>
				</port>
			</output>
		</layer>
		<layer id="341" name="Constant_28922" type="Const" version="opset1">
			<data element_type="f32" shape="1, 1, 1, 1" offset="310564" size="4" />
			<output>
				<port id="0" precision="FP32">
					<dim>1</dim>
					<dim>1</dim>
					<dim>1</dim>
					<dim>1</dim>
				</port>
			</output>
		</layer>
		<layer id="342" name="/backbone/p4/p4.1/res_m.0/conv1/conv/Conv_output_0_DequantizeLinear" type="FakeQuantize" version="opset1">
			<data levels="256" auto_broadcast="numpy" />
			<input>
				<port id="0" precision="FP32">
					<dim>16</dim>
					<dim>32</dim>
					<dim>40</dim>
					<dim>40</dim>
				</port>
				<port id="1" precision="FP32">
					<dim>1</dim>
					<dim>1</dim>
					<dim>1</dim>
					<dim>1</dim>
				</port>
				<port id="2" precision="FP32">
					<dim>1</dim>
					<dim>1</dim>
					<dim>1</dim>
					<dim>1</dim>
				</port>
				<port id="3" precision="FP32">
					<dim>1</dim>
					<dim>1</dim>
					<dim>1</dim>
					<dim>1</dim>
				</port>
				<port id="4" precision="FP32">
					<dim>1</dim>
					<dim>1</dim>
					<dim>1</dim>
					<dim>1</dim>
				</port>
			</input>
			<output>
				<port id="5" precision="FP32" names="/backbone/p4/p4.1/res_m.0/conv1/conv/Conv_output_0_DequantizeLinear_Output">
					<dim>16</dim>
					<dim>32</dim>
					<dim>40</dim>
					<dim>40</dim>
				</port>
			</output>
		</layer>
		<layer id="343" name="/backbone/p4/p4.1/res_m.0/conv1/relu/Mul" type="Swish" version="opset4">
			<input>
				<port id="0" precision="FP32">
					<dim>16</dim>
					<dim>32</dim>
					<dim>40</dim>
					<dim>40</dim>
				</port>
			</input>
			<output>
				<port id="1" precision="FP32" names="/backbone/p4/p4.1/res_m.0/conv1/relu/Mul_output_0">
					<dim>16</dim>
					<dim>32</dim>
					<dim>40</dim>
					<dim>40</dim>
				</port>
			</output>
		</layer>
		<layer id="344" name="Constant_28923" type="Const" version="opset1">
			<data element_type="f32" shape="1, 1, 1, 1" offset="310568" size="4" />
			<output>
				<port id="0" precision="FP32">
					<dim>1</dim>
					<dim>1</dim>
					<dim>1</dim>
					<dim>1</dim>
				</port>
			</output>
		</layer>
		<layer id="345" name="Constant_28924" type="Const" version="opset1">
			<data element_type="f32" shape="1, 1, 1, 1" offset="310572" size="4" />
			<output>
				<port id="0" precision="FP32">
					<dim>1</dim>
					<dim>1</dim>
					<dim>1</dim>
					<dim>1</dim>
				</port>
			</output>
		</layer>
		<layer id="346" name="Constant_28925" type="Const" version="opset1">
			<data element_type="f32" shape="1, 1, 1, 1" offset="310568" size="4" />
			<output>
				<port id="0" precision="FP32">
					<dim>1</dim>
					<dim>1</dim>
					<dim>1</dim>
					<dim>1</dim>
				</port>
			</output>
		</layer>
		<layer id="347" name="Constant_28926" type="Const" version="opset1">
			<data element_type="f32" shape="1, 1, 1, 1" offset="310572" size="4" />
			<output>
				<port id="0" precision="FP32">
					<dim>1</dim>
					<dim>1</dim>
					<dim>1</dim>
					<dim>1</dim>
				</port>
			</output>
		</layer>
		<layer id="348" name="/backbone/p4/p4.1/res_m.0/conv1/relu/Mul_output_0_DequantizeLinear" type="FakeQuantize" version="opset1">
			<data levels="256" auto_broadcast="numpy" />
			<input>
				<port id="0" precision="FP32">
					<dim>16</dim>
					<dim>32</dim>
					<dim>40</dim>
					<dim>40</dim>
				</port>
				<port id="1" precision="FP32">
					<dim>1</dim>
					<dim>1</dim>
					<dim>1</dim>
					<dim>1</dim>
				</port>
				<port id="2" precision="FP32">
					<dim>1</dim>
					<dim>1</dim>
					<dim>1</dim>
					<dim>1</dim>
				</port>
				<port id="3" precision="FP32">
					<dim>1</dim>
					<dim>1</dim>
					<dim>1</dim>
					<dim>1</dim>
				</port>
				<port id="4" precision="FP32">
					<dim>1</dim>
					<dim>1</dim>
					<dim>1</dim>
					<dim>1</dim>
				</port>
			</input>
			<output>
				<port id="5" precision="FP32" names="/backbone/p4/p4.1/res_m.0/conv1/relu/Mul_output_0_DequantizeLinear_Output">
					<dim>16</dim>
					<dim>32</dim>
					<dim>40</dim>
					<dim>40</dim>
				</port>
			</output>
		</layer>
		<layer id="349" name="onnx::Conv_3299_quantized" type="Const" version="opset1">
			<data element_type="i8" shape="32, 32, 3, 3" offset="310576" size="9216" />
			<output>
				<port id="0" precision="I8" names="onnx::Conv_3299_quantized">
					<dim>32</dim>
					<dim>32</dim>
					<dim>3</dim>
					<dim>3</dim>
				</port>
			</output>
		</layer>
		<layer id="350" name="Convert_340" type="Convert" version="opset1">
			<data destination_type="f32" />
			<input>
				<port id="0" precision="I8">
					<dim>32</dim>
					<dim>32</dim>
					<dim>3</dim>
					<dim>3</dim>
				</port>
			</input>
			<output>
				<port id="1" precision="FP32">
					<dim>32</dim>
					<dim>32</dim>
					<dim>3</dim>
					<dim>3</dim>
				</port>
			</output>
		</layer>
		<layer id="351" name="Constant_28927" type="Const" version="opset1">
			<data element_type="f32" shape="1, 1, 1, 1" offset="319792" size="4" />
			<output>
				<port id="0" precision="FP32">
					<dim>1</dim>
					<dim>1</dim>
					<dim>1</dim>
					<dim>1</dim>
				</port>
			</output>
		</layer>
		<layer id="352" name="onnx::Conv_3299_DequantizeLinear" type="Multiply" version="opset1">
			<data auto_broadcast="numpy" />
			<input>
				<port id="0" precision="FP32">
					<dim>32</dim>
					<dim>32</dim>
					<dim>3</dim>
					<dim>3</dim>
				</port>
				<port id="1" precision="FP32">
					<dim>1</dim>
					<dim>1</dim>
					<dim>1</dim>
					<dim>1</dim>
				</port>
			</input>
			<output>
				<port id="2" precision="FP32" names="onnx::Conv_3299_DequantizeLinear_Output">
					<dim>32</dim>
					<dim>32</dim>
…
		<edge from-layer="1812" from-port="0" to-layer="1813" to-port="1" />
		<edge from-layer="1813" from-port="2" to-layer="1814" to-port="1" />
		<edge from-layer="1814" from-port="2" to-layer="1819" to-port="0" />
		<edge from-layer="1815" from-port="0" to-layer="1819" to-port="1" />
		<edge from-layer="1816" from-port="0" to-layer="1819" to-port="2" />
		<edge from-layer="1817" from-port="0" to-layer="1819" to-port="3" />
		<edge from-layer="1818" from-port="0" to-layer="1819" to-port="4" />
		<edge from-layer="1819" from-port="5" to-layer="1820" to-port="0" />
		<edge from-layer="1820" from-port="1" to-layer="1825" to-port="0" />
		<edge from-layer="1821" from-port="0" to-layer="1825" to-port="1" />
		<edge from-layer="1822" from-port="0" to-layer="1825" to-port="2" />
		<edge from-layer="1823" from-port="0" to-layer="1825" to-port="3" />
		<edge from-layer="1824" from-port="0" to-layer="1825" to-port="4" />
		<edge from-layer="1825" from-port="5" to-layer="1830" to-port="0" />
		<edge from-layer="1826" from-port="0" to-layer="1827" to-port="0" />
		<edge from-layer="1827" from-port="1" to-layer="1829" to-port="0" />
		<edge from-layer="1828" from-port="0" to-layer="1829" to-port="1" />
		<edge from-layer="1829" from-port="2" to-layer="1830" to-port="1" />
		<edge from-layer="1830" from-port="2" to-layer="1837" to-port="0" />
		<edge from-layer="1831" from-port="0" to-layer="1832" to-port="0" />
		<edge from-layer="1832" from-port="1" to-layer="1834" to-port="0" />
		<edge from-layer="1833" from-port="0" to-layer="1834" to-port="1" />
		<edge from-layer="1834" from-port="2" to-layer="1836" to-port="0" />
		<edge from-layer="1835" from-port="0" to-layer="1836" to-port="1" />
		<edge from-layer="1836" from-port="2" to-layer="1837" to-port="1" />
		<edge from-layer="1837" from-port="2" to-layer="1842" to-port="0" />
		<edge from-layer="1838" from-port="0" to-layer="1842" to-port="1" />
		<edge from-layer="1839" from-port="0" to-layer="1842" to-port="2" />
		<edge from-layer="1840" from-port="0" to-layer="1842" to-port="3" />
		<edge from-layer="1841" from-port="0" to-layer="1842" to-port="4" />
		<edge from-layer="1842" from-port="5" to-layer="1843" to-port="0" />
		<edge from-layer="1843" from-port="1" to-layer="1844" to-port="1" />
		<edge from-layer="1844" from-port="2" to-layer="1849" to-port="0" />
		<edge from-layer="1845" from-port="0" to-layer="1849" to-port="1" />
		<edge from-layer="1846" from-port="0" to-layer="1849" to-port="2" />
		<edge from-layer="1847" from-port="0" to-layer="1849" to-port="3" />
		<edge from-layer="1848" from-port="0" to-layer="1849" to-port="4" />
		<edge from-layer="1849" from-port="5" to-layer="1924" to-port="0" />
		<edge from-layer="1849" from-port="5" to-layer="1854" to-port="0" />
		<edge from-layer="1850" from-port="0" to-layer="1851" to-port="0" />
		<edge from-layer="1851" from-port="1" to-layer="1853" to-port="0" />
		<edge from-layer="1852" from-port="0" to-layer="1853" to-port="1" />
		<edge from-layer="1853" from-port="2" to-layer="1854" to-port="1" />
		<edge from-layer="1854" from-port="2" to-layer="1861" to-port="0" />
		<edge from-layer="1855" from-port="0" to-layer="1856" to-port="0" />
		<edge from-layer="1856" from-port="1" to-layer="1858" to-port="0" />
		<edge from-layer="1857" from-port="0" to-layer="1858" to-port="1" />
		<edge from-layer="1858" from-port="2" to-layer="1860" to-port="0" />
		<edge from-layer="1859" from-port="0" to-layer="1860" to-port="1" />
		<edge from-layer="1860" from-port="2" to-layer="1861" to-port="1" />
		<edge from-layer="1861" from-port="2" to-layer="1866" to-port="0" />
		<edge from-layer="1862" from-port="0" to-layer="1866" to-port="1" />
		<edge from-layer="1863" from-port="0" to-layer="1866" to-port="2" />
		<edge from-layer="1864" from-port="0" to-layer="1866" to-port="3" />
		<edge from-layer="1865" from-port="0" to-layer="1866" to-port="4" />
		<edge from-layer="1866" from-port="5" to-layer="1867" to-port="0" />
		<edge from-layer="1867" from-port="2" to-layer="1869" to-port="0" />
		<edge from-layer="1868" from-port="0" to-layer="1869" to-port="1" />
		<edge from-layer="1869" from-port="4" to-layer="1870" to-port="1" />
		<edge from-layer="1869" from-port="5" to-layer="1874" to-port="0" />
		<edge from-layer="1869" from-port="3" to-layer="1870" to-port="0" />
		<edge from-layer="1869" from-port="5" to-layer="1876" to-port="0" />
		<edge from-layer="1870" from-port="2" to-layer="1872" to-port="0" />
		<edge from-layer="1871" from-port="0" to-layer="1872" to-port="1" />
		<edge from-layer="1872" from-port="2" to-layer="1873" to-port="0" />
		<edge from-layer="1873" from-port="1" to-layer="1874" to-port="1" />
		<edge from-layer="1874" from-port="2" to-layer="1875" to-port="0" />
		<edge from-layer="1875" from-port="2" to-layer="1901" to-port="0" />
		<edge from-layer="1876" from-port="2" to-layer="1881" to-port="0" />
		<edge from-layer="1877" from-port="0" to-layer="1881" to-port="1" />
		<edge from-layer="1878" from-port="0" to-layer="1881" to-port="2" />
		<edge from-layer="1879" from-port="0" to-layer="1881" to-port="3" />
		<edge from-layer="1880" from-port="0" to-layer="1881" to-port="4" />
		<edge from-layer="1881" from-port="5" to-layer="1888" to-port="0" />
		<edge from-layer="1882" from-port="0" to-layer="1883" to-port="0" />
		<edge from-layer="1883" from-port="1" to-layer="1885" to-port="0" />
		<edge from-layer="1884" from-port="0" to-layer="1885" to-port="1" />
		<edge from-layer="1885" from-port="2" to-layer="1887" to-port="0" />
		<edge from-layer="1886" from-port="0" to-layer="1887" to-port="1" />
		<edge from-layer="1887" from-port="2" to-layer="1888" to-port="1" />
		<edge from-layer="1888" from-port="2" to-layer="1895" to-port="0" />
		<edge from-layer="1889" from-port="0" to-layer="1890" to-port="0" />
		<edge from-layer="1890" from-port="1" to-layer="1892" to-port="0" />
		<edge from-layer="1891" from-port="0" to-layer="1892" to-port="1" />
		<edge from-layer="1892" from-port="2" to-layer="1894" to-port="0" />
		<edge from-layer="1893" from-port="0" to-layer="1894" to-port="1" />
		<edge from-layer="1894" from-port="2" to-layer="1895" to-port="1" />
		<edge from-layer="1895" from-port="2" to-layer="1900" to-port="0" />
		<edge from-layer="1896" from-port="0" to-layer="1900" to-port="1" />
		<edge from-layer="1897" from-port="0" to-layer="1900" to-port="2" />
		<edge from-layer="1898" from-port="0" to-layer="1900" to-port="3" />
		<edge from-layer="1899" from-port="0" to-layer="1900" to-port="4" />
		<edge from-layer="1900" from-port="5" to-layer="1901" to-port="1" />
		<edge from-layer="1901" from-port="2" to-layer="1906" to-port="0" />
		<edge from-layer="1902" from-port="0" to-layer="1906" to-port="1" />
		<edge from-layer="1903" from-port="0" to-layer="1906" to-port="2" />
		<edge from-layer="1904" from-port="0" to-layer="1906" to-port="3" />
		<edge from-layer="1905" from-port="0" to-layer="1906" to-port="4" />
		<edge from-layer="1906" from-port="5" to-layer="1911" to-port="0" />
		<edge from-layer="1907" from-port="0" to-layer="1908" to-port="0" />
		<edge from-layer="1908" from-port="1" to-layer="1910" to-port="0" />
		<edge from-layer="1909" from-port="0" to-layer="1910" to-port="1" />
		<edge from-layer="1910" from-port="2" to-layer="1911" to-port="1" />
		<edge from-layer="1911" from-port="2" to-layer="1918" to-port="0" />
		<edge from-layer="1912" from-port="0" to-layer="1913" to-port="0" />
		<edge from-layer="1913" from-port="1" to-layer="1915" to-port="0" />
		<edge from-layer="1914" from-port="0" to-layer="1915" to-port="1" />
		<edge from-layer="1915" from-port="2" to-layer="1917" to-port="0" />
		<edge from-layer="1916" from-port="0" to-layer="1917" to-port="1" />
		<edge from-layer="1917" from-port="2" to-layer="1918" to-port="1" />
		<edge from-layer="1918" from-port="2" to-layer="1923" to-port="0" />
		<edge from-layer="1919" from-port="0" to-layer="1923" to-port="1" />
		<edge from-layer="1920" from-port="0" to-layer="1923" to-port="2" />
		<edge from-layer="1921" from-port="0" to-layer="1923" to-port="3" />
		<edge from-layer="1922" from-port="0" to-layer="1923" to-port="4" />
		<edge from-layer="1923" from-port="5" to-layer="1924" to-port="1" />
		<edge from-layer="1924" from-port="2" to-layer="1929" to-port="0" />
		<edge from-layer="1925" from-port="0" to-layer="1929" to-port="1" />
		<edge from-layer="1926" from-port="0" to-layer="1929" to-port="2" />
		<edge from-layer="1927" from-port="0" to-layer="1929" to-port="3" />
		<edge from-layer="1928" from-port="0" to-layer="1929" to-port="4" />
		<edge from-layer="1929" from-port="5" to-layer="1934" to-port="0" />
		<edge from-layer="1929" from-port="5" to-layer="1970" to-port="0" />
		<edge from-layer="1930" from-port="0" to-layer="1931" to-port="0" />
		<edge from-layer="1931" from-port="1" to-layer="1933" to-port="0" />
		<edge from-layer="1932" from-port="0" to-layer="1933" to-port="1" />
		<edge from-layer="1933" from-port="2" to-layer="1934" to-port="1" />
		<edge from-layer="1934" from-port="2" to-layer="1941" to-port="0" />
		<edge from-layer="1935" from-port="0" to-layer="1936" to-port="0" />
		<edge from-layer="1936" from-port="1" to-layer="1938" to-port="0" />
		<edge from-layer="1937" from-port="0" to-layer="1938" to-port="1" />
		<edge from-layer="1938" from-port="2" to-layer="1940" to-port="0" />
		<edge from-layer="1939" from-port="0" to-layer="1940" to-port="1" />
		<edge from-layer="1940" from-port="2" to-layer="1941" to-port="1" />
		<edge from-layer="1941" from-port="2" to-layer="1946" to-port="0" />
		<edge from-layer="1942" from-port="0" to-layer="1946" to-port="1" />
		<edge from-layer="1943" from-port="0" to-layer="1946" to-port="2" />
		<edge from-layer="1944" from-port="0" to-layer="1946" to-port="3" />
		<edge from-layer="1945" from-port="0" to-layer="1946" to-port="4" />
		<edge from-layer="1946" from-port="5" to-layer="1947" to-port="0" />
		<edge from-layer="1947" from-port="1" to-layer="1952" to-port="0" />
		<edge from-layer="1948" from-port="0" to-layer="1952" to-port="1" />
		<edge from-layer="1949" from-port="0" to-layer="1952" to-port="2" />
		<edge from-layer="1950" from-port="0" to-layer="1952" to-port="3" />
		<edge from-layer="1951" from-port="0" to-layer="1952" to-port="4" />
		<edge from-layer="1952" from-port="5" to-layer="1957" to-port="0" />
		<edge from-layer="1953" from-port="0" to-layer="1954" to-port="0" />
		<edge from-layer="1954" from-port="1" to-layer="1956" to-port="0" />
		<edge from-layer="1955" from-port="0" to-layer="1956" to-port="1" />
		<edge from-layer="1956" from-port="2" to-layer="1957" to-port="1" />
		<edge from-layer="1957" from-port="2" to-layer="1964" to-port="0" />
		<edge from-layer="1958" from-port="0" to-layer="1959" to-port="0" />
		<edge from-layer="1959" from-port="1" to-layer="1961" to-port="0" />
		<edge from-layer="1960" from-port="0" to-layer="1961" to-port="1" />
		<edge from-layer="1961" from-port="2" to-layer="1963" to-port="0" />
		<edge from-layer="1962" from-port="0" to-layer="1963" to-port="1" />
		<edge from-layer="1963" from-port="2" to-layer="1964" to-port="1" />
		<edge from-layer="1964" from-port="2" to-layer="1969" to-port="0" />
		<edge from-layer="1965" from-port="0" to-layer="1969" to-port="1" />
		<edge from-layer="1966" from-port="0" to-layer="1969" to-port="2" />
		<edge from-layer="1967" from-port="0" to-layer="1969" to-port="3" />
		<edge from-layer="1968" from-port="0" to-layer="1969" to-port="4" />
		<edge from-layer="1969" from-port="5" to-layer="1970" to-port="1" />
		<edge from-layer="1970" from-port="2" to-layer="1971" to-port="2" />
		<edge from-layer="1971" from-port="3" to-layer="1976" to-port="0" />
		<edge from-layer="1972" from-port="0" to-layer="1976" to-port="1" />
		<edge from-layer="1973" from-port="0" to-layer="1976" to-port="2" />
		<edge from-layer="1974" from-port="0" to-layer="1976" to-port="3" />
		<edge from-layer="1975" from-port="0" to-layer="1976" to-port="4" />
		<edge from-layer="1976" from-port="5" to-layer="1981" to-port="0" />
		<edge from-layer="1977" from-port="0" to-layer="1978" to-port="0" />
		<edge from-layer="1978" from-port="1" to-layer="1980" to-port="0" />
		<edge from-layer="1979" from-port="0" to-layer="1980" to-port="1" />
		<edge from-layer="1980" from-port="2" to-layer="1981" to-port="1" />
		<edge from-layer="1981" from-port="2" to-layer="1988" to-port="0" />
		<edge from-layer="1982" from-port="0" to-layer="1983" to-port="0" />
		<edge from-layer="1983" from-port="1" to-layer="1985" to-port="0" />
		<edge from-layer="1984" from-port="0" to-layer="1985" to-port="1" />
		<edge from-layer="1985" from-port="2" to-layer="1987" to-port="0" />
		<edge from-layer="1986" from-port="0" to-layer="1987" to-port="1" />
		<edge from-layer="1987" from-port="2" to-layer="1988" to-port="1" />
		<edge from-layer="1988" from-port="2" to-layer="1993" to-port="0" />
		<edge from-layer="1989" from-port="0" to-layer="1993" to-port="1" />
		<edge from-layer="1990" from-port="0" to-layer="1993" to-port="2" />
		<edge from-layer="1991" from-port="0" to-layer="1993" to-port="3" />
		<edge from-layer="1992" from-port="0" to-layer="1993" to-port="4" />
		<edge from-layer="1993" from-port="5" to-layer="1994" to-port="0" />
		<edge from-layer="1994" from-port="1" to-layer="1999" to-port="0" />
		<edge from-layer="1995" from-port="0" to-layer="1999" to-port="1" />
		<edge from-layer="1996" from-port="0" to-layer="1999" to-port="2" />
		<edge from-layer="1997" from-port="0" to-layer="1999" to-port="3" />
		<edge from-layer="1998" from-port="0" to-layer="1999" to-port="4" />
		<edge from-layer="1999" from-port="5" to-layer="2317" to-port="0" />
		<edge from-layer="1999" from-port="5" to-layer="2004" to-port="0" />
		<edge from-layer="2000" from-port="0" to-layer="2001" to-port="0" />
		<edge from-layer="2001" from-port="1" to-layer="2003" to-port="0" />
		<edge from-layer="2002" from-port="0" to-layer="2003" to-port="1" />
		<edge from-layer="2003" from-port="2" to-layer="2004" to-port="1" />
		<edge from-layer="2004" from-port="2" to-layer="2011" to-port="0" />
		<edge from-layer="2005" from-port="0" to-layer="2006" to-port="0" />
		<edge from-layer="2006" from-port="1" to-layer="2008" to-port="0" />
		<edge from-layer="2007" from-port="0" to-layer="2008" to-port="1" />
		<edge from-layer="2008" from-port="2" to-layer="2010" to-port="0" />
		<edge from-layer="2009" from-port="0" to-layer="2010" to-port="1" />
		<edge from-layer="2010" from-port="2" to-layer="2011" to-port="1" />
		<edge from-layer="2011" from-port="2" to-layer="2016" to-port="0" />
		<edge from-layer="2012" from-port="0" to-layer="2016" to-port="1" />
		<edge from-layer="2013" from-port="0" to-layer="2016" to-port="2" />
		<edge from-layer="2014" from-port="0" to-layer="2016" to-port="3" />
		<edge from-layer="2015" from-port="0" to-layer="2016" to-port="4" />
		<edge from-layer="2016" from-port="5" to-layer="2017" to-port="0" />
		<edge from-layer="2017" from-port="1" to-layer="2022" to-port="0" />
		<edge from-layer="2018" from-port="0" to-layer="2022" to-port="1" />
		<edge from-layer="2019" from-port="0" to-layer="2022" to-port="2" />
		<edge from-layer="2020" from-port="0" to-layer="2022" to-port="3" />
		<edge from-layer="2021" from-port="0" to-layer="2022" to-port="4" />
		<edge from-layer="2022" from-port="5" to-layer="2027" to-port="0" />
		<edge from-layer="2023" from-port="0" to-layer="2024" to-port="0" />
		<edge from-layer="2024" from-port="1" to-layer="2026" to-port="0" />
		<edge from-layer="2025" from-port="0" to-layer="2026" to-port="1" />
		<edge from-layer="2026" from-port="2" to-layer="2027" to-port="1" />
		<edge from-layer="2027" from-port="2" to-layer="2034" to-port="0" />
		<edge from-layer="2028" from-port="0" to-layer="2029" to-port="0" />
		<edge from-layer="2029" from-port="1" to-layer="2031" to-port="0" />
		<edge from-layer="2030" from-port="0" to-layer="2031" to-port="1" />
		<edge from-layer="2031" from-port="2" to-layer="2033" to-port="0" />
		<edge from-layer="2032" from-port="0" to-layer="2033" to-port="1" />
		<edge from-layer="2033" from-port="2" to-layer="2034" to-port="1" />
		<edge from-layer="2034" from-port="2" to-layer="2039" to-port="0" />
		<edge from-layer="2035" from-port="0" to-layer="2039" to-port="1" />
		<edge from-layer="2036" from-port="0" to-layer="2039" to-port="2" />
		<edge from-layer="2037" from-port="0" to-layer="2039" to-port="3" />
		<edge from-layer="2038" from-port="0" to-layer="2039" to-port="4" />
		<edge from-layer="2039" from-port="5" to-layer="2040" to-port="0" />
		<edge from-layer="2040" from-port="1" to-layer="2045" to-port="0" />
		<edge from-layer="2041" from-port="0" to-layer="2045" to-port="1" />
		<edge from-layer="2042" from-port="0" to-layer="2045" to-port="2" />
		<edge from-layer="2043" from-port="0" to-layer="2045" to-port="3" />
		<edge from-layer="2044" from-port="0" to-layer="2045" to-port="4" />
		<edge from-layer="2045" from-port="5" to-layer="2050" to-port="0" />
		<edge from-layer="2046" from-port="0" to-layer="2047" to-port="0" />
		<edge from-layer="2047" from-port="1" to-layer="2049" to-port="0" />
		<edge from-layer="2048" from-port="0" to-layer="2049" to-port="1" />
		<edge from-layer="2049" from-port="2" to-layer="2050" to-port="1" />
		<edge from-layer="2050" from-port="2" to-layer="2057" to-port="0" />
		<edge from-layer="2051" from-port="0" to-layer="2052" to-port="0" />
		<edge from-layer="2052" from-port="1" to-layer="2054" to-port="0" />
		<edge from-layer="2053" from-port="0" to-layer="2054" to-port="1" />
		<edge from-layer="2054" from-port="2" to-layer="2056" to-port="0" />
		<edge from-layer="2055" from-port="0" to-layer="2056" to-port="1" />
		<edge from-layer="2056" from-port="2" to-layer="2057" to-port="1" />
		<edge from-layer="2057" from-port="2" to-layer="2062" to-port="0" />
		<edge from-layer="2058" from-port="0" to-layer="2062" to-port="1" />
		<edge from-layer="2059" from-port="0" to-layer="2062" to-port="2" />
		<edge from-layer="2060" from-port="0" to-layer="2062" to-port="3" />
		<edge from-layer="2061" from-port="0" to-layer="2062" to-port="4" />
		<edge from-layer="2062" from-port="5" to-layer="2064" to-port="0" />
		<edge from-layer="2063" from-port="0" to-layer="2064" to-port="1" />
		<edge from-layer="2064" from-port="2" to-layer="2065" to-port="2" />
		<edge from-layer="2065" from-port="3" to-layer="2066" to-port="0" />
		<edge from-layer="2065" from-port="3" to-layer="2076" to-port="0" />
		<edge from-layer="2065" from-port="3" to-layer="2072" to-port="0" />
		<edge from-layer="2066" from-port="1" to-layer="2068" to-port="0" />
		<edge from-layer="2067" from-port="0" to-layer="2068" to-port="2" />
		<edge from-layer="2068" from-port="3" to-layer="2069" to-port="0" />
		<edge from-layer="2069" from-port="2" to-layer="2071" to-port="0" />
		<edge from-layer="2070" from-port="0" to-layer="2074" to-port="1" />
		<edge from-layer="2070" from-port="0" to-layer="2485" to-port="1" />
		<edge from-layer="2070" from-port="0" to-layer="2483" to-port="1" />
		<edge from-layer="2070" from-port="0" to-layer="2071" to-port="1" />
		<edge from-layer="2071" from-port="2" to-layer="2076" to-port="1" />
		<edge from-layer="2071" from-port="2" to-layer="2072" to-port="2" />
		<edge from-layer="2071" from-port="2" to-layer="2074" to-port="0" />
		<edge from-layer="2072" from-port="5" to-layer="2073" to-port="1" />
		<edge from-layer="2073" from-port="2" to-layer="2078" to-port="0" />
		<edge from-layer="2074" from-port="2" to-layer="2076" to-port="2" />
		<edge from-layer="2075" from-port="0" to-layer="2076" to-port="3" />
		<edge from-layer="2076" from-port="5" to-layer="2077" to-port="1" />
		<edge from-layer="2077" from-port="2" to-layer="2078" to-port="1" />
		<edge from-layer="2078" from-port="2" to-layer="2080" to-port="0" />
		<edge from-layer="2079" from-port="0" to-layer="2080" to-port="1" />
		<edge from-layer="2080" from-port="2" to-layer="2428" to-port="0" />
		<edge from-layer="2081" from-port="0" to-layer="2082" to-port="0" />
		<edge from-layer="2082" from-port="1" to-layer="2084" to-port="0" />
		<edge from-layer="2083" from-port="0" to-layer="2084" to-port="1" />
		<edge from-layer="2084" from-port="2" to-layer="2086" to-port="0" />
		<edge from-layer="2085" from-port="0" to-layer="2086" to-port="1" />
		<edge from-layer="2086" from-port="2" to-layer="2087" to-port="1" />
		<edge from-layer="2087" from-port="2" to-layer="2094" to-port="0" />
		<edge from-layer="2088" from-port="0" to-layer="2089" to-port="0" />
		<edge from-layer="2089" from-port="1" to-layer="2091" to-port="0" />
		<edge from-layer="2090" from-port="0" to-layer="2091" to-port="1" />
		<edge from-layer="2091" from-port="2" to-layer="2093" to-port="0" />
		<edge from-layer="2092" from-port="0" to-layer="2093" to-port="1" />
		<edge from-layer="2093" from-port="2" to-layer="2094" to-port="1" />
		<edge from-layer="2094" from-port="2" to-layer="2099" to-port="0" />
		<edge from-layer="2095" from-port="0" to-layer="2099" to-port="1" />
		<edge from-layer="2096" from-port="0" to-layer="2099" to-port="2" />
		<edge from-layer="2097" from-port="0" to-layer="2099" to-port="3" />
		<edge from-layer="2098" from-port="0" to-layer="2099" to-port="4" />
		<edge from-layer="2099" from-port="5" to-layer="2100" to-port="0" />
		<edge from-layer="2100" from-port="1" to-layer="2105" to-port="0" />
		<edge from-layer="2101" from-port="0" to-layer="2105" to-port="1" />
		<edge from-layer="2102" from-port="0" to-layer="2105" to-port="2" />
		<edge from-layer="2103" from-port="0" to-layer="2105" to-port="3" />
		<edge from-layer="2104" from-port="0" to-layer="2105" to-port="4" />
		<edge from-layer="2105" from-port="5" to-layer="2110" to-port="0" />
		<edge from-layer="2106" from-port="0" to-layer="2107" to-port="0" />
		<edge from-layer="2107" from-port="1" to-layer="2109" to-port="0" />
		<edge from-layer="2108" from-port="0" to-layer="2109" to-port="1" />
		<edge from-layer="2109" from-port="2" to-layer="2110" to-port="1" />
		<edge from-layer="2110" from-port="2" to-layer="2117" to-port="0" />
		<edge from-layer="2111" from-port="0" to-layer="2112" to-port="0" />
		<edge from-layer="2112" from-port="1" to-layer="2114" to-port="0" />
		<edge from-layer="2113" from-port="0" to-layer="2114" to-port="1" />
		<edge from-layer="2114" from-port="2" to-layer="2116" to-port="0" />
		<edge from-layer="2115" from-port="0" to-layer="2116" to-port="1" />
		<edge from-layer="2116" from-port="2" to-layer="2117" to-port="1" />
		<edge from-layer="2117" from-port="2" to-layer="2122" to-port="0" />
		<edge from-layer="2118" from-port="0" to-layer="2122" to-port="1" />
		<edge from-layer="2119" from-port="0" to-layer="2122" to-port="2" />
		<edge from-layer="2120" from-port="0" to-layer="2122" to-port="3" />
		<edge from-layer="2121" from-port="0" to-layer="2122" to-port="4" />
		<edge from-layer="2122" from-port="5" to-layer="2123" to-port="0" />
		<edge from-layer="2123" from-port="1" to-layer="2128" to-port="0" />
		<edge from-layer="2124" from-port="0" to-layer="2128" to-port="1" />
		<edge from-layer="2125" from-port="0" to-layer="2128" to-port="2" />
		<edge from-layer="2126" from-port="0" to-layer="2128" to-port="3" />
		<edge from-layer="2127" from-port="0" to-layer="2128" to-port="4" />
		<edge from-layer="2128" from-port="5" to-layer="2135" to-port="0" />
		<edge from-layer="2129" from-port="0" to-layer="2130" to-port="0" />
		<edge from-layer="2130" from-port="1" to-layer="2132" to-port="0" />
		<edge from-layer="2131" from-port="0" to-layer="2132" to-port="1" />
		<edge from-layer="2132" from-port="2" to-layer="2134" to-port="0" />
		<edge from-layer="2133" from-port="0" to-layer="2134" to-port="1" />
		<edge from-layer="2134" from-port="2" to-layer="2135" to-port="1" />
		<edge from-layer="2135" from-port="2" to-layer="2142" to-port="0" />
		<edge from-layer="2136" from-port="0" to-layer="2137" to-port="0" />
		<edge from-layer="2137" from-port="1" to-layer="2139" to-port="0" />
		<edge from-layer="2138" from-port="0" to-layer="2139" to-port="1" />
		<edge from-layer="2139" from-port="2" to-layer="2141" to-port="0" />
		<edge from-layer="2140" from-port="0" to-layer="2141" to-port="1" />
		<edge from-layer="2141" from-port="2" to-layer="2142" to-port="1" />
		<edge from-layer="2142" from-port="2" to-layer="2147" to-port="0" />
		<edge from-layer="2143" from-port="0" to-layer="2147" to-port="1" />
		<edge from-layer="2144" from-port="0" to-layer="2147" to-port="2" />
		<edge from-layer="2145" from-port="0" to-layer="2147" to-port="3" />
		<edge from-layer="2146" from-port="0" to-layer="2147" to-port="4" />
		<edge from-layer="2147" from-port="5" to-layer="2148" to-port="0" />
		<edge from-layer="2148" from-port="1" to-layer="2153" to-port="0" />
		<edge from-layer="2149" from-port="0" to-layer="2153" to-port="1" />
		<edge from-layer="2150" from-port="0" to-layer="2153" to-port="2" />
		<edge from-layer="2151" from-port="0" to-layer="2153" to-port="3" />
		<edge from-layer="2152" from-port="0" to-layer="2153" to-port="4" />
		<edge from-layer="2153" from-port="5" to-layer="2158" to-port="0" />
		<edge from-layer="2154" from-port="0" to-layer="2155" to-port="0" />
		<edge from-layer="2155" from-port="1" to-layer="2157" to-port="0" />
		<edge from-layer="2156" from-port="0" to-layer="2157" to-port="1" />
		<edge from-layer="2157" from-port="2" to-layer="2158" to-port="1" />
		<edge from-layer="2158" from-port="2" to-layer="2165" to-port="0" />
		<edge from-layer="2159" from-port="0" to-layer="2160" to-port="0" />
		<edge from-layer="2160" from-port="1" to-layer="2162" to-port="0" />
		<edge from-layer="2161" from-port="0" to-layer="2162" to-port="1" />
		<edge from-layer="2162" from-port="2" to-layer="2164" to-port="0" />
		<edge from-layer="2163" from-port="0" to-layer="2164" to-port="1" />
		<edge from-layer="2164" from-port="2" to-layer="2165" to-port="1" />
		<edge from-layer="2165" from-port="2" to-layer="2170" to-port="0" />
		<edge from-layer="2166" from-port="0" to-layer="2170" to-port="1" />
		<edge from-layer="2167" from-port="0" to-layer="2170" to-port="2" />
		<edge from-layer="2168" from-port="0" to-layer="2170" to-port="3" />
		<edge from-layer="2169" from-port="0" to-layer="2170" to-port="4" />
		<edge from-layer="2170" from-port="5" to-layer="2171" to-port="0" />
		<edge from-layer="2171" from-port="1" to-layer="2176" to-port="0" />
		<edge from-layer="2172" from-port="0" to-layer="2176" to-port="1" />
		<edge from-layer="2173" from-port="0" to-layer="2176" to-port="2" />
		<edge from-layer="2174" from-port="0" to-layer="2176" to-port="3" />
		<edge from-layer="2175" from-port="0" to-layer="2176" to-port="4" />
		<edge from-layer="2176" from-port="5" to-layer="2181" to-port="0" />
		<edge from-layer="2177" from-port="0" to-layer="2178" to-port="0" />
		<edge from-layer="2178" from-port="1" to-layer="2180" to-port="0" />
		<edge from-layer="2179" from-port="0" to-layer="2180" to-port="1" />
		<edge from-layer="2180" from-port="2" to-layer="2181" to-port="1" />
		<edge from-layer="2181" from-port="2" to-layer="2188" to-port="0" />
		<edge from-layer="2182" from-port="0" to-layer="2183" to-port="0" />
		<edge from-layer="2183" from-port="1" to-layer="2185" to-port="0" />
		<edge from-layer="2184" from-port="0" to-layer="2185" to-port="1" />
		<edge from-layer="2185" from-port="2" to-layer="2187" to-port="0" />
		<edge from-layer="2186" from-port="0" to-layer="2187" to-port="1" />
		<edge from-layer="2187" from-port="2" to-layer="2188" to-port="1" />
		<edge from-layer="2188" from-port="2" to-layer="2193" to-port="0" />
		<edge from-layer="2189" from-port="0" to-layer="2193" to-port="1" />
		<edge from-layer="2190" from-port="0" to-layer="2193" to-port="2" />
		<edge from-layer="2191" from-port="0" to-layer="2193" to-port="3" />
		<edge from-layer="2192" from-port="0" to-layer="2193" to-port="4" />
		<edge from-layer="2193" from-port="5" to-layer="2195" to-port="0" />
		<edge from-layer="2194" from-port="0" to-layer="2195" to-port="1" />
		<edge from-layer="2195" from-port="2" to-layer="2426" to-port="0" />
		<edge from-layer="2196" from-port="0" to-layer="2197" to-port="0" />
		<edge from-layer="2197" from-port="1" to-layer="2199" to-port="0" />
		<edge from-layer="2198" from-port="0" to-layer="2199" to-port="1" />
		<edge from-layer="2199" from-port="2" to-layer="2201" to-port="0" />
		<edge from-layer="2200" from-port="0" to-layer="2201" to-port="1" />
		<edge from-layer="2201" from-port="2" to-layer="2202" to-port="1" />
		<edge from-layer="2202" from-port="2" to-layer="2209" to-port="0" />
		<edge from-layer="2203" from-port="0" to-layer="2204" to-port="0" />
		<edge from-layer="2204" from-port="1" to-layer="2206" to-port="0" />
		<edge from-layer="2205" from-port="0" to-layer="2206" to-port="1" />
		<edge from-layer="2206" from-port="2" to-layer="2208" to-port="0" />
		<edge from-layer="2207" from-port="0" to-layer="2208" to-port="1" />
		<edge from-layer="2208" from-port="2" to-layer="2209" to-port="1" />
		<edge from-layer="2209" from-port="2" to-layer="2214" to-port="0" />
		<edge from-layer="2210" from-port="0" to-layer="2214" to-port="1" />
		<edge from-layer="2211" from-port="0" to-layer="2214" to-port="2" />
		<edge from-layer="2212" from-port="0" to-layer="2214" to-port="3" />
		<edge from-layer="2213" from-port="0" to-layer="2214" to-port="4" />
		<edge from-layer="2214" from-port="5" to-layer="2215" to-port="0" />
		<edge from-layer="2215" from-port="1" to-layer="2220" to-port="0" />
		<edge from-layer="2216" from-port="0" to-layer="2220" to-port="1" />
		<edge from-layer="2217" from-port="0" to-layer="2220" to-port="2" />
		<edge from-layer="2218" from-port="0" to-layer="2220" to-port="3" />
		<edge from-layer="2219" from-port="0" to-layer="2220" to-port="4" />
		<edge from-layer="2220" from-port="5" to-layer="2225" to-port="0" />
		<edge from-layer="2221" from-port="0" to-layer="2222" to-port="0" />
		<edge from-layer="2222" from-port="1" to-layer="2224" to-port="0" />
		<edge from-layer="2223" from-port="0" to-layer="2224" to-port="1" />
		<edge from-layer="2224" from-port="2" to-layer="2225" to-port="1" />
		<edge from-layer="2225" from-port="2" to-layer="2232" to-port="0" />
		<edge from-layer="2226" from-port="0" to-layer="2227" to-port="0" />
		<edge from-layer="2227" from-port="1" to-layer="2229" to-port="0" />
		<edge from-layer="2228" from-port="0" to-layer="2229" to-port="1" />
		<edge from-layer="2229" from-port="2" to-layer="2231" to-port="0" />
		<edge from-layer="2230" from-port="0" to-layer="2231" to-port="1" />
		<edge from-layer="2231" from-port="2" to-layer="2232" to-port="1" />
		<edge from-layer="2232" from-port="2" to-layer="2237" to-port="0" />
		<edge from-layer="2233" from-port="0" to-layer="2237" to-port="1" />
		<edge from-layer="2234" from-port="0" to-layer="2237" to-port="2" />
		<edge from-layer="2235" from-port="0" to-layer="2237" to-port="3" />
		<edge from-layer="2236" from-port="0" to-layer="2237" to-port="4" />
		<edge from-layer="2237" from-port="5" to-layer="2238" to-port="0" />
		<edge from-layer="2238" from-port="1" to-layer="2243" to-port="0" />
		<edge from-layer="2239" from-port="0" to-layer="2243" to-port="1" />
		<edge from-layer="2240" from-port="0" to-layer="2243" to-port="2" />
		<edge from-layer="2241" from-port="0" to-layer="2243" to-port="3" />
		<edge from-layer="2242" from-port="0" to-layer="2243" to-port="4" />
		<edge from-layer="2243" from-port="5" to-layer="2250" to-port="0" />
		<edge from-layer="2244" from-port="0" to-layer="2245" to-port="0" />
		<edge from-layer="2245" from-port="1" to-layer="2247" to-port="0" />
		<edge from-layer="2246" from-port="0" to-layer="2247" to-port="1" />
		<edge from-layer="2247" from-port="2" to-layer="2249" to-port="0" />
		<edge from-layer="2248" from-port="0" to-layer="2249" to-port="1" />
		<edge from-layer="2249" from-port="2" to-layer="2250" to-port="1" />
		<edge from-layer="2250" from-port="2" to-layer="2257" to-port="0" />
		<edge from-layer="2251" from-port="0" to-layer="2252" to-port="0" />
		<edge from-layer="2252" from-port="1" to-layer="2254" to-port="0" />
		<edge from-layer="2253" from-port="0" to-layer="2254" to-port="1" />
		<edge from-layer="2254" from-port="2" to-layer="2256" to-port="0" />
		<edge from-layer="2255" from-port="0" to-layer="2256" to-port="1" />
		<edge from-layer="2256" from-port="2" to-layer="2257" to-port="1" />
		<edge from-layer="2257" from-port="2" to-layer="2262" to-port="0" />
		<edge from-layer="2258" from-port="0" to-layer="2262" to-port="1" />
		<edge from-layer="2259" from-port="0" to-layer="2262" to-port="2" />
		<edge from-layer="2260" from-port="0" to-layer="2262" to-port="3" />
		<edge from-layer="2261" from-port="0" to-layer="2262" to-port="4" />
		<edge from-layer="2262" from-port="5" to-layer="2263" to-port="0" />
		<edge from-layer="2263" from-port="1" to-layer="2268" to-port="0" />
		<edge from-layer="2264" from-port="0" to-layer="2268" to-port="1" />
		<edge from-layer="2265" from-port="0" to-layer="2268" to-port="2" />
		<edge from-layer="2266" from-port="0" to-layer="2268" to-port="3" />
		<edge from-layer="2267" from-port="0" to-layer="2268" to-port="4" />
		<edge from-layer="2268" from-port="5" to-layer="2273" to-port="0" />
		<edge from-layer="2269" from-port="0" to-layer="2270" to-port="0" />
		<edge from-layer="2270" from-port="1" to-layer="2272" to-port="0" />
		<edge from-layer="2271" from-port="0" to-layer="2272" to-port="1" />
		<edge from-layer="2272" from-port="2" to-layer="2273" to-port="1" />
		<edge from-layer="2273" from-port="2" to-layer="2280" to-port="0" />
		<edge from-layer="2274" from-port="0" to-layer="2275" to-port="0" />
		<edge from-layer="2275" from-port="1" to-layer="2277" to-port="0" />
		<edge from-layer="2276" from-port="0" to-layer="2277" to-port="1" />
		<edge from-layer="2277" from-port="2" to-layer="2279" to-port="0" />
		<edge from-layer="2278" from-port="0" to-layer="2279" to-port="1" />
		<edge from-layer="2279" from-port="2" to-layer="2280" to-port="1" />
		<edge from-layer="2280" from-port="2" to-layer="2285" to-port="0" />
		<edge from-layer="2281" from-port="0" to-layer="2285" to-port="1" />
		<edge from-layer="2282" from-port="0" to-layer="2285" to-port="2" />
		<edge from-layer="2283" from-port="0" to-layer="2285" to-port="3" />
		<edge from-layer="2284" from-port="0" to-layer="2285" to-port="4" />
		<edge from-layer="2285" from-port="5" to-layer="2286" to-port="0" />
		<edge from-layer="2286" from-port="1" to-layer="2291" to-port="0" />
		<edge from-layer="2287" from-port="0" to-layer="2291" to-port="1" />
		<edge from-layer="2288" from-port="0" to-layer="2291" to-port="2" />
		<edge from-layer="2289" from-port="0" to-layer="2291" to-port="3" />
		<edge from-layer="2290" from-port="0" to-layer="2291" to-port="4" />
		<edge from-layer="2291" from-port="5" to-layer="2296" to-port="0" />
		<edge from-layer="2292" from-port="0" to-layer="2293" to-port="0" />
		<edge from-layer="2293" from-port="1" to-layer="2295" to-port="0" />
		<edge from-layer="2294" from-port="0" to-layer="2295" to-port="1" />
		<edge from-layer="2295" from-port="2" to-layer="2296" to-port="1" />
		<edge from-layer="2296" from-port="2" to-layer="2303" to-port="0" />
		<edge from-layer="2297" from-port="0" to-layer="2298" to-port="0" />
		<edge from-layer="2298" from-port="1" to-layer="2300" to-port="0" />
		<edge from-layer="2299" from-port="0" to-layer="2300" to-port="1" />
		<edge from-layer="2300" from-port="2" to-layer="2302" to-port="0" />
		<edge from-layer="2301" from-port="0" to-layer="2302" to-port="1" />
		<edge from-layer="2302" from-port="2" to-layer="2303" to-port="1" />
		<edge from-layer="2303" from-port="2" to-layer="2308" to-port="0" />
		<edge from-layer="2304" from-port="0" to-layer="2308" to-port="1" />
		<edge from-layer="2305" from-port="0" to-layer="2308" to-port="2" />
		<edge from-layer="2306" from-port="0" to-layer="2308" to-port="3" />
		<edge from-layer="2307" from-port="0" to-layer="2308" to-port="4" />
		<edge from-layer="2308" from-port="5" to-layer="2310" to-port="0" />
		<edge from-layer="2309" from-port="0" to-layer="2310" to-port="1" />
		<edge from-layer="2310" from-port="2" to-layer="2426" to-port="1" />
		<edge from-layer="2311" from-port="0" to-layer="2312" to-port="0" />
		<edge from-layer="2312" from-port="1" to-layer="2314" to-port="0" />
		<edge from-layer="2313" from-port="0" to-layer="2314" to-port="1" />
		<edge from-layer="2314" from-port="2" to-layer="2316" to-port="0" />
		<edge from-layer="2315" from-port="0" to-layer="2316" to-port="1" />
		<edge from-layer="2316" from-port="2" to-layer="2317" to-port="1" />
		<edge from-layer="2317" from-port="2" to-layer="2324" to-port="0" />
		<edge from-layer="2318" from-port="0" to-layer="2319" to-port="0" />
		<edge from-layer="2319" from-port="1" to-layer="2321" to-port="0" />
		<edge from-layer="2320" from-port="0" to-layer="2321" to-port="1" />
		<edge from-layer="2321" from-port="2" to-layer="2323" to-port="0" />
		<edge from-layer="2322" from-port="0" to-layer="2323" to-port="1" />
		<edge from-layer="2323" from-port="2" to-layer="2324" to-port="1" />
		<edge from-layer="2324" from-port="2" to-layer="2329" to-port="0" />
		<edge from-layer="2325" from-port="0" to-layer="2329" to-port="1" />
		<edge from-layer="2326" from-port="0" to-layer="2329" to-port="2" />
		<edge from-layer="2327" from-port="0" to-layer="2329" to-port="3" />
		<edge from-layer="2328" from-port="0" to-layer="2329" to-port="4" />
		<edge from-layer="2329" from-port="5" to-layer="2330" to-port="0" />
		<edge from-layer="2330" from-port="1" to-layer="2335" to-port="0" />
		<edge from-layer="2331" from-port="0" to-layer="2335" to-port="1" />
		<edge from-layer="2332" from-port="0" to-layer="2335" to-port="2" />
		<edge from-layer="2333" from-port="0" to-layer="2335" to-port="3" />
		<edge from-layer="2334" from-port="0" to-layer="2335" to-port="4" />
		<edge from-layer="2335" from-port="5" to-layer="2340" to-port="0" />
		<edge from-layer="2336" from-port="0" to-layer="2337" to-port="0" />
		<edge from-layer="2337" from-port="1" to-layer="2339" to-port="0" />
		<edge from-layer="2338" from-port="0" to-layer="2339" to-port="1" />
		<edge from-layer="2339" from-port="2" to-layer="2340" to-port="1" />
		<edge from-layer="2340" from-port="2" to-layer="2347" to-port="0" />
		<edge from-layer="2341" from-port="0" to-layer="2342" to-port="0" />
		<edge from-layer="2342" from-port="1" to-layer="2344" to-port="0" />
		<edge from-layer="2343" from-port="0" to-layer="2344" to-port="1" />
		<edge from-layer="2344" from-port="2" to-layer="2346" to-port="0" />
		<edge from-layer="2345" from-port="0" to-layer="2346" to-port="1" />
		<edge from-layer="2346" from-port="2" to-layer="2347" to-port="1" />
		<edge from-layer="2347" from-port="2" to-layer="2352" to-port="0" />
		<edge from-layer="2348" from-port="0" to-layer="2352" to-port="1" />
		<edge from-layer="2349" from-port="0" to-layer="2352" to-port="2" />
		<edge from-layer="2350" from-port="0" to-layer="2352" to-port="3" />
		<edge from-layer="2351" from-port="0" to-layer="2352" to-port="4" />
		<edge from-layer="2352" from-port="5" to-layer="2353" to-port="0" />
		<edge from-layer="2353" from-port="1" to-layer="2358" to-port="0" />
		<edge from-layer="2354" from-port="0" to-layer="2358" to-port="1" />
		<edge from-layer="2355" from-port="0" to-layer="2358" to-port="2" />
		<edge from-layer="2356" from-port="0" to-layer="2358" to-port="3" />
		<edge from-layer="2357" from-port="0" to-layer="2358" to-port="4" />
		<edge from-layer="2358" from-port="5" to-layer="2365" to-port="0" />
		<edge from-layer="2359" from-port="0" to-layer="2360" to-port="0" />
		<edge from-layer="2360" from-port="1" to-layer="2362" to-port="0" />
		<edge from-layer="2361" from-port="0" to-layer="2362" to-port="1" />
		<edge from-layer="2362" from-port="2" to-layer="2364" to-port="0" />
		<edge from-layer="2363" from-port="0" to-layer="2364" to-port="1" />
		<edge from-layer="2364" from-port="2" to-layer="2365" to-port="1" />
		<edge from-layer="2365" from-port="2" to-layer="2372" to-port="0" />
		<edge from-layer="2366" from-port="0" to-layer="2367" to-port="0" />
		<edge from-layer="2367" from-port="1" to-layer="2369" to-port="0" />
		<edge from-layer="2368" from-port="0" to-layer="2369" to-port="1" />
		<edge from-layer="2369" from-port="2" to-layer="2371" to-port="0" />
		<edge from-layer="2370" from-port="0" to-layer="2371" to-port="1" />
		<edge from-layer="2371" from-port="2" to-layer="2372" to-port="1" />
		<edge from-layer="2372" from-port="2" to-layer="2377" to-port="0" />
		<edge from-layer="2373" from-port="0" to-layer="2377" to-port="1" />
		<edge from-layer="2374" from-port="0" to-layer="2377" to-port="2" />
		<edge from-layer="2375" from-port="0" to-layer="2377" to-port="3" />
		<edge from-layer="2376" from-port="0" to-layer="2377" to-port="4" />
		<edge from-layer="2377" from-port="5" to-layer="2378" to-port="0" />
		<edge from-layer="2378" from-port="1" to-layer="2383" to-port="0" />
		<edge from-layer="2379" from-port="0" to-layer="2383" to-port="1" />
		<edge from-layer="2380" from-port="0" to-layer="2383" to-port="2" />
		<edge from-layer="2381" from-port="0" to-layer="2383" to-port="3" />
		<edge from-layer="2382" from-port="0" to-layer="2383" to-port="4" />
		<edge from-layer="2383" from-port="5" to-layer="2388" to-port="0" />
		<edge from-layer="2384" from-port="0" to-layer="2385" to-port="0" />
		<edge from-layer="2385" from-port="1" to-layer="2387" to-port="0" />
		<edge from-layer="2386" from-port="0" to-layer="2387" to-port="1" />
		<edge from-layer="2387" from-port="2" to-layer="2388" to-port="1" />
		<edge from-layer="2388" from-port="2" to-layer="2395" to-port="0" />
		<edge from-layer="2389" from-port="0" to-layer="2390" to-port="0" />
		<edge from-layer="2390" from-port="1" to-layer="2392" to-port="0" />
		<edge from-layer="2391" from-port="0" to-layer="2392" to-port="1" />
		<edge from-layer="2392" from-port="2" to-layer="2394" to-port="0" />
		<edge from-layer="2393" from-port="0" to-layer="2394" to-port="1" />
		<edge from-layer="2394" from-port="2" to-layer="2395" to-port="1" />
		<edge from-layer="2395" from-port="2" to-layer="2400" to-port="0" />
		<edge from-layer="2396" from-port="0" to-layer="2400" to-port="1" />
		<edge from-layer="2397" from-port="0" to-layer="2400" to-port="2" />
		<edge from-layer="2398" from-port="0" to-layer="2400" to-port="3" />
		<edge from-layer="2399" from-port="0" to-layer="2400" to-port="4" />
		<edge from-layer="2400" from-port="5" to-layer="2401" to-port="0" />
		<edge from-layer="2401" from-port="1" to-layer="2406" to-port="0" />
		<edge from-layer="2402" from-port="0" to-layer="2406" to-port="1" />
		<edge from-layer="2403" from-port="0" to-layer="2406" to-port="2" />
		<edge from-layer="2404" from-port="0" to-layer="2406" to-port="3" />
		<edge from-layer="2405" from-port="0" to-layer="2406" to-port="4" />
		<edge from-layer="2406" from-port="5" to-layer="2411" to-port="0" />
		<edge from-layer="2407" from-port="0" to-layer="2408" to-port="0" />
		<edge from-layer="2408" from-port="1" to-layer="2410" to-port="0" />
		<edge from-layer="2409" from-port="0" to-layer="2410" to-port="1" />
		<edge from-layer="2410" from-port="2" to-layer="2411" to-port="1" />
		<edge from-layer="2411" from-port="2" to-layer="2418" to-port="0" />
		<edge from-layer="2412" from-port="0" to-layer="2413" to-port="0" />
		<edge from-layer="2413" from-port="1" to-layer="2415" to-port="0" />
		<edge from-layer="2414" from-port="0" to-layer="2415" to-port="1" />
		<edge from-layer="2415" from-port="2" to-layer="2417" to-port="0" />
		<edge from-layer="2416" from-port="0" to-layer="2417" to-port="1" />
		<edge from-layer="2417" from-port="2" to-layer="2418" to-port="1" />
		<edge from-layer="2418" from-port="2" to-layer="2423" to-port="0" />
		<edge from-layer="2419" from-port="0" to-layer="2423" to-port="1" />
		<edge from-layer="2420" from-port="0" to-layer="2423" to-port="2" />
		<edge from-layer="2421" from-port="0" to-layer="2423" to-port="3" />
		<edge from-layer="2422" from-port="0" to-layer="2423" to-port="4" />
		<edge from-layer="2423" from-port="5" to-layer="2425" to-port="0" />
		<edge from-layer="2424" from-port="0" to-layer="2425" to-port="1" />
		<edge from-layer="2425" from-port="2" to-layer="2426" to-port="2" />
		<edge from-layer="2426" from-port="3" to-layer="2427" to-port="0" />
		<edge from-layer="2427" from-port="1" to-layer="2428" to-port="1" />
		<edge from-layer="2428" from-port="2" to-layer="2430" to-port="0" />
		<edge from-layer="2429" from-port="0" to-layer="2430" to-port="1" />
		<edge from-layer="2430" from-port="2" to-layer="2433" to-port="0" />
		<edge from-layer="2431" from-port="0" to-layer="2433" to-port="1" />
		<edge from-layer="2432" from-port="0" to-layer="2433" to-port="2" />
		<edge from-layer="2433" from-port="3" to-layer="2482" to-port="0" />
		<edge from-layer="2433" from-port="4" to-layer="2458" to-port="0" />
		<edge from-layer="2433" from-port="4" to-layer="2435" to-port="0" />
		<edge from-layer="2433" from-port="4" to-layer="2450" to-port="0" />
		<edge from-layer="2434" from-port="0" to-layer="2435" to-port="1" />
		<edge from-layer="2435" from-port="2" to-layer="2437" to-port="0" />
		<edge from-layer="2436" from-port="0" to-layer="2437" to-port="1" />
		<edge from-layer="2437" from-port="3" to-layer="2439" to-port="0" />
		<edge from-layer="2438" from-port="0" to-layer="2439" to-port="1" />
		<edge from-layer="2439" from-port="2" to-layer="2440" to-port="0" />
		<edge from-layer="2439" from-port="2" to-layer="2457" to-port="0" />
		<edge from-layer="2439" from-port="2" to-layer="2449" to-port="0" />
		<edge from-layer="2440" from-port="1" to-layer="2444" to-port="0" />
		<edge from-layer="2441" from-port="0" to-layer="2444" to-port="1" />
		<edge from-layer="2442" from-port="0" to-layer="2444" to-port="2" />
		<edge from-layer="2443" from-port="0" to-layer="2444" to-port="3" />
		<edge from-layer="2444" from-port="4" to-layer="2446" to-port="0" />
		<edge from-layer="2445" from-port="0" to-layer="2446" to-port="1" />
		<edge from-layer="2446" from-port="2" to-layer="2448" to-port="0" />
		<edge from-layer="2447" from-port="0" to-layer="2448" to-port="1" />
		<edge from-layer="2448" from-port="2" to-layer="2449" to-port="1" />
		<edge from-layer="2449" from-port="2" to-layer="2477" to-port="0" />
		<edge from-layer="2450" from-port="1" to-layer="2453" to-port="0" />
		<edge from-layer="2451" from-port="0" to-layer="2453" to-port="1" />
		<edge from-layer="2452" from-port="0" to-layer="2453" to-port="2" />
		<edge from-layer="2453" from-port="3" to-layer="2484" to-port="1" />
		<edge from-layer="2453" from-port="3" to-layer="2455" to-port="0" />
		<edge from-layer="2453" from-port="3" to-layer="2463" to-port="1" />
		<edge from-layer="2454" from-port="0" to-layer="2455" to-port="1" />
		<edge from-layer="2455" from-port="2" to-layer="2456" to-port="2" />
		<edge from-layer="2456" from-port="3" to-layer="2457" to-port="1" />
		<edge from-layer="2457" from-port="2" to-layer="2458" to-port="1" />
		<edge from-layer="2458" from-port="2" to-layer="2460" to-port="0" />
		<edge from-layer="2459" from-port="0" to-layer="2460" to-port="1" />
		<edge from-layer="2460" from-port="2" to-layer="2462" to-port="0" />
		<edge from-layer="2461" from-port="0" to-layer="2462" to-port="1" />
		<edge from-layer="2462" from-port="3" to-layer="2463" to-port="0" />
		<edge from-layer="2462" from-port="3" to-layer="2484" to-port="0" />
		<edge from-layer="2462" from-port="2" to-layer="2483" to-port="0" />
		<edge from-layer="2463" from-port="2" to-layer="2475" to-port="0" />
		<edge from-layer="2464" from-port="0" to-layer="2471" to-port="0" />
		<edge from-layer="2465" from-port="1" to-layer="2468" to-port="0" />
		<edge from-layer="2466" from-port="0" to-layer="2468" to-port="1" />
		<edge from-layer="2467" from-port="0" to-layer="2468" to-port="2" />
		<edge from-layer="2468" from-port="3" to-layer="2469" to-port="0" />
		<edge from-layer="2469" from-port="1" to-layer="2471" to-port="1" />
		<edge from-layer="2470" from-port="0" to-layer="2471" to-port="2" />
		<edge from-layer="2471" from-port="3" to-layer="2472" to-port="0" />
		<edge from-layer="2472" from-port="2" to-layer="2474" to-port="0" />
		<edge from-layer="2473" from-port="0" to-layer="2474" to-port="1" />
		<edge from-layer="2474" from-port="2" to-layer="2475" to-port="1" />
		<edge from-layer="2475" from-port="2" to-layer="2477" to-port="1" />
		<edge from-layer="2476" from-port="0" to-layer="2477" to-port="2" />
		<edge from-layer="2477" from-port="3" to-layer="2479" to-port="0" />
		<edge from-layer="2478" from-port="0" to-layer="2479" to-port="1" />
		<edge from-layer="2479" from-port="2" to-layer="2481" to-port="0" />
		<edge from-layer="2480" from-port="0" to-layer="2481" to-port="1" />
		<edge from-layer="2481" from-port="2" to-layer="2482" to-port="1" />
		<edge from-layer="2482" from-port="2" to-layer="2487" to-port="0" />
		<edge from-layer="2483" from-port="2" to-layer="2487" to-port="1" />
		<edge from-layer="2484" from-port="2" to-layer="2485" to-port="0" />
		<edge from-layer="2485" from-port="2" to-layer="2486" to-port="0" />
		<edge from-layer="2486" from-port="1" to-layer="2487" to-port="2" />
		<edge from-layer="2487" from-port="3" to-layer="2488" to-port="0" />
	</edges>
	<rt_info>
		<info name="OpenVINO Runtime" value="2026.2.0-21903-52ddc073857-releases/2026/2" />
		<Runtime_version value="2026.2.0-21903-52ddc073857-releases/2026/2" />
		<conversion_parameters>
			<input_model value="DIR/best_yolov26n_qat_int8_static.onnx" />
			<is_python_object value="False" />
		</conversion_parameters>
		<framework>
			<onnx.infer value="onnxruntime.quant" />
			<onnx.quant.pre_process value="onnxruntime.quant" />
		</framework>
	</rt_info>
</net>
