<?xml version="1.0"?>
<net name="onnx_Frontend_IR" version="11">
	<layers>
		<layer id="0" name="images" type="Parameter" version="opset1">
			<data shape="16,3,640,640" element_type="f32" />
			<output>
				<port id="0" precision="FP32" names="images">
					<dim>16</dim>
					<dim>3</dim>
					<dim>640</dim>
					<dim>640</dim>
				</port>
			</output>
		</layer>
		<layer id="1" name="/head/Unsqueeze_15_output_0" type="Const" version="opset1">
			<data element_type="f32" shape="1, 2, 8400" offset="0" size="67200" />
			<output>
				<port id="0" precision="FP32" names="/head/Unsqueeze_15_output_0">
					<dim>1</dim>
					<dim>2</dim>
					<dim>8400</dim>
				</port>
			</output>
		</layer>
		<layer id="2" name="backbone.p1.0.conv.weight_int8" type="Const" version="opset1">
			<data element_type="i8" shape="16, 3, 3, 3" offset="67200" size="432" />
			<output>
				<port id="0" precision="I8" names="backbone.p1.0.conv.weight_int8">
					<dim>16</dim>
					<dim>3</dim>
					<dim>3</dim>
					<dim>3</dim>
				</port>
			</output>
		</layer>
		<layer id="3" name="Convert_8" type="Convert" version="opset1">
			<data destination_type="f32" />
			<input>
				<port id="0" precision="I8">
					<dim>16</dim>
					<dim>3</dim>
					<dim>3</dim>
					<dim>3</dim>
				</port>
			</input>
			<output>
				<port id="1" precision="FP32">
					<dim>16</dim>
					<dim>3</dim>
					<dim>3</dim>
					<dim>3</dim>
				</port>
			</output>
		</layer>
		<layer id="4" name="Reshape_7" type="Const" version="opset1">
			<data element_type="f32" shape="16, 1, 1, 1" offset="67632" size="64" />
			<output>
				<port id="0" precision="FP32">
					<dim>16</dim>
					<dim>1</dim>
					<dim>1</dim>
					<dim>1</dim>
				</port>
			</output>
		</layer>
		<layer id="5" name="/backbone/p1/p1.0/weight_fake_quant/DequantizeLinear" type="Multiply" version="opset1">
			<data auto_broadcast="numpy" />
			<input>
				<port id="0" precision="FP32">
					<dim>16</dim>
					<dim>3</dim>
					<dim>3</dim>
					<dim>3</dim>
				</port>
				<port id="1" precision="FP32">
					<dim>16</dim>
					<dim>1</dim>
					<dim>1</dim>
					<dim>1</dim>
				</port>
			</input>
			<output>
				<port id="2" precision="FP32" names="/backbone/p1/p1.0/weight_fake_quant/DequantizeLinear_output_0">
					<dim>16</dim>
					<dim>3</dim>
					<dim>3</dim>
					<dim>3</dim>
				</port>
			</output>
		</layer>
		<layer id="6" name="Reshape_23773" type="Const" version="opset1">
			<data element_type="f32" shape="16, 1, 1, 1" offset="67696" size="64" />
			<output>
				<port id="0" precision="FP32">
					<dim>16</dim>
					<dim>1</dim>
					<dim>1</dim>
					<dim>1</dim>
				</port>
			</output>
		</layer>
		<layer id="7" name="Multiply_23774" type="Multiply" version="opset1">
			<data auto_broadcast="numpy" />
			<input>
				<port id="0" precision="FP32">
					<dim>16</dim>
					<dim>3</dim>
					<dim>3</dim>
					<dim>3</dim>
				</port>
				<port id="1" precision="FP32">
					<dim>16</dim>
					<dim>1</dim>
					<dim>1</dim>
					<dim>1</dim>
				</port>
			</input>
			<output>
				<port id="2" precision="FP32">
					<dim>16</dim>
					<dim>3</dim>
					<dim>3</dim>
					<dim>3</dim>
				</port>
			</output>
		</layer>
		<layer id="8" name="Multiply_23100" type="Convolution" version="opset1">
			<data strides="2, 2" dilations="1, 1" pads_begin="1, 1" pads_end="1, 1" auto_pad="explicit" />
			<input>
				<port id="0" precision="FP32">
					<dim>16</dim>
					<dim>3</dim>
					<dim>640</dim>
					<dim>640</dim>
				</port>
				<port id="1" precision="FP32">
					<dim>16</dim>
					<dim>3</dim>
					<dim>3</dim>
					<dim>3</dim>
				</port>
			</input>
			<output>
				<port id="2" precision="FP32">
					<dim>16</dim>
					<dim>16</dim>
					<dim>320</dim>
					<dim>320</dim>
				</port>
			</output>
		</layer>
		<layer id="9" name="Constant_23105" type="Const" version="opset1">
			<data element_type="f32" shape="1, 16, 1, 1" offset="67760" size="64" />
			<output>
				<port id="0" precision="FP32">
					<dim>1</dim>
					<dim>16</dim>
					<dim>1</dim>
					<dim>1</dim>
				</port>
			</output>
		</layer>
		<layer id="10" name="/backbone/p1/p1.0/norm/BatchNormalization" type="Add" version="opset1">
			<data auto_broadcast="numpy" />
			<input>
				<port id="0" precision="FP32">
					<dim>16</dim>
					<dim>16</dim>
					<dim>320</dim>
					<dim>320</dim>
				</port>
				<port id="1" precision="FP32">
					<dim>1</dim>
					<dim>16</dim>
					<dim>1</dim>
					<dim>1</dim>
				</port>
			</input>
			<output>
				<port id="2" precision="FP32" names="/backbone/p1/p1.0/norm/BatchNormalization_output_0">
					<dim>16</dim>
					<dim>16</dim>
					<dim>320</dim>
					<dim>320</dim>
				</port>
			</output>
		</layer>
		<layer id="11" name="/backbone/p1/p1.0/relu/Mul" type="Swish" version="opset4">
			<input>
				<port id="0" precision="FP32">
					<dim>16</dim>
					<dim>16</dim>
					<dim>320</dim>
					<dim>320</dim>
				</port>
			</input>
			<output>
				<port id="1" precision="FP32" names="/backbone/p1/p1.0/relu/Mul_output_0">
					<dim>16</dim>
					<dim>16</dim>
					<dim>320</dim>
					<dim>320</dim>
				</port>
			</output>
		</layer>
		<layer id="12" name="Constant_24478" type="Const" version="opset1">
			<data element_type="f32" shape="1, 1, 1, 1" offset="67824" size="4" />
			<output>
				<port id="0" precision="FP32">
					<dim>1</dim>
					<dim>1</dim>
					<dim>1</dim>
					<dim>1</dim>
				</port>
			</output>
		</layer>
		<layer id="13" name="Constant_24479" type="Const" version="opset1">
			<data element_type="f32" shape="1, 1, 1, 1" offset="67828" size="4" />
			<output>
				<port id="0" precision="FP32">
					<dim>1</dim>
					<dim>1</dim>
					<dim>1</dim>
					<dim>1</dim>
				</port>
			</output>
		</layer>
		<layer id="14" name="Constant_24480" type="Const" version="opset1">
			<data element_type="f32" shape="1, 1, 1, 1" offset="67824" size="4" />
			<output>
				<port id="0" precision="FP32">
					<dim>1</dim>
					<dim>1</dim>
					<dim>1</dim>
					<dim>1</dim>
				</port>
			</output>
		</layer>
		<layer id="15" name="Constant_24481" type="Const" version="opset1">
			<data element_type="f32" shape="1, 1, 1, 1" offset="67828" size="4" />
			<output>
				<port id="0" precision="FP32">
					<dim>1</dim>
					<dim>1</dim>
					<dim>1</dim>
					<dim>1</dim>
				</port>
			</output>
		</layer>
		<layer id="16" name="/backbone/p1/p1.0/activation_fake_quant/DequantizeLinear" type="FakeQuantize" version="opset1">
			<data levels="256" auto_broadcast="numpy" />
			<input>
				<port id="0" precision="FP32">
					<dim>16</dim>
					<dim>16</dim>
					<dim>320</dim>
					<dim>320</dim>
				</port>
				<port id="1" precision="FP32">
					<dim>1</dim>
					<dim>1</dim>
					<dim>1</dim>
					<dim>1</dim>
				</port>
				<port id="2" precision="FP32">
					<dim>1</dim>
					<dim>1</dim>
					<dim>1</dim>
					<dim>1</dim>
				</port>
				<port id="3" precision="FP32">
					<dim>1</dim>
					<dim>1</dim>
					<dim>1</dim>
					<dim>1</dim>
				</port>
				<port id="4" precision="FP32">
					<dim>1</dim>
					<dim>1</dim>
					<dim>1</dim>
					<dim>1</dim>
				</port>
			</input>
			<output>
				<port id="5" precision="FP32" names="/backbone/p1/p1.0/activation_fake_quant/DequantizeLinear_output_0">
					<dim>16</dim>
					<dim>16</dim>
					<dim>320</dim>
					<dim>320</dim>
				</port>
			</output>
		</layer>
		<layer id="17" name="backbone.p2.0.conv.weight_int8" type="Const" version="opset1">
			<data element_type="i8" shape="32, 16, 3, 3" offset="67832" size="4608" />
			<output>
				<port id="0" precision="I8" names="backbone.p2.0.conv.weight_int8">
					<dim>32</dim>
					<dim>16</dim>
					<dim>3</dim>
					<dim>3</dim>
				</port>
			</output>
		</layer>
		<layer id="18" name="Convert_19" type="Convert" version="opset1">
			<data destination_type="f32" />
			<input>
				<port id="0" precision="I8">
					<dim>32</dim>
					<dim>16</dim>
					<dim>3</dim>
					<dim>3</dim>
				</port>
			</input>
			<output>
				<port id="1" precision="FP32">
					<dim>32</dim>
					<dim>16</dim>
					<dim>3</dim>
					<dim>3</dim>
				</port>
			</output>
		</layer>
		<layer id="19" name="Reshape_18" type="Const" version="opset1">
			<data element_type="f32" shape="32, 1, 1, 1" offset="72440" size="128" />
			<output>
				<port id="0" precision="FP32">
					<dim>32</dim>
					<dim>1</dim>
					<dim>1</dim>
					<dim>1</dim>
				</port>
			</output>
		</layer>
		<layer id="20" name="/backbone/p2/p2.0/weight_fake_quant/DequantizeLinear" type="Multiply" version="opset1">
			<data auto_broadcast="numpy" />
			<input>
				<port id="0" precision="FP32">
					<dim>32</dim>
					<dim>16</dim>
					<dim>3</dim>
					<dim>3</dim>
				</port>
				<port id="1" precision="FP32">
					<dim>32</dim>
					<dim>1</dim>
					<dim>1</dim>
					<dim>1</dim>
				</port>
			</input>
			<output>
				<port id="2" precision="FP32" names="/backbone/p2/p2.0/weight_fake_quant/DequantizeLinear_output_0">
					<dim>32</dim>
					<dim>16</dim>
					<dim>3</dim>
					<dim>3</dim>
				</port>
			</output>
		</layer>
		<layer id="21" name="Reshape_23777" type="Const" version="opset1">
			<data element_type="f32" shape="32, 1, 1, 1" offset="72568" size="128" />
			<output>
				<port id="0" precision="FP32">
					<dim>32</dim>
					<dim>1</dim>
					<dim>1</dim>
					<dim>1</dim>
				</port>
			</output>
		</layer>
		<layer id="22" name="Multiply_23778" type="Multiply" version="opset1">
			<data auto_broadcast="numpy" />
			<input>
				<port id="0" precision="FP32">
					<dim>32</dim>
					<dim>16</dim>
					<dim>3</dim>
					<dim>3</dim>
				</port>
				<port id="1" precision="FP32">
					<dim>32</dim>
					<dim>1</dim>
					<dim>1</dim>
					<dim>1</dim>
				</port>
			</input>
			<output>
				<port id="2" precision="FP32">
					<dim>32</dim>
					<dim>16</dim>
					<dim>3</dim>
					<dim>3</dim>
				</port>
			</output>
		</layer>
		<layer id="23" name="Multiply_23107" type="Convolution" version="opset1">
			<data strides="2, 2" dilations="1, 1" pads_begin="1, 1" pads_end="1, 1" auto_pad="explicit" />
			<input>
				<port id="0" precision="FP32">
					<dim>16</dim>
					<dim>16</dim>
					<dim>320</dim>
					<dim>320</dim>
				</port>
				<port id="1" precision="FP32">
					<dim>32</dim>
					<dim>16</dim>
					<dim>3</dim>
					<dim>3</dim>
				</port>
			</input>
			<output>
				<port id="2" precision="FP32">
					<dim>16</dim>
					<dim>32</dim>
					<dim>160</dim>
					<dim>160</dim>
				</port>
			</output>
		</layer>
		<layer id="24" name="Constant_23112" type="Const" version="opset1">
			<data element_type="f32" shape="1, 32, 1, 1" offset="72696" size="128" />
			<output>
				<port id="0" precision="FP32">
					<dim>1</dim>
					<dim>32</dim>
					<dim>1</dim>
					<dim>1</dim>
				</port>
			</output>
		</layer>
		<layer id="25" name="/backbone/p2/p2.0/norm/BatchNormalization" type="Add" version="opset1">
			<data auto_broadcast="numpy" />
			<input>
				<port id="0" precision="FP32">
					<dim>16</dim>
					<dim>32</dim>
					<dim>160</dim>
					<dim>160</dim>
				</port>
				<port id="1" precision="FP32">
					<dim>1</dim>
					<dim>32</dim>
					<dim>1</dim>
					<dim>1</dim>
				</port>
			</input>
			<output>
				<port id="2" precision="FP32" names="/backbone/p2/p2.0/norm/BatchNormalization_output_0">
					<dim>16</dim>
					<dim>32</dim>
					<dim>160</dim>
					<dim>160</dim>
				</port>
			</output>
		</layer>
		<layer id="26" name="/backbone/p2/p2.0/relu/Mul" type="Swish" version="opset4">
			<input>
				<port id="0" precision="FP32">
					<dim>16</dim>
					<dim>32</dim>
					<dim>160</dim>
					<dim>160</dim>
				</port>
			</input>
			<output>
				<port id="1" precision="FP32" names="/backbone/p2/p2.0/relu/Mul_output_0">
					<dim>16</dim>
					<dim>32</dim>
					<dim>160</dim>
					<dim>160</dim>
				</port>
			</output>
		</layer>
		<layer id="27" name="Constant_24482" type="Const" version="opset1">
			<data element_type="f32" shape="1, 1, 1, 1" offset="72824" size="4" />
			<output>
				<port id="0" precision="FP32">
					<dim>1</dim>
					<dim>1</dim>
					<dim>1</dim>
					<dim>1</dim>
				</port>
			</output>
		</layer>
		<layer id="28" name="Constant_24483" type="Const" version="opset1">
			<data element_type="f32" shape="1, 1, 1, 1" offset="72828" size="4" />
			<output>
				<port id="0" precision="FP32">
					<dim>1</dim>
					<dim>1</dim>
					<dim>1</dim>
					<dim>1</dim>
				</port>
			</output>
		</layer>
		<layer id="29" name="Constant_24484" type="Const" version="opset1">
			<data element_type="f32" shape="1, 1, 1, 1" offset="72824" size="4" />
			<output>
				<port id="0" precision="FP32">
					<dim>1</dim>
					<dim>1</dim>
					<dim>1</dim>
					<dim>1</dim>
				</port>
			</output>
		</layer>
		<layer id="30" name="Constant_24485" type="Const" version="opset1">
			<data element_type="f32" shape="1, 1, 1, 1" offset="72828" size="4" />
			<output>
				<port id="0" precision="FP32">
					<dim>1</dim>
					<dim>1</dim>
					<dim>1</dim>
					<dim>1</dim>
				</port>
			</output>
		</layer>
		<layer id="31" name="/backbone/p2/p2.0/activation_fake_quant/DequantizeLinear" type="FakeQuantize" version="opset1">
			<data levels="256" auto_broadcast="numpy" />
			<input>
				<port id="0" precision="FP32">
					<dim>16</dim>
					<dim>32</dim>
					<dim>160</dim>
					<dim>160</dim>
				</port>
				<port id="1" precision="FP32">
					<dim>1</dim>
					<dim>1</dim>
					<dim>1</dim>
					<dim>1</dim>
				</port>
				<port id="2" precision="FP32">
					<dim>1</dim>
					<dim>1</dim>
					<dim>1</dim>
					<dim>1</dim>
				</port>
				<port id="3" precision="FP32">
					<dim>1</dim>
					<dim>1</dim>
					<dim>1</dim>
					<dim>1</dim>
				</port>
				<port id="4" precision="FP32">
					<dim>1</dim>
					<dim>1</dim>
					<dim>1</dim>
					<dim>1</dim>
				</port>
			</input>
			<output>
				<port id="5" precision="FP32" names="/backbone/p2/p2.0/activation_fake_quant/DequantizeLinear_output_0">
					<dim>16</dim>
					<dim>32</dim>
					<dim>160</dim>
					<dim>160</dim>
				</port>
			</output>
		</layer>
		<layer id="32" name="backbone.p2.1.conv1.conv.weight_int8" type="Const" version="opset1">
			<data element_type="i8" shape="32, 32, 1, 1" offset="72832" size="1024" />
			<output>
				<port id="0" precision="I8" names="backbone.p2.1.conv1.conv.weight_int8">
					<dim>32</dim>
					<dim>32</dim>
					<dim>1</dim>
					<dim>1</dim>
				</port>
			</output>
		</layer>
		<layer id="33" name="Convert_29" type="Convert" version="opset1">
			<data destination_type="f32" />
			<input>
				<port id="0" precision="I8">
					<dim>32</dim>
					<dim>32</dim>
					<dim>1</dim>
					<dim>1</dim>
				</port>
			</input>
			<output>
				<port id="1" precision="FP32">
					<dim>32</dim>
					<dim>32</dim>
					<dim>1</dim>
					<dim>1</dim>
				</port>
			</output>
		</layer>
		<layer id="34" name="Reshape_28" type="Const" version="opset1">
			<data element_type="f32" shape="32, 1, 1, 1" offset="73856" size="128" />
			<output>
				<port id="0" precision="FP32">
					<dim>32</dim>
					<dim>1</dim>
					<dim>1</dim>
					<dim>1</dim>
				</port>
			</output>
		</layer>
		<layer id="35" name="/backbone/p2/p2.1/conv1/weight_fake_quant/DequantizeLinear" type="Multiply" version="opset1">
			<data auto_broadcast="numpy" />
			<input>
				<port id="0" precision="FP32">
					<dim>32</dim>
					<dim>32</dim>
					<dim>1</dim>
					<dim>1</dim>
				</port>
				<port id="1" precision="FP32">
					<dim>32</dim>
					<dim>1</dim>
					<dim>1</dim>
					<dim>1</dim>
				</port>
			</input>
			<output>
				<port id="2" precision="FP32" names="/backbone/p2/p2.1/conv1/weight_fake_quant/DequantizeLinear_output_0">
					<dim>32</dim>
					<dim>32</dim>
					<dim>1</dim>
					<dim>1</dim>
				</port>
			</output>
		</layer>
		<layer id="36" name="Reshape_23781" type="Const" version="opset1">
			<data element_type="f32" shape="32, 1, 1, 1" offset="73984" size="128" />
			<output>
				<port id="0" precision="FP32">
					<dim>32</dim>
					<dim>1</dim>
					<dim>1</dim>
					<dim>1</dim>
				</port>
			</output>
		</layer>
		<layer id="37" name="Multiply_23782" type="Multiply" version="opset1">
			<data auto_broadcast="numpy" />
			<input>
				<port id="0" precision="FP32">
					<dim>32</dim>
					<dim>32</dim>
					<dim>1</dim>
					<dim>1</dim>
				</port>
				<port id="1" precision="FP32">
					<dim>32</dim>
					<dim>1</dim>
					<dim>1</dim>
					<dim>1</dim>
				</port>
			</input>
			<output>
				<port id="2" precision="FP32">
					<dim>32</dim>
					<dim>32</dim>
					<dim>1</dim>
					<dim>1</dim>
				</port>
			</output>
		</layer>
		<layer id="38" name="Multiply_23114" type="Convolution" version="opset1">
			<data strides="1, 1" dilations="1, 1" pads_begin="0, 0" pads_end="0, 0" auto_pad="explicit" />
			<input>
				<port id="0" precision="FP32">
					<dim>16</dim>
					<dim>32</dim>
					<dim>160</dim>
					<dim>160</dim>
				</port>
				<port id="1" precision="FP32">
					<dim>32</dim>
					<dim>32</dim>
					<dim>1</dim>
					<dim>1</dim>
				</port>
			</input>
			<output>
				<port id="2" precision="FP32">
					<dim>16</dim>
					<dim>32</dim>
					<dim>160</dim>
					<dim>160</dim>
				</port>
			</output>
		</layer>
		<layer id="39" name="Constant_23119" type="Const" version="opset1">
			<data element_type="f32" shape="1, 32, 1, 1" offset="74112" size="128" />
			<output>
				<port id="0" precision="FP32">
					<dim>1</dim>
					<dim>32</dim>
					<dim>1</dim>
					<dim>1</dim>
				</port>
			</output>
		</layer>
		<layer id="40" name="/backbone/p2/p2.1/conv1/norm/BatchNormalization" type="Add" version="opset1">
			<data auto_broadcast="numpy" />
			<input>
				<port id="0" precision="FP32">
					<dim>16</dim>
					<dim>32</dim>
					<dim>160</dim>
					<dim>160</dim>
				</port>
				<port id="1" precision="FP32">
					<dim>1</dim>
					<dim>32</dim>
					<dim>1</dim>
					<dim>1</dim>
				</port>
			</input>
			<output>
				<port id="2" precision="FP32" names="/backbone/p2/p2.1/conv1/norm/BatchNormalization_output_0">
					<dim>16</dim>
					<dim>32</dim>
					<dim>160</dim>
					<dim>160</dim>
				</port>
			</output>
		</layer>
		<layer id="41" name="/backbone/p2/p2.1/conv1/relu/Mul" type="Swish" version="opset4">
			<input>
				<port id="0" precision="FP32">
					<dim>16</dim>
					<dim>32</dim>
					<dim>160</dim>
					<dim>160</dim>
				</port>
			</input>
			<output>
				<port id="1" precision="FP32" names="/backbone/p2/p2.1/conv1/relu/Mul_output_0">
					<dim>16</dim>
					<dim>32</dim>
					<dim>160</dim>
					<dim>160</dim>
				</port>
			</output>
		</layer>
		<layer id="42" name="Constant_24486" type="Const" version="opset1">
			<data element_type="f32" shape="1, 1, 1, 1" offset="74240" size="4" />
			<output>
				<port id="0" precision="FP32">
					<dim>1</dim>
					<dim>1</dim>
					<dim>1</dim>
					<dim>1</dim>
				</port>
			</output>
		</layer>
		<layer id="43" name="Constant_24487" type="Const" version="opset1">
			<data element_type="f32" shape="1, 1, 1, 1" offset="74244" size="4" />
			<output>
				<port id="0" precision="FP32">
					<dim>1</dim>
					<dim>1</dim>
					<dim>1</dim>
					<dim>1</dim>
				</port>
			</output>
		</layer>
		<layer id="44" name="Constant_24488" type="Const" version="opset1">
			<data element_type="f32" shape="1, 1, 1, 1" offset="74240" size="4" />
			<output>
				<port id="0" precision="FP32">
					<dim>1</dim>
					<dim>1</dim>
					<dim>1</dim>
					<dim>1</dim>
				</port>
			</output>
		</layer>
		<layer id="45" name="Constant_24489" type="Const" version="opset1">
			<data element_type="f32" shape="1, 1, 1, 1" offset="74244" size="4" />
			<output>
				<port id="0" precision="FP32">
					<dim>1</dim>
					<dim>1</dim>
					<dim>1</dim>
					<dim>1</dim>
				</port>
			</output>
		</layer>
		<layer id="46" name="/backbone/p2/p2.1/conv1/activation_fake_quant/DequantizeLinear" type="FakeQuantize" version="opset1">
			<data levels="256" auto_broadcast="numpy" />
			<input>
				<port id="0" precision="FP32">
					<dim>16</dim>
					<dim>32</dim>
					<dim>160</dim>
					<dim>160</dim>
				</port>
				<port id="1" precision="FP32">
					<dim>1</dim>
					<dim>1</dim>
					<dim>1</dim>
					<dim>1</dim>
				</port>
				<port id="2" precision="FP32">
					<dim>1</dim>
					<dim>1</dim>
					<dim>1</dim>
					<dim>1</dim>
				</port>
				<port id="3" precision="FP32">
					<dim>1</dim>
					<dim>1</dim>
					<dim>1</dim>
					<dim>1</dim>
				</port>
				<port id="4" precision="FP32">
					<dim>1</dim>
					<dim>1</dim>
					<dim>1</dim>
					<dim>1</dim>
				</port>
			</input>
			<output>
				<port id="5" precision="FP32" names="/backbone/p2/p2.1/conv1/activation_fake_quant/DequantizeLinear_output_0">
					<dim>16</dim>
					<dim>32</dim>
					<dim>160</dim>
					<dim>160</dim>
				</port>
			</output>
		</layer>
		<layer id="47" name="/backbone/p2/p2.1/Constant_1_output_0" type="Const" version="opset1">
			<data element_type="i64" shape="1" offset="74248" size="8" />
			<output>
				<port id="0" precision="I64" names="/backbone/p2/p2.1/Constant_1_output_0">
					<dim>1</dim>
				</port>
			</output>
		</layer>
		<layer id="48" name="/backbone/p2/p2.1/Div_output_0" type="Const" version="opset1">
			<data element_type="i64" shape="1" offset="74256" size="8" />
			<output>
				<port id="0" precision="I64" names="/backbone/p2/p2.1/Div_output_0">
					<dim>1</dim>
				</port>
			</output>
		</layer>
		<layer id="49" name="Broadcast_1055" type="Const" version="opset1">
			<data element_type="i64" shape="1" offset="74264" size="8" />
			<output>
				<port id="0" precision="I64">
					<dim>1</dim>
				</port>
			</output>
		</layer>
		<layer id="50" name="/backbone/p2/p2.1/Constant_output_0" type="Const" version="opset1">
			<data element_type="i64" shape="1" offset="74264" size="8" />
			<output>
				<port id="0" precision="I64" names="/backbone/p2/p2.1/Constant_output_0">
					<dim>1</dim>
				</port>
			</output>
		</layer>
		<layer id="51" name="/backbone/p2/p2.1/Slice" type="Slice" version="opset8">
			<input>
				<port id="0" precision="FP32">
					<dim>16</dim>
					<dim>32</dim>
					<dim>160</dim>
					<dim>160</dim>
				</port>
				<port id="1" precision="I64">
					<dim>1</dim>
				</port>
				<port id="2" precision="I64">
					<dim>1</dim>
				</port>
				<port id="3" precision="I64">
					<dim>1</dim>
				</port>
				<port id="4" precision="I64">
					<dim>1</dim>
				</port>
			</input>
			<output>
				<port id="5" precision="FP32" names="/backbone/p2/p2.1/Slice_output_0">
					<dim>16</dim>
					<dim>16</dim>
					<dim>160</dim>
					<dim>160</dim>
				</port>
			</output>
		</layer>
		<layer id="52" name="/backbone/p2/p2.1/Mul_1_output_0" type="Const" version="opset1">
			<data element_type="i64" shape="1" offset="74272" size="8" />
			<output>
				<port id="0" precision="I64" names="/backbone/p2/p2.1/Mul_1_output_0">
					<dim>1</dim>
				</port>
			</output>
		</layer>
		<layer id="53" name="Broadcast_1063" type="Const" version="opset1">
			<data element_type="i64" shape="1" offset="74264" size="8" />
			<output>
				<port id="0" precision="I64">
					<dim>1</dim>
				</port>
			</output>
		</layer>
		<layer id="54" name="/backbone/p2/p2.1/Slice_1" type="Slice" version="opset8">
			<input>
				<port id="0" precision="FP32">
					<dim>16</dim>
					<dim>32</dim>
					<dim>160</dim>
					<dim>160</dim>
				</port>
				<port id="1" precision="I64">
					<dim>1</dim>
				</port>
				<port id="2" precision="I64">
					<dim>1</dim>
				</port>
				<port id="3" precision="I64">
					<dim>1</dim>
				</port>
				<port id="4" precision="I64">
					<dim>1</dim>
				</port>
			</input>
			<output>
				<port id="5" precision="FP32" names="/backbone/p2/p2.1/Slice_1_output_0">
					<dim>16</dim>
					<dim>16</dim>
					<dim>160</dim>
					<dim>160</dim>
				</port>
			</output>
		</layer>
		<layer id="55" name="backbone.p2.1.res_m.0.conv1.conv.weight_int8" type="Const" version="opset1">
			<data element_type="i8" shape="8, 16, 3, 3" offset="74280" size="1152" />
			<output>
				<port id="0" precision="I8" names="backbone.p2.1.res_m.0.conv1.conv.weight_int8">
					<dim>8</dim>
					<dim>16</dim>
					<dim>3</dim>
					<dim>3</dim>
				</port>
			</output>
		</layer>
		<layer id="56" name="Convert_40" type="Convert" version="opset1">
			<data destination_type="f32" />
			<input>
				<port id="0" precision="I8">
					<dim>8</dim>
					<dim>16</dim>
					<dim>3</dim>
					<dim>3</dim>
				</port>
			</input>
			<output>
				<port id="1" precision="FP32">
					<dim>8</dim>
					<dim>16</dim>
					<dim>3</dim>
					<dim>3</dim>
				</port>
			</output>
		</layer>
		<layer id="57" name="Reshape_39" type="Const" version="opset1">
			<data element_type="f32" shape="8, 1, 1, 1" offset="75432" size="32" />
			<output>
				<port id="0" precision="FP32">
					<dim>8</dim>
					<dim>1</dim>
					<dim>1</dim>
					<dim>1</dim>
				</port>
			</output>
		</layer>
		<layer id="58" name="/backbone/p2/p2.1/res_m.0/conv1/weight_fake_quant/DequantizeLinear" type="Multiply" version="opset1">
			<data auto_broadcast="numpy" />
			<input>
				<port id="0" precision="FP32">
					<dim>8</dim>
					<dim>16</dim>
					<dim>3</dim>
					<dim>3</dim>
				</port>
				<port id="1" precision="FP32">
					<dim>8</dim>
					<dim>1</dim>
					<dim>1</dim>
					<dim>1</dim>
				</port>
			</input>
			<output>
				<port id="2" precision="FP32" names="/backbone/p2/p2.1/res_m.0/conv1/weight_fake_quant/DequantizeLinear_output_0">
					<dim>8</dim>
					<dim>16</dim>
					<dim>3</dim>
					<dim>3</dim>
				</port>
			</output>
		</layer>
		<layer id="59" name="Reshape_23785" type="Const" version="opset1">
			<data element_type="f32" shape="8, 1, 1, 1" offset="75464" size="32" />
			<output>
				<port id="0" precision="FP32">
					<dim>8</dim>
					<dim>1</dim>
					<dim>1</dim>
					<dim>1</dim>
				</port>
			</output>
		</layer>
		<layer id="60" name="Multiply_23786" type="Multiply" version="opset1">
			<data auto_broadcast="numpy" />
			<input>
				<port id="0" precision="FP32">
					<dim>8</dim>
					<dim>16</dim>
					<dim>3</dim>
					<dim>3</dim>
				</port>
				<port id="1" precision="FP32">
					<dim>8</dim>
					<dim>1</dim>
					<dim>1</dim>
					<dim>1</dim>
				</port>
			</input>
			<output>
				<port id="2" precision="FP32">
					<dim>8</dim>
					<dim>16</dim>
					<dim>3</dim>
					<dim>3</dim>
				</port>
			</output>
		</layer>
		<layer id="61" name="Multiply_23121" type="Convolution" version="opset1">
			<data strides="1, 1" dilations="1, 1" pads_begin="1, 1" pads_end="1, 1" auto_pad="explicit" />
			<input>
				<port id="0" precision="FP32">
					<dim>16</dim>
					<dim>16</dim>
					<dim>160</dim>
					<dim>160</dim>
				</port>
				<port id="1" precision="FP32">
					<dim>8</dim>
					<dim>16</dim>
					<dim>3</dim>
					<dim>3</dim>
				</port>
			</input>
			<output>
				<port id="2" precision="FP32">
					<dim>16</dim>
					<dim>8</dim>
					<dim>160</dim>
					<dim>160</dim>
				</port>
			</output>
		</layer>
		<layer id="62" name="Constant_23126" type="Const" version="opset1">
			<data element_type="f32" shape="1, 8, 1, 1" offset="75496" size="32" />
			<output>
				<port id="0" precision="FP32">
					<dim>1</dim>
					<dim>8</dim>
					<dim>1</dim>
					<dim>1</dim>
				</port>
			</output>
		</layer>
		<layer id="63" name="/backbone/p2/p2.1/res_m.0/conv1/norm/BatchNormalization" type="Add" version="opset1">
			<data auto_broadcast="numpy" />
			<input>
				<port id="0" precision="FP32">
					<dim>16</dim>
					<dim>8</dim>
					<dim>160</dim>
					<dim>160</dim>
				</port>
				<port id="1" precision="FP32">
					<dim>1</dim>
					<dim>8</dim>
					<dim>1</dim>
					<dim>1</dim>
				</port>
			</input>
			<output>
				<port id="2" precision="FP32" names="/backbone/p2/p2.1/res_m.0/conv1/norm/BatchNormalization_output_0">
					<dim>16</dim>
					<dim>8</dim>
					<dim>160</dim>
					<dim>160</dim>
				</port>
			</output>
		</layer>
		<layer id="64" name="/backbone/p2/p2.1/res_m.0/conv1/relu/Mul" type="Swish" version="opset4">
			<input>
				<port id="0" precision="FP32">
					<dim>16</dim>
					<dim>8</dim>
					<dim>160</dim>
					<dim>160</dim>
				</port>
			</input>
			<output>
				<port id="1" precision="FP32" names="/backbone/p2/p2.1/res_m.0/conv1/relu/Mul_output_0">
					<dim>16</dim>
					<dim>8</dim>
					<dim>160</dim>
					<dim>160</dim>
				</port>
			</output>
		</layer>
		<layer id="65" name="Constant_24490" type="Const" version="opset1">
			<data element_type="f32" shape="1, 1, 1, 1" offset="75528" size="4" />
			<output>
				<port id="0" precision="FP32">
					<dim>1</dim>
					<dim>1</dim>
					<dim>1</dim>
					<dim>1</dim>
				</port>
			</output>
		</layer>
		<layer id="66" name="Constant_24491" type="Const" version="opset1">
			<data element_type="f32" shape="1, 1, 1, 1" offset="75532" size="4" />
			<output>
				<port id="0" precision="FP32">
					<dim>1</dim>
					<dim>1</dim>
					<dim>1</dim>
					<dim>1</dim>
				</port>
			</output>
		</layer>
		<layer id="67" name="Constant_24492" type="Const" version="opset1">
			<data element_type="f32" shape="1, 1, 1, 1" offset="75528" size="4" />
			<output>
				<port id="0" precision="FP32">
					<dim>1</dim>
					<dim>1</dim>
					<dim>1</dim>
					<dim>1</dim>
				</port>
			</output>
		</layer>
		<layer id="68" name="Constant_24493" type="Const" version="opset1">
			<data element_type="f32" shape="1, 1, 1, 1" offset="75532" size="4" />
			<output>
				<port id="0" precision="FP32">
					<dim>1</dim>
					<dim>1</dim>
					<dim>1</dim>
					<dim>1</dim>
				</port>
			</output>
		</layer>
		<layer id="69" name="/backbone/p2/p2.1/res_m.0/conv1/activation_fake_quant/DequantizeLinear" type="FakeQuantize" version="opset1">
			<data levels="256" auto_broadcast="numpy" />
			<input>
				<port id="0" precision="FP32">
					<dim>16</dim>
					<dim>8</dim>
					<dim>160</dim>
					<dim>160</dim>
				</port>
				<port id="1" precision="FP32">
					<dim>1</dim>
					<dim>1</dim>
					<dim>1</dim>
					<dim>1</dim>
				</port>
				<port id="2" precision="FP32">
					<dim>1</dim>
					<dim>1</dim>
					<dim>1</dim>
					<dim>1</dim>
				</port>
				<port id="3" precision="FP32">
					<dim>1</dim>
					<dim>1</dim>
					<dim>1</dim>
					<dim>1</dim>
				</port>
				<port id="4" precision="FP32">
					<dim>1</dim>
					<dim>1</dim>
					<dim>1</dim>
					<dim>1</dim>
				</port>
			</input>
			<output>
				<port id="5" precision="FP32" names="/backbone/p2/p2.1/res_m.0/conv1/activation_fake_quant/DequantizeLinear_output_0">
					<dim>16</dim>
					<dim>8</dim>
					<dim>160</dim>
					<dim>160</dim>
				</port>
			</output>
		</layer>
		<layer id="70" name="backbone.p2.1.res_m.0.conv2.conv.weight_int8" type="Const" version="opset1">
			<data element_type="i8" shape="16, 8, 3, 3" offset="75536" size="1152" />
			<output>
				<port id="0" precision="I8" names="backbone.p2.1.res_m.0.conv2.conv.weight_int8">
					<dim>16</dim>
					<dim>8</dim>
					<dim>3</dim>
					<dim>3</dim>
				</port>
			</output>
		</layer>
		<layer id="71" name="Convert_50" type="Convert" version="opset1">
			<data destination_type="f32" />
			<input>
				<port id="0" precision="I8">
					<dim>16</dim>
					<dim>8</dim>
					<dim>3</dim>
					<dim>3</dim>
				</port>
			</input>
			<output>
				<port id="1" precision="FP32">
					<dim>16</dim>
					<dim>8</dim>
					<dim>3</dim>
					<dim>3</dim>
				</port>
			</output>
		</layer>
		<layer id="72" name="Reshape_49" type="Const" version="opset1">
			<data element_type="f32" shape="16, 1, 1, 1" offset="76688" size="64" />
			<output>
				<port id="0" precision="FP32">
					<dim>16</dim>
					<dim>1</dim>
					<dim>1</dim>
					<dim>1</dim>
				</port>
			</output>
		</layer>
		<layer id="73" name="/backbone/p2/p2.1/res_m.0/conv2/weight_fake_quant/DequantizeLinear" type="Multiply" version="opset1">
			<data auto_broadcast="numpy" />
			<input>
				<port id="0" precision="FP32">
					<dim>16</dim>
					<dim>8</dim>
					<dim>3</dim>
					<dim>3</dim>
				</port>
				<port id="1" precision="FP32">
					<dim>16</dim>
					<dim>1</dim>
					<dim>1</dim>
					<dim>1</dim>
				</port>
			</input>
			<output>
				<port id="2" precision="FP32" names="/backbone/p2/p2.1/res_m.0/conv2/weight_fake_quant/DequantizeLinear_output_0">
					<dim>16</dim>
					<dim>8</dim>
					<dim>3</dim>
					<dim>3</dim>
				</port>
			</output>
		</layer>
		<layer id="74" name="Reshape_23789" type="Const" version="opset1">
			<data element_type="f32" shape="16, 1, 1, 1" offset="76752" size="64" />
			<output>
				<port id="0" precision="FP32">
					<dim>16</dim>
					<dim>1</dim>
					<dim>1</dim>
					<dim>1</dim>
				</port>
			</output>
		</layer>
		<layer id="75" name="Multiply_23790" type="Multiply" version="opset1">
			<data auto_broadcast="numpy" />
			<input>
				<port id="0" precision="FP32">
					<dim>16</dim>
					<dim>8</dim>
					<dim>3</dim>
					<dim>3</dim>
				</port>
				<port id="1" precision="FP32">
					<dim>16</dim>
					<dim>1</dim>
					<dim>1</dim>
					<dim>1</dim>
				</port>
			</input>
			<output>
				<port id="2" precision="FP32">
					<dim>16</dim>
					<dim>8</dim>
					<dim>3</dim>
					<dim>3</dim>
				</port>
			</output>
		</layer>
		<layer id="76" name="Multiply_23128" type="Convolution" version="opset1">
			<data strides="1, 1" dilations="1, 1" pads_begin="1, 1" pads_end="1, 1" auto_pad="explicit" />
			<input>
				<port id="0" precision="FP32">
					<dim>16</dim>
					<dim>8</dim>
					<dim>160</dim>
					<dim>160</dim>
				</port>
				<port id="1" precision="FP32">
					<dim>16</dim>
					<dim>8</dim>
					<dim>3</dim>
					<dim>3</dim>
				</port>
			</input>
			<output>
				<port id="2" precision="FP32">
					<dim>16</dim>
					<dim>16</dim>
					<dim>160</dim>
					<dim>160</dim>
				</port>
			</output>
		</layer>
		<layer id="77" name="Constant_23133" type="Const" version="opset1">
			<data element_type="f32" shape="1, 16, 1, 1" offset="76816" size="64" />
			<output>
				<port id="0" precision="FP32">
					<dim>1</dim>
					<dim>16</dim>
					<dim>1</dim>
					<dim>1</dim>
				</port>
			</output>
		</layer>
		<layer id="78" name="/backbone/p2/p2.1/res_m.0/conv2/norm/BatchNormalization" type="Add" version="opset1">
			<data auto_broadcast="numpy" />
			<input>
				<port id="0" precision="FP32">
					<dim>16</dim>
					<dim>16</dim>
					<dim>160</dim>
					<dim>160</dim>
				</port>
				<port id="1" precision="FP32">
					<dim>1</dim>
					<dim>16</dim>
					<dim>1</dim>
					<dim>1</dim>
				</port>
			</input>
			<output>
				<port id="2" precision="FP32" names="/backbone/p2/p2.1/res_m.0/conv2/norm/BatchNormalization_output_0">
					<dim>16</dim>
					<dim>16</dim>
					<dim>160</dim>
					<dim>160</dim>
				</port>
			</output>
		</layer>
		<layer id="79" name="/backbone/p2/p2.1/res_m.0/conv2/relu/Mul" type="Swish" version="opset4">
			<input>
				<port id="0" precision="FP32">
					<dim>16</dim>
					<dim>16</dim>
					<dim>160</dim>
					<dim>160</dim>
				</port>
			</input>
			<output>
				<port id="1" precision="FP32" names="/backbone/p2/p2.1/res_m.0/conv2/relu/Mul_output_0">
					<dim>16</dim>
					<dim>16</dim>
					<dim>160</dim>
					<dim>160</dim>
				</port>
			</output>
		</layer>
		<layer id="80" name="Constant_24494" type="Const" version="opset1">
			<data element_type="f32" shape="1, 1, 1, 1" offset="76880" size="4" />
			<output>
				<port id="0" precision="FP32">
					<dim>1</dim>
					<dim>1</dim>
					<dim>1</dim>
					<dim>1</dim>
				</port>
			</output>
		</layer>
		<layer id="81" name="Constant_24495" type="Const" version="opset1">
			<data element_type="f32" shape="1, 1, 1, 1" offset="76884" size="4" />
			<output>
				<port id="0" precision="FP32">
					<dim>1</dim>
					<dim>1</dim>
					<dim>1</dim>
					<dim>1</dim>
				</port>
			</output>
		</layer>
		<layer id="82" name="Constant_24496" type="Const" version="opset1">
			<data element_type="f32" shape="1, 1, 1, 1" offset="76880" size="4" />
			<output>
				<port id="0" precision="FP32">
					<dim>1</dim>
					<dim>1</dim>
					<dim>1</dim>
					<dim>1</dim>
				</port>
			</output>
		</layer>
		<layer id="83" name="Constant_24497" type="Const" version="opset1">
			<data element_type="f32" shape="1, 1, 1, 1" offset="76884" size="4" />
			<output>
				<port id="0" precision="FP32">
					<dim>1</dim>
					<dim>1</dim>
					<dim>1</dim>
					<dim>1</dim>
				</port>
			</output>
		</layer>
		<layer id="84" name="/backbone/p2/p2.1/res_m.0/conv2/activation_fake_quant/DequantizeLinear" type="FakeQuantize" version="opset1">
			<data levels="256" auto_broadcast="numpy" />
			<input>
				<port id="0" precision="FP32">
					<dim>16</dim>
					<dim>16</dim>
					<dim>160</dim>
					<dim>160</dim>
				</port>
				<port id="1" precision="FP32">
					<dim>1</dim>
					<dim>1</dim>
					<dim>1</dim>
					<dim>1</dim>
				</port>
				<port id="2" precision="FP32">
					<dim>1</dim>
					<dim>1</dim>
					<dim>1</dim>
					<dim>1</dim>
				</port>
				<port id="3" precision="FP32">
					<dim>1</dim>
					<dim>1</dim>
					<dim>1</dim>
					<dim>1</dim>
				</port>
				<port id="4" precision="FP32">
					<dim>1</dim>
					<dim>1</dim>
					<dim>1</dim>
					<dim>1</dim>
				</port>
			</input>
			<output>
				<port id="5" precision="FP32" names="/backbone/p2/p2.1/res_m.0/conv2/activation_fake_quant/DequantizeLinear_output_0">
					<dim>16</dim>
					<dim>16</dim>
					<dim>160</dim>
					<dim>160</dim>
				</port>
			</output>
		</layer>
		<layer id="85" name="/backbone/p2/p2.1/res_m.0/Add" type="Add" version="opset1">
			<data auto_broadcast="numpy" />
			<input>
				<port id="0" precision="FP32">
					<dim>16</dim>
					<dim>16</dim>
					<dim>160</dim>
					<dim>160</dim>
				</port>
				<port id="1" precision="FP32">
					<dim>16</dim>
					<dim>16</dim>
					<dim>160</dim>
					<dim>160</dim>
				</port>
			</input>
			<output>
				<port id="2" precision="FP32" names="/backbone/p2/p2.1/res_m.0/Add_output_0">
					<dim>16</dim>
					<dim>16</dim>
					<dim>160</dim>
					<dim>160</dim>
				</port>
			</output>
		</layer>
		<layer id="86" name="/backbone/p2/p2.1/Concat" type="Concat" version="opset1">
			<data axis="1" />
			<input>
				<port id="0" precision="FP32">
					<dim>16</dim>
					<dim>16</dim>
					<dim>160</dim>
					<dim>160</dim>
				</port>
				<port id="1" precision="FP32">
					<dim>16</dim>
					<dim>16</dim>
					<dim>160</dim>
					<dim>160</dim>
				</port>
				<port id="2" precision="FP32">
					<dim>16</dim>
					<dim>16</dim>
					<dim>160</dim>
					<dim>160</dim>
				</port>
			</input>
			<output>
				<port id="3" precision="FP32" names="/backbone/p2/p2.1/Concat_output_0">
					<dim>16</dim>
					<dim>48</dim>
					<dim>160</dim>
					<dim>160</dim>
				</port>
			</output>
		</layer>
		<layer id="87" name="backbone.p2.1.conv2.conv.weight_int8" type="Const" version="opset1">
			<data element_type="i8" shape="64, 48, 1, 1" offset="76888" size="3072" />
			<output>
				<port id="0" precision="I8" names="backbone.p2.1.conv2.conv.weight_int8">
					<dim>64</dim>
					<dim>48</dim>
					<dim>1</dim>
					<dim>1</dim>
				</port>
			</output>
		</layer>
		<layer id="88" name="Convert_61" type="Convert" version="opset1">
			<data destination_type="f32" />
			<input>
				<port id="0" precision="I8">
					<dim>64</dim>
					<dim>48</dim>
					<dim>1</dim>
					<dim>1</dim>
				</port>
			</input>
			<output>
				<port id="1" precision="FP32">
					<dim>64</dim>
					<dim>48</dim>
					<dim>1</dim>
					<dim>1</dim>
				</port>
			</output>
		</layer>
		<layer id="89" name="Reshape_60" type="Const" version="opset1">
			<data element_type="f32" shape="64, 1, 1, 1" offset="79960" size="256" />
			<output>
				<port id="0" precision="FP32">
					<dim>64</dim>
					<dim>1</dim>
					<dim>1</dim>
					<dim>1</dim>
				</port>
			</output>
		</layer>
		<layer id="90" name="/backbone/p2/p2.1/conv2/weight_fake_quant/DequantizeLinear" type="Multiply" version="opset1">
			<data auto_broadcast="numpy" />
			<input>
				<port id="0" precision="FP32">
					<dim>64</dim>
					<dim>48</dim>
					<dim>1</dim>
					<dim>1</dim>
				</port>
				<port id="1" precision="FP32">
					<dim>64</dim>
					<dim>1</dim>
					<dim>1</dim>
					<dim>1</dim>
				</port>
			</input>
			<output>
				<port id="2" precision="FP32" names="/backbone/p2/p2.1/conv2/weight_fake_quant/DequantizeLinear_output_0">
					<dim>64</dim>
					<dim>48</dim>
					<dim>1</dim>
					<dim>1</dim>
				</port>
			</output>
		</layer>
		<layer id="91" name="Reshape_23793" type="Const" version="opset1">
			<data element_type="f32" shape="64, 1, 1, 1" offset="80216" size="256" />
			<output>
				<port id="0" precision="FP32">
					<dim>64</dim>
					<dim>1</dim>
					<dim>1</dim>
					<dim>1</dim>
				</port>
			</output>
		</layer>
		<layer id="92" name="Multiply_23794" type="Multiply" version="opset1">
			<data auto_broadcast="numpy" />
			<input>
				<port id="0" precision="FP32">
					<dim>64</dim>
					<dim>48</dim>
					<dim>1</dim>
					<dim>1</dim>
				</port>
				<port id="1" precision="FP32">
					<dim>64</dim>
					<dim>1</dim>
					<dim>1</dim>
					<dim>1</dim>
				</port>
			</input>
			<output>
				<port id="2" precision="FP32">
					<dim>64</dim>
					<dim>48</dim>
					<dim>1</dim>
					<dim>1</dim>
				</port>
			</output>
		</layer>
		<layer id="93" name="Multiply_23135" type="Convolution" version="opset1">
			<data strides="1, 1" dilations="1, 1" pads_begin="0, 0" pads_end="0, 0" auto_pad="explicit" />
			<input>
				<port id="0" precision="FP32">
					<dim>16</dim>
					<dim>48</dim>
					<dim>160</dim>
					<dim>160</dim>
				</port>
				<port id="1" precision="FP32">
					<dim>64</dim>
					<dim>48</dim>
					<dim>1</dim>
					<dim>1</dim>
				</port>
			</input>
			<output>
				<port id="2" precision="FP32">
					<dim>16</dim>
					<dim>64</dim>
					<dim>160</dim>
					<dim>160</dim>
				</port>
			</output>
		</layer>
		<layer id="94" name="Constant_23140" type="Const" version="opset1">
			<data element_type="f32" shape="1, 64, 1, 1" offset="80472" size="256" />
			<output>
				<port id="0" precision="FP32">
					<dim>1</dim>
					<dim>64</dim>
					<dim>1</dim>
					<dim>1</dim>
				</port>
			</output>
		</layer>
		<layer id="95" name="/backbone/p2/p2.1/conv2/norm/BatchNormalization" type="Add" version="opset1">
			<data auto_broadcast="numpy" />
			<input>
				<port id="0" precision="FP32">
					<dim>16</dim>
					<dim>64</dim>
					<dim>160</dim>
					<dim>160</dim>
				</port>
				<port id="1" precision="FP32">
					<dim>1</dim>
					<dim>64</dim>
					<dim>1</dim>
					<dim>1</dim>
				</port>
			</input>
			<output>
				<port id="2" precision="FP32" names="/backbone/p2/p2.1/conv2/norm/BatchNormalization_output_0">
					<dim>16</dim>
					<dim>64</dim>
					<dim>160</dim>
					<dim>160</dim>
				</port>
			</output>
		</layer>
		<layer id="96" name="/backbone/p2/p2.1/conv2/relu/Mul" type="Swish" version="opset4">
			<input>
				<port id="0" precision="FP32">
					<dim>16</dim>
					<dim>64</dim>
					<dim>160</dim>
					<dim>160</dim>
				</port>
			</input>
			<output>
				<port id="1" precision="FP32" names="/backbone/p2/p2.1/conv2/relu/Mul_output_0">
					<dim>16</dim>
					<dim>64</dim>
					<dim>160</dim>
					<dim>160</dim>
				</port>
			</output>
		</layer>
		<layer id="97" name="Constant_24498" type="Const" version="opset1">
			<data element_type="f32" shape="1, 1, 1, 1" offset="80728" size="4" />
			<output>
				<port id="0" precision="FP32">
					<dim>1</dim>
					<dim>1</dim>
					<dim>1</dim>
					<dim>1</dim>
				</port>
			</output>
		</layer>
		<layer id="98" name="Constant_24499" type="Const" version="opset1">
			<data element_type="f32" shape="1, 1, 1, 1" offset="80732" size="4" />
			<output>
				<port id="0" precision="FP32">
					<dim>1</dim>
					<dim>1</dim>
					<dim>1</dim>
					<dim>1</dim>
				</port>
			</output>
		</layer>
		<layer id="99" name="Constant_24500" type="Const" version="opset1">
			<data element_type="f32" shape="1, 1, 1, 1" offset="80728" size="4" />
			<output>
				<port id="0" precision="FP32">
					<dim>1</dim>
					<dim>1</dim>
					<dim>1</dim>
					<dim>1</dim>
				</port>
			</output>
		</layer>
		<layer id="100" name="Constant_24501" type="Const" version="opset1">
			<data element_type="f32" shape="1, 1, 1, 1" offset="80732" size="4" />
			<output>
				<port id="0" precision="FP32">
					<dim>1</dim>
					<dim>1</dim>
					<dim>1</dim>
					<dim>1</dim>
				</port>
			</output>
		</layer>
		<layer id="101" name="/backbone/p2/p2.1/conv2/activation_fake_quant/DequantizeLinear" type="FakeQuantize" version="opset1">
			<data levels="256" auto_broadcast="numpy" />
			<input>
				<port id="0" precision="FP32">
					<dim>16</dim>
					<dim>64</dim>
					<dim>160</dim>
					<dim>160</dim>
				</port>
				<port id="1" precision="FP32">
					<dim>1</dim>
					<dim>1</dim>
					<dim>1</dim>
					<dim>1</dim>
				</port>
				<port id="2" precision="FP32">
					<dim>1</dim>
					<dim>1</dim>
					<dim>1</dim>
					<dim>1</dim>
				</port>
				<port id="3" precision="FP32">
					<dim>1</dim>
					<dim>1</dim>
					<dim>1</dim>
					<dim>1</dim>
				</port>
				<port id="4" precision="FP32">
					<dim>1</dim>
					<dim>1</dim>
					<dim>1</dim>
					<dim>1</dim>
				</port>
			</input>
			<output>
				<port id="5" precision="FP32" names="/backbone/p2/p2.1/conv2/activation_fake_quant/DequantizeLinear_output_0">
					<dim>16</dim>
					<dim>64</dim>
					<dim>160</dim>
					<dim>160</dim>
				</port>
			</output>
		</layer>
		<layer id="102" name="backbone.p3.0.conv.weight_int8" type="Const" version="opset1">
			<data element_type="i8" shape="64, 64, 3, 3" offset="80736" size="36864" />
			<output>
				<port id="0" precision="I8" names="backbone.p3.0.conv.weight_int8">
					<dim>64</dim>
					<dim>64</dim>
					<dim>3</dim>
					<dim>3</dim>
				</port>
			</output>
		</layer>
		<layer id="103" name="Convert_71" type="Convert" version="opset1">
			<data destination_type="f32" />
			<input>
				<port id="0" precision="I8">
					<dim>64</dim>
					<dim>64</dim>
					<dim>3</dim>
					<dim>3</dim>
				</port>
			</input>
			<output>
				<port id="1" precision="FP32">
					<dim>64</dim>
					<dim>64</dim>
					<dim>3</dim>
					<dim>3</dim>
				</port>
			</output>
		</layer>
		<layer id="104" name="Reshape_70" type="Const" version="opset1">
			<data element_type="f32" shape="64, 1, 1, 1" offset="117600" size="256" />
			<output>
				<port id="0" precision="FP32">
					<dim>64</dim>
					<dim>1</dim>
					<dim>1</dim>
					<dim>1</dim>
				</port>
			</output>
		</layer>
		<layer id="105" name="/backbone/p3/p3.0/weight_fake_quant/DequantizeLinear" type="Multiply" version="opset1">
			<data auto_broadcast="numpy" />
			<input>
				<port id="0" precision="FP32">
					<dim>64</dim>
					<dim>64</dim>
					<dim>3</dim>
					<dim>3</dim>
				</port>
				<port id="1" precision="FP32">
					<dim>64</dim>
					<dim>1</dim>
					<dim>1</dim>
					<dim>1</dim>
				</port>
			</input>
			<output>
				<port id="2" precision="FP32" names="/backbone/p3/p3.0/weight_fake_quant/DequantizeLinear_output_0">
					<dim>64</dim>
					<dim>64</dim>
					<dim>3</dim>
					<dim>3</dim>
				</port>
			</output>
		</layer>
		<layer id="106" name="Reshape_23797" type="Const" version="opset1">
			<data element_type="f32" shape="64, 1, 1, 1" offset="117856" size="256" />
			<output>
				<port id="0" precision="FP32">
					<dim>64</dim>
					<dim>1</dim>
					<dim>1</dim>
					<dim>1</dim>
				</port>
			</output>
		</layer>
		<layer id="107" name="Multiply_23798" type="Multiply" version="opset1">
			<data auto_broadcast="numpy" />
			<input>
				<port id="0" precision="FP32">
					<dim>64</dim>
					<dim>64</dim>
					<dim>3</dim>
					<dim>3</dim>
				</port>
				<port id="1" precision="FP32">
					<dim>64</dim>
					<dim>1</dim>
					<dim>1</dim>
					<dim>1</dim>
				</port>
			</input>
			<output>
				<port id="2" precision="FP32">
					<dim>64</dim>
					<dim>64</dim>
					<dim>3</dim>
					<dim>3</dim>
				</port>
			</output>
		</layer>
		<layer id="108" name="Multiply_23142" type="Convolution" version="opset1">
			<data strides="2, 2" dilations="1, 1" pads_begin="1, 1" pads_end="1, 1" auto_pad="explicit" />
			<input>
				<port id="0" precision="FP32">
					<dim>16</dim>
					<dim>64</dim>
					<dim>160</dim>
					<dim>160</dim>
				</port>
				<port id="1" precision="FP32">
					<dim>64</dim>
					<dim>64</dim>
					<dim>3</dim>
					<dim>3</dim>
				</port>
			</input>
			<output>
				<port id="2" precision="FP32">
					<dim>16</dim>
					<dim>64</dim>
					<dim>80</dim>
					<dim>80</dim>
				</port>
			</output>
		</layer>
		<layer id="109" name="Constant_23147" type="Const" version="opset1">
			<data element_type="f32" shape="1, 64, 1, 1" offset="118112" size="256" />
			<output>
				<port id="0" precision="FP32">
					<dim>1</dim>
					<dim>64</dim>
					<dim>1</dim>
					<dim>1</dim>
				</port>
			</output>
		</layer>
		<layer id="110" name="/backbone/p3/p3.0/norm/BatchNormalization" type="Add" version="opset1">
			<data auto_broadcast="numpy" />
			<input>
				<port id="0" precision="FP32">
					<dim>16</dim>
					<dim>64</dim>
					<dim>80</dim>
					<dim>80</dim>
				</port>
				<port id="1" precision="FP32">
					<dim>1</dim>
					<dim>64</dim>
					<dim>1</dim>
					<dim>1</dim>
				</port>
			</input>
			<output>
				<port id="2" precision="FP32" names="/backbone/p3/p3.0/norm/BatchNormalization_output_0">
					<dim>16</dim>
					<dim>64</dim>
					<dim>80</dim>
					<dim>80</dim>
				</port>
			</output>
		</layer>
		<layer id="111" name="/backbone/p3/p3.0/relu/Mul" type="Swish" version="opset4">
			<input>
				<port id="0" precision="FP32">
					<dim>16</dim>
					<dim>64</dim>
					<dim>80</dim>
					<dim>80</dim>
				</port>
			</input>
			<output>
				<port id="1" precision="FP32" names="/backbone/p3/p3.0/relu/Mul_output_0">
					<dim>16</dim>
					<dim>64</dim>
					<dim>80</dim>
					<dim>80</dim>
				</port>
			</output>
		</layer>
		<layer id="112" name="Constant_24502" type="Const" version="opset1">
			<data element_type="f32" shape="1, 1, 1, 1" offset="118368" size="4" />
			<output>
				<port id="0" precision="FP32">
					<dim>1</dim>
					<dim>1</dim>
					<dim>1</dim>
					<dim>1</dim>
				</port>
			</output>
		</layer>
		<layer id="113" name="Constant_24503" type="Const" version="opset1">
			<data element_type="f32" shape="1, 1, 1, 1" offset="118372" size="4" />
			<output>
				<port id="0" precision="FP32">
					<dim>1</dim>
					<dim>1</dim>
					<dim>1</dim>
					<dim>1</dim>
				</port>
			</output>
		</layer>
		<layer id="114" name="Constant_24504" type="Const" version="opset1">
			<data element_type="f32" shape="1, 1, 1, 1" offset="118368" size="4" />
			<output>
				<port id="0" precision="FP32">
					<dim>1</dim>
					<dim>1</dim>
					<dim>1</dim>
					<dim>1</dim>
				</port>
			</output>
		</layer>
		<layer id="115" name="Constant_24505" type="Const" version="opset1">
			<data element_type="f32" shape="1, 1, 1, 1" offset="118372" size="4" />
			<output>
				<port id="0" precision="FP32">
					<dim>1</dim>
					<dim>1</dim>
					<dim>1</dim>
					<dim>1</dim>
				</port>
			</output>
		</layer>
		<layer id="116" name="/backbone/p3/p3.0/activation_fake_quant/DequantizeLinear" type="FakeQuantize" version="opset1">
			<data levels="256" auto_broadcast="numpy" />
			<input>
				<port id="0" precision="FP32">
					<dim>16</dim>
					<dim>64</dim>
					<dim>80</dim>
					<dim>80</dim>
				</port>
				<port id="1" precision="FP32">
					<dim>1</dim>
					<dim>1</dim>
					<dim>1</dim>
					<dim>1</dim>
				</port>
				<port id="2" precision="FP32">
					<dim>1</dim>
					<dim>1</dim>
					<dim>1</dim>
					<dim>1</dim>
				</port>
				<port id="3" precision="FP32">
					<dim>1</dim>
					<dim>1</dim>
					<dim>1</dim>
					<dim>1</dim>
				</port>
				<port id="4" precision="FP32">
					<dim>1</dim>
					<dim>1</dim>
					<dim>1</dim>
					<dim>1</dim>
				</port>
			</input>
			<output>
				<port id="5" precision="FP32" names="/backbone/p3/p3.0/activation_fake_quant/DequantizeLinear_output_0">
					<dim>16</dim>
					<dim>64</dim>
					<dim>80</dim>
					<dim>80</dim>
				</port>
			</output>
		</layer>
		<layer id="117" name="backbone.p3.1.conv1.conv.weight_int8" type="Const" version="opset1">
			<data element_type="i8" shape="64, 64, 1, 1" offset="118376" size="4096" />
			<output>
				<port id="0" precision="I8" names="backbone.p3.1.conv1.conv.weight_int8">
					<dim>64</dim>
					<dim>64</dim>
					<dim>1</dim>
					<dim>1</dim>
				</port>
			</output>
		</layer>
		<layer id="118" name="Convert_81" type="Convert" version="opset1">
			<data destination_type="f32" />
			<input>
				<port id="0" precision="I8">
					<dim>64</dim>
					<dim>64</dim>
					<dim>1</dim>
					<dim>1</dim>
				</port>
			</input>
			<output>
				<port id="1" precision="FP32">
					<dim>64</dim>
					<dim>64</dim>
					<dim>1</dim>
					<dim>1</dim>
				</port>
			</output>
		</layer>
		<layer id="119" name="Reshape_80" type="Const" version="opset1">
			<data element_type="f32" shape="64, 1, 1, 1" offset="122472" size="256" />
			<output>
				<port id="0" precision="FP32">
					<dim>64</dim>
					<dim>1</dim>
					<dim>1</dim>
					<dim>1</dim>
				</port>
			</output>
		</layer>
		<layer id="120" name="/backbone/p3/p3.1/conv1/weight_fake_quant/DequantizeLinear" type="Multiply" version="opset1">
			<data auto_broadcast="numpy" />
			<input>
				<port id="0" precision="FP32">
					<dim>64</dim>
					<dim>64</dim>
					<dim>1</dim>
					<dim>1</dim>
				</port>
				<port id="1" precision="FP32">
					<dim>64</dim>
					<dim>1</dim>
					<dim>1</dim>
					<dim>1</dim>
				</port>
			</input>
			<output>
				<port id="2" precision="FP32" names="/backbone/p3/p3.1/conv1/weight_fake_quant/DequantizeLinear_output_0">
					<dim>64</dim>
					<dim>64</dim>
					<dim>1</dim>
					<dim>1</dim>
				</port>
			</output>
		</layer>
		<layer id="121" name="Reshape_23801" type="Const" version="opset1">
			<data element_type="f32" shape="64, 1, 1, 1" offset="122728" size="256" />
			<output>
				<port id="0" precision="FP32">
					<dim>64</dim>
					<dim>1</dim>
					<dim>1</dim>
					<dim>1</dim>
				</port>
			</output>
		</layer>
		<layer id="122" name="Multiply_23802" type="Multiply" version="opset1">
			<data auto_broadcast="numpy" />
			<input>
				<port id="0" precision="FP32">
					<dim>64</dim>
					<dim>64</dim>
					<dim>1</dim>
					<dim>1</dim>
				</port>
				<port id="1" precision="FP32">
					<dim>64</dim>
					<dim>1</dim>
					<dim>1</dim>
					<dim>1</dim>
				</port>
			</input>
			<output>
				<port id="2" precision="FP32">
					<dim>64</dim>
					<dim>64</dim>
					<dim>1</dim>
					<dim>1</dim>
				</port>
			</output>
		</layer>
		<layer id="123" name="Multiply_23149" type="Convolution" version="opset1">
			<data strides="1, 1" dilations="1, 1" pads_begin="0, 0" pads_end="0, 0" auto_pad="explicit" />
			<input>
				<port id="0" precision="FP32">
					<dim>16</dim>
					<dim>64</dim>
					<dim>80</dim>
					<dim>80</dim>
				</port>
				<port id="1" precision="FP32">
					<dim>64</dim>
					<dim>64</dim>
					<dim>1</dim>
					<dim>1</dim>
				</port>
			</input>
			<output>
				<port id="2" precision="FP32">
					<dim>16</dim>
					<dim>64</dim>
					<dim>80</dim>
					<dim>80</dim>
				</port>
			</output>
		</layer>
		<layer id="124" name="Constant_23154" type="Const" version="opset1">
			<data element_type="f32" shape="1, 64, 1, 1" offset="122984" size="256" />
			<output>
				<port id="0" precision="FP32">
					<dim>1</dim>
					<dim>64</dim>
					<dim>1</dim>
					<dim>1</dim>
				</port>
			</output>
		</layer>
		<layer id="125" name="/backbone/p3/p3.1/conv1/norm/BatchNormalization" type="Add" version="opset1">
			<data auto_broadcast="numpy" />
			<input>
				<port id="0" precision="FP32">
					<dim>16</dim>
					<dim>64</dim>
					<dim>80</dim>
					<dim>80</dim>
				</port>
				<port id="1" precision="FP32">
					<dim>1</dim>
					<dim>64</dim>
					<dim>1</dim>
					<dim>1</dim>
				</port>
			</input>
			<output>
				<port id="2" precision="FP32" names="/backbone/p3/p3.1/conv1/norm/BatchNormalization_output_0">
					<dim>16</dim>
					<dim>64</dim>
					<dim>80</dim>
					<dim>80</dim>
				</port>
			</output>
		</layer>
		<layer id="126" name="/backbone/p3/p3.1/conv1/relu/Mul" type="Swish" version="opset4">
			<input>
				<port id="0" precision="FP32">
					<dim>16</dim>
					<dim>64</dim>
					<dim>80</dim>
					<dim>80</dim>
				</port>
			</input>
			<output>
				<port id="1" precision="FP32" names="/backbone/p3/p3.1/conv1/relu/Mul_output_0">
					<dim>16</dim>
					<dim>64</dim>
					<dim>80</dim>
					<dim>80</dim>
				</port>
			</output>
		</layer>
		<layer id="127" name="Constant_24506" type="Const" version="opset1">
			<data element_type="f32" shape="1, 1, 1, 1" offset="123240" size="4" />
			<output>
				<port id="0" precision="FP32">
					<dim>1</dim>
					<dim>1</dim>
					<dim>1</dim>
					<dim>1</dim>
				</port>
			</output>
		</layer>
		<layer id="128" name="Constant_24507" type="Const" version="opset1">
			<data element_type="f32" shape="1, 1, 1, 1" offset="123244" size="4" />
			<output>
				<port id="0" precision="FP32">
					<dim>1</dim>
					<dim>1</dim>
					<dim>1</dim>
					<dim>1</dim>
				</port>
			</output>
		</layer>
		<layer id="129" name="Constant_24508" type="Const" version="opset1">
			<data element_type="f32" shape="1, 1, 1, 1" offset="123240" size="4" />
			<output>
				<port id="0" precision="FP32">
					<dim>1</dim>
					<dim>1</dim>
					<dim>1</dim>
					<dim>1</dim>
				</port>
			</output>
		</layer>
		<layer id="130" name="Constant_24509" type="Const" version="opset1">
			<data element_type="f32" shape="1, 1, 1, 1" offset="123244" size="4" />
			<output>
				<port id="0" precision="FP32">
					<dim>1</dim>
					<dim>1</dim>
					<dim>1</dim>
					<dim>1</dim>
				</port>
			</output>
		</layer>
		<layer id="131" name="/backbone/p3/p3.1/conv1/activation_fake_quant/DequantizeLinear" type="FakeQuantize" version="opset1">
			<data levels="256" auto_broadcast="numpy" />
			<input>
				<port id="0" precision="FP32">
					<dim>16</dim>
					<dim>64</dim>
					<dim>80</dim>
					<dim>80</dim>
				</port>
				<port id="1" precision="FP32">
					<dim>1</dim>
					<dim>1</dim>
					<dim>1</dim>
					<dim>1</dim>
				</port>
				<port id="2" precision="FP32">
					<dim>1</dim>
					<dim>1</dim>
					<dim>1</dim>
					<dim>1</dim>
				</port>
				<port id="3" precision="FP32">
					<dim>1</dim>
					<dim>1</dim>
					<dim>1</dim>
					<dim>1</dim>
				</port>
				<port id="4" precision="FP32">
					<dim>1</dim>
					<dim>1</dim>
					<dim>1</dim>
					<dim>1</dim>
				</port>
			</input>
			<output>
				<port id="5" precision="FP32" names="/backbone/p3/p3.1/conv1/activation_fake_quant/DequantizeLinear_output_0">
					<dim>16</dim>
					<dim>64</dim>
					<dim>80</dim>
					<dim>80</dim>
				</port>
			</output>
		</layer>
		<layer id="132" name="/backbone/p3/p3.1/Slice" type="Slice" version="opset8">
			<input>
				<port id="0" precision="FP32">
					<dim>16</dim>
					<dim>64</dim>
					<dim>80</dim>
					<dim>80</dim>
				</port>
				<port id="1" precision="I64">
					<dim>1</dim>
				</port>
				<port id="2" precision="I64">
					<dim>1</dim>
				</port>
				<port id="3" precision="I64">
					<dim>1</dim>
				</port>
				<port id="4" precision="I64">
					<dim>1</dim>
				</port>
			</input>
			<output>
				<port id="5" precision="FP32" names="/backbone/p3/p3.1/Slice_output_0">
					<dim>16</dim>
					<dim>32</dim>
					<dim>80</dim>
					<dim>80</dim>
				</port>
			</output>
		</layer>
		<layer id="133" name="/backbone/p3/p3.1/Mul_1_output_0" type="Const" version="opset1">
			<data element_type="i64" shape="1" offset="123248" size="8" />
			<output>
				<port id="0" precision="I64" names="/backbone/p3/p3.1/Mul_1_output_0">
					<dim>1</dim>
				</port>
			</output>
		</layer>
		<layer id="134" name="Broadcast_1211" type="Const" version="opset1">
			<data element_type="i64" shape="1" offset="74264" size="8" />
			<output>
				<port id="0" precision="I64">
					<dim>1</dim>
				</port>
			</output>
		</layer>
		<layer id="135" name="/backbone/p3/p3.1/Slice_1" type="Slice" version="opset8">
			<input>
				<port id="0" precision="FP32">
					<dim>16</dim>
					<dim>64</dim>
					<dim>80</dim>
					<dim>80</dim>
				</port>
				<port id="1" precision="I64">
					<dim>1</dim>
				</port>
				<port id="2" precision="I64">
					<dim>1</dim>
				</port>
				<port id="3" precision="I64">
					<dim>1</dim>
				</port>
				<port id="4" precision="I64">
					<dim>1</dim>
				</port>
			</input>
			<output>
				<port id="5" precision="FP32" names="/backbone/p3/p3.1/Slice_1_output_0">
					<dim>16</dim>
					<dim>32</dim>
					<dim>80</dim>
					<dim>80</dim>
				</port>
			</output>
		</layer>
		<layer id="136" name="backbone.p3.1.res_m.0.conv1.conv.weight_int8" type="Const" version="opset1">
			<data element_type="i8" shape="16, 32, 3, 3" offset="123256" size="4608" />
			<output>
				<port id="0" precision="I8" names="backbone.p3.1.res_m.0.conv1.conv.weight_int8">
					<dim>16</dim>
					<dim>32</dim>
					<dim>3</dim>
					<dim>3</dim>
				</port>
			</output>
		</layer>
		<layer id="137" name="Convert_91" type="Convert" version="opset1">
			<data destination_type="f32" />
			<input>
				<port id="0" precision="I8">
					<dim>16</dim>
					<dim>32</dim>
					<dim>3</dim>
					<dim>3</dim>
				</port>
			</input>
			<output>
				<port id="1" precision="FP32">
					<dim>16</dim>
					<dim>32</dim>
					<dim>3</dim>
					<dim>3</dim>
				</port>
			</output>
		</layer>
		<layer id="138" name="Reshape_90" type="Const" version="opset1">
			<data element_type="f32" shape="16, 1, 1, 1" offset="127864" size="64" />
			<output>
				<port id="0" precision="FP32">
					<dim>16</dim>
					<dim>1</dim>
					<dim>1</dim>
					<dim>1</dim>
				</port>
			</output>
		</layer>
		<layer id="139" name="/backbone/p3/p3.1/res_m.0/conv1/weight_fake_quant/DequantizeLinear" type="Multiply" version="opset1">
			<data auto_broadcast="numpy" />
			<input>
				<port id="0" precision="FP32">
					<dim>16</dim>
					<dim>32</dim>
					<dim>3</dim>
					<dim>3</dim>
				</port>
				<port id="1" precision="FP32">
					<dim>16</dim>
					<dim>1</dim>
					<dim>1</dim>
					<dim>1</dim>
				</port>
			</input>
			<output>
				<port id="2" precision="FP32" names="/backbone/p3/p3.1/res_m.0/conv1/weight_fake_quant/DequantizeLinear_output_0">
					<dim>16</dim>
					<dim>32</dim>
					<dim>3</dim>
					<dim>3</dim>
				</port>
			</output>
		</layer>
		<layer id="140" name="Reshape_23805" type="Const" version="opset1">
			<data element_type="f32" shape="16, 1, 1, 1" offset="127928" size="64" />
			<output>
				<port id="0" precision="FP32">
					<dim>16</dim>
					<dim>1</dim>
					<dim>1</dim>
					<dim>1</dim>
				</port>
			</output>
		</layer>
		<layer id="141" name="Multiply_23806" type="Multiply" version="opset1">
			<data auto_broadcast="numpy" />
			<input>
				<port id="0" precision="FP32">
					<dim>16</dim>
					<dim>32</dim>
					<dim>3</dim>
					<dim>3</dim>
				</port>
				<port id="1" precision="FP32">
					<dim>16</dim>
					<dim>1</dim>
					<dim>1</dim>
					<dim>1</dim>
				</port>
			</input>
			<output>
				<port id="2" precision="FP32">
					<dim>16</dim>
					<dim>32</dim>
					<dim>3</dim>
					<dim>3</dim>
				</port>
			</output>
		</layer>
		<layer id="142" name="Multiply_23156" type="Convolution" version="opset1">
			<data strides="1, 1" dilations="1, 1" pads_begin="1, 1" pads_end="1, 1" auto_pad="explicit" />
			<input>
				<port id="0" precision="FP32">
					<dim>16</dim>
					<dim>32</dim>
					<dim>80</dim>
					<dim>80</dim>
				</port>
				<port id="1" precision="FP32">
					<dim>16</dim>
					<dim>32</dim>
					<dim>3</dim>
					<dim>3</dim>
				</port>
			</input>
			<output>
				<port id="2" precision="FP32">
					<dim>16</dim>
					<dim>16</dim>
					<dim>80</dim>
					<dim>80</dim>
				</port>
			</output>
		</layer>
		<layer id="143" name="Constant_23161" type="Const" version="opset1">
			<data element_type="f32" shape="1, 16, 1, 1" offset="127992" size="64" />
			<output>
				<port id="0" precision="FP32">
					<dim>1</dim>
					<dim>16</dim>
					<dim>1</dim>
					<dim>1</dim>
				</port>
			</output>
		</layer>
		<layer id="144" name="/backbone/p3/p3.1/res_m.0/conv1/norm/BatchNormalization" type="Add" version="opset1">
			<data auto_broadcast="numpy" />
			<input>
				<port id="0" precision="FP32">
					<dim>16</dim>
					<dim>16</dim>
					<dim>80</dim>
					<dim>80</dim>
				</port>
				<port id="1" precision="FP32">
					<dim>1</dim>
					<dim>16</dim>
					<dim>1</dim>
					<dim>1</dim>
				</port>
			</input>
			<output>
				<port id="2" precision="FP32" names="/backbone/p3/p3.1/res_m.0/conv1/norm/BatchNormalization_output_0">
					<dim>16</dim>
					<dim>16</dim>
					<dim>80</dim>
					<dim>80</dim>
				</port>
			</output>
		</layer>
		<layer id="145" name="/backbone/p3/p3.1/res_m.0/conv1/relu/Mul" type="Swish" version="opset4">
			<input>
				<port id="0" precision="FP32">
					<dim>16</dim>
					<dim>16</dim>
					<dim>80</dim>
					<dim>80</dim>
				</port>
			</input>
			<output>
				<port id="1" precision="FP32" names="/backbone/p3/p3.1/res_m.0/conv1/relu/Mul_output_0">
					<dim>16</dim>
					<dim>16</dim>
					<dim>80</dim>
					<dim>80</dim>
				</port>
			</output>
		</layer>
		<layer id="146" name="Constant_24510" type="Const" version="opset1">
			<data element_type="f32" shape="1, 1, 1, 1" offset="128056" size="4" />
			<output>
				<port id="0" precision="FP32">
					<dim>1</dim>
					<dim>1</dim>
					<dim>1</dim>
					<dim>1</dim>
				</port>
			</output>
		</layer>
		<layer id="147" name="Constant_24511" type="Const" version="opset1">
			<data element_type="f32" shape="1, 1, 1, 1" offset="128060" size="4" />
			<output>
				<port id="0" precision="FP32">
					<dim>1</dim>
					<dim>1</dim>
					<dim>1</dim>
					<dim>1</dim>
				</port>
			</output>
		</layer>
		<layer id="148" name="Constant_24512" type="Const" version="opset1">
			<data element_type="f32" shape="1, 1, 1, 1" offset="128056" size="4" />
			<output>
				<port id="0" precision="FP32">
					<dim>1</dim>
					<dim>1</dim>
					<dim>1</dim>
					<dim>1</dim>
				</port>
			</output>
		</layer>
		<layer id="149" name="Constant_24513" type="Const" version="opset1">
			<data element_type="f32" shape="1, 1, 1, 1" offset="128060" size="4" />
			<output>
				<port id="0" precision="FP32">
					<dim>1</dim>
					<dim>1</dim>
					<dim>1</dim>
					<dim>1</dim>
				</port>
			</output>
		</layer>
		<layer id="150" name="/backbone/p3/p3.1/res_m.0/conv1/activation_fake_quant/DequantizeLinear" type="FakeQuantize" version="opset1">
			<data levels="256" auto_broadcast="numpy" />
			<input>
				<port id="0" precision="FP32">
					<dim>16</dim>
					<dim>16</dim>
					<dim>80</dim>
					<dim>80</dim>
				</port>
				<port id="1" precision="FP32">
					<dim>1</dim>
					<dim>1</dim>
					<dim>1</dim>
					<dim>1</dim>
				</port>
				<port id="2" precision="FP32">
					<dim>1</dim>
					<dim>1</dim>
					<dim>1</dim>
					<dim>1</dim>
				</port>
				<port id="3" precision="FP32">
					<dim>1</dim>
					<dim>1</dim>
					<dim>1</dim>
					<dim>1</dim>
				</port>
				<port id="4" precision="FP32">
					<dim>1</dim>
					<dim>1</dim>
					<dim>1</dim>
					<dim>1</dim>
				</port>
			</input>
			<output>
				<port id="5" precision="FP32" names="/backbone/p3/p3.1/res_m.0/conv1/activation_fake_quant/DequantizeLinear_output_0">
					<dim>16</dim>
					<dim>16</dim>
					<dim>80</dim>
					<dim>80</dim>
				</port>
			</output>
		</layer>
		<layer id="151" name="backbone.p3.1.res_m.0.conv2.conv.weight_int8" type="Const" version="opset1">
			<data element_type="i8" shape="32, 16, 3, 3" offset="128064" size="4608" />
			<output>
				<port id="0" precision="I8" names="backbone.p3.1.res_m.0.conv2.conv.weight_int8">
					<dim>32</dim>
					<dim>16</dim>
					<dim>3</dim>
					<dim>3</dim>
				</port>
			</output>
		</layer>
		<layer id="152" name="Convert_101" type="Convert" version="opset1">
			<data destination_type="f32" />
			<input>
				<port id="0" precision="I8">
					<dim>32</dim>
					<dim>16</dim>
					<dim>3</dim>
					<dim>3</dim>
				</port>
			</input>
			<output>
				<port id="1" precision="FP32">
					<dim>32</dim>
					<dim>16</dim>
					<dim>3</dim>
					<dim>3</dim>
				</port>
			</output>
		</layer>
		<layer id="153" name="Reshape_100" type="Const" version="opset1">
			<data element_type="f32" shape="32, 1, 1, 1" offset="132672" size="128" />
			<output>
				<port id="0" precision="FP32">
					<dim>32</dim>
					<dim>1</dim>
					<dim>1</dim>
					<dim>1</dim>
				</port>
			</output>
		</layer>
		<layer id="154" name="/backbone/p3/p3.1/res_m.0/conv2/weight_fake_quant/DequantizeLinear" type="Multiply" version="opset1">
			<data auto_broadcast="numpy" />
			<input>
				<port id="0" precision="FP32">
					<dim>32</dim>
					<dim>16</dim>
					<dim>3</dim>
					<dim>3</dim>
				</port>
				<port id="1" precision="FP32">
					<dim>32</dim>
					<dim>1</dim>
					<dim>1</dim>
					<dim>1</dim>
				</port>
			</input>
			<output>
				<port id="2" precision="FP32" names="/backbone/p3/p3.1/res_m.0/conv2/weight_fake_quant/DequantizeLinear_output_0">
					<dim>32</dim>
					<dim>16</dim>
					<dim>3</dim>
					<dim>3</dim>
				</port>
			</output>
		</layer>
		<layer id="155" name="Reshape_23809" type="Const" version="opset1">
			<data element_type="f32" shape="32, 1, 1, 1" offset="132800" size="128" />
			<output>
				<port id="0" precision="FP32">
					<dim>32</dim>
					<dim>1</dim>
					<dim>1</dim>
					<dim>1</dim>
				</port>
			</output>
		</layer>
		<layer id="156" name="Multiply_23810" type="Multiply" version="opset1">
			<data auto_broadcast="numpy" />
			<input>
				<port id="0" precision="FP32">
					<dim>32</dim>
					<dim>16</dim>
					<dim>3</dim>
					<dim>3</dim>
				</port>
				<port id="1" precision="FP32">
					<dim>32</dim>
					<dim>1</dim>
					<dim>1</dim>
					<dim>1</dim>
				</port>
			</input>
			<output>
				<port id="2" precision="FP32">
					<dim>32</dim>
					<dim>16</dim>
					<dim>3</dim>
					<dim>3</dim>
				</port>
			</output>
		</layer>
		<layer id="157" name="Multiply_23163" type="Convolution" version="opset1">
			<data strides="1, 1" dilations="1, 1" pads_begin="1, 1" pads_end="1, 1" auto_pad="explicit" />
			<input>
				<port id="0" precision="FP32">
					<dim>16</dim>
					<dim>16</dim>
					<dim>80</dim>
					<dim>80</dim>
				</port>
				<port id="1" precision="FP32">
					<dim>32</dim>
					<dim>16</dim>
					<dim>3</dim>
					<dim>3</dim>
				</port>
			</input>
			<output>
				<port id="2" precision="FP32">
					<dim>16</dim>
					<dim>32</dim>
					<dim>80</dim>
					<dim>80</dim>
				</port>
			</output>
		</layer>
		<layer id="158" name="Constant_23168" type="Const" version="opset1">
			<data element_type="f32" shape="1, 32, 1, 1" offset="132928" size="128" />
			<output>
				<port id="0" precision="FP32">
					<dim>1</dim>
					<dim>32</dim>
					<dim>1</dim>
					<dim>1</dim>
				</port>
			</output>
		</layer>
		<layer id="159" name="/backbone/p3/p3.1/res_m.0/conv2/norm/BatchNormalization" type="Add" version="opset1">
			<data auto_broadcast="numpy" />
			<input>
				<port id="0" precision="FP32">
					<dim>16</dim>
					<dim>32</dim>
					<dim>80</dim>
					<dim>80</dim>
				</port>
				<port id="1" precision="FP32">
					<dim>1</dim>
					<dim>32</dim>
					<dim>1</dim>
					<dim>1</dim>
				</port>
			</input>
			<output>
				<port id="2" precision="FP32" names="/backbone/p3/p3.1/res_m.0/conv2/norm/BatchNormalization_output_0">
					<dim>16</dim>
					<dim>32</dim>
					<dim>80</dim>
					<dim>80</dim>
				</port>
			</output>
		</layer>
		<layer id="160" name="/backbone/p3/p3.1/res_m.0/conv2/relu/Mul" type="Swish" version="opset4">
			<input>
				<port id="0" precision="FP32">
					<dim>16</dim>
					<dim>32</dim>
					<dim>80</dim>
					<dim>80</dim>
				</port>
			</input>
			<output>
				<port id="1" precision="FP32" names="/backbone/p3/p3.1/res_m.0/conv2/relu/Mul_output_0">
					<dim>16</dim>
					<dim>32</dim>
					<dim>80</dim>
					<dim>80</dim>
				</port>
			</output>
		</layer>
		<layer id="161" name="Constant_24514" type="Const" version="opset1">
			<data element_type="f32" shape="1, 1, 1, 1" offset="133056" size="4" />
			<output>
				<port id="0" precision="FP32">
					<dim>1</dim>
					<dim>1</dim>
					<dim>1</dim>
					<dim>1</dim>
				</port>
			</output>
		</layer>
		<layer id="162" name="Constant_24515" type="Const" version="opset1">
			<data element_type="f32" shape="1, 1, 1, 1" offset="133060" size="4" />
			<output>
				<port id="0" precision="FP32">
					<dim>1</dim>
					<dim>1</dim>
					<dim>1</dim>
					<dim>1</dim>
				</port>
			</output>
		</layer>
		<layer id="163" name="Constant_24516" type="Const" version="opset1">
			<data element_type="f32" shape="1, 1, 1, 1" offset="133056" size="4" />
			<output>
				<port id="0" precision="FP32">
					<dim>1</dim>
					<dim>1</dim>
					<dim>1</dim>
					<dim>1</dim>
				</port>
			</output>
		</layer>
		<layer id="164" name="Constant_24517" type="Const" version="opset1">
			<data element_type="f32" shape="1, 1, 1, 1" offset="133060" size="4" />
			<output>
				<port id="0" precision="FP32">
					<dim>1</dim>
					<dim>1</dim>
					<dim>1</dim>
					<dim>1</dim>
				</port>
			</output>
		</layer>
		<layer id="165" name="/backbone/p3/p3.1/res_m.0/conv2/activation_fake_quant/DequantizeLinear" type="FakeQuantize" version="opset1">
			<data levels="256" auto_broadcast="numpy" />
			<input>
				<port id="0" precision="FP32">
					<dim>16</dim>
					<dim>32</dim>
					<dim>80</dim>
					<dim>80</dim>
				</port>
				<port id="1" precision="FP32">
					<dim>1</dim>
					<dim>1</dim>
					<dim>1</dim>
					<dim>1</dim>
				</port>
				<port id="2" precision="FP32">
					<dim>1</dim>
					<dim>1</dim>
					<dim>1</dim>
					<dim>1</dim>
				</port>
				<port id="3" precision="FP32">
					<dim>1</dim>
					<dim>1</dim>
					<dim>1</dim>
					<dim>1</dim>
				</port>
				<port id="4" precision="FP32">
					<dim>1</dim>
					<dim>1</dim>
					<dim>1</dim>
					<dim>1</dim>
				</port>
			</input>
			<output>
				<port id="5" precision="FP32" names="/backbone/p3/p3.1/res_m.0/conv2/activation_fake_quant/DequantizeLinear_output_0">
					<dim>16</dim>
					<dim>32</dim>
					<dim>80</dim>
					<dim>80</dim>
				</port>
			</output>
		</layer>
		<layer id="166" name="/backbone/p3/p3.1/res_m.0/Add" type="Add" version="opset1">
			<data auto_broadcast="numpy" />
			<input>
				<port id="0" precision="FP32">
					<dim>16</dim>
					<dim>32</dim>
					<dim>80</dim>
					<dim>80</dim>
				</port>
				<port id="1" precision="FP32">
					<dim>16</dim>
					<dim>32</dim>
					<dim>80</dim>
					<dim>80</dim>
				</port>
			</input>
			<output>
				<port id="2" precision="FP32" names="/backbone/p3/p3.1/res_m.0/Add_output_0">
					<dim>16</dim>
					<dim>32</dim>
					<dim>80</dim>
					<dim>80</dim>
				</port>
			</output>
		</layer>
		<layer id="167" name="/backbone/p3/p3.1/Concat" type="Concat" version="opset1">
			<data axis="1" />
			<input>
				<port id="0" precision="FP32">
					<dim>16</dim>
					<dim>32</dim>
					<dim>80</dim>
					<dim>80</dim>
				</port>
				<port id="1" precision="FP32">
					<dim>16</dim>
					<dim>32</dim>
					<dim>80</dim>
					<dim>80</dim>
				</port>
				<port id="2" precision="FP32">
					<dim>16</dim>
					<dim>32</dim>
					<dim>80</dim>
					<dim>80</dim>
				</port>
			</input>
			<output>
				<port id="3" precision="FP32" names="/backbone/p3/p3.1/Concat_output_0">
					<dim>16</dim>
					<dim>96</dim>
					<dim>80</dim>
					<dim>80</dim>
				</port>
			</output>
		</layer>
		<layer id="168" name="backbone.p3.1.conv2.conv.weight_int8" type="Const" version="opset1">
			<data element_type="i8" shape="128, 96, 1, 1" offset="133064" size="12288" />
			<output>
				<port id="0" precision="I8" names="backbone.p3.1.conv2.conv.weight_int8">
					<dim>128</dim>
					<dim>96</dim>
					<dim>1</dim>
					<dim>1</dim>
				</port>
			</output>
		</layer>
		<layer id="169" name="Convert_112" type="Convert" version="opset1">
			<data destination_type="f32" />
			<input>
				<port id="0" precision="I8">
					<dim>128</dim>
					<dim>96</dim>
					<dim>1</dim>
					<dim>1</dim>
				</port>
			</input>
			<output>
				<port id="1" precision="FP32">
					<dim>128</dim>
					<dim>96</dim>
					<dim>1</dim>
					<dim>1</dim>
				</port>
			</output>
		</layer>
		<layer id="170" name="Reshape_111" type="Const" version="opset1">
			<data element_type="f32" shape="128, 1, 1, 1" offset="145352" size="512" />
			<output>
				<port id="0" precision="FP32">
					<dim>128</dim>
					<dim>1</dim>
					<dim>1</dim>
					<dim>1</dim>
				</port>
			</output>
		</layer>
		<layer id="171" name="/backbone/p3/p3.1/conv2/weight_fake_quant/DequantizeLinear" type="Multiply" version="opset1">
			<data auto_broadcast="numpy" />
			<input>
				<port id="0" precision="FP32">
					<dim>128</dim>
					<dim>96</dim>
					<dim>1</dim>
					<dim>1</dim>
				</port>
				<port id="1" precision="FP32">
					<dim>128</dim>
					<dim>1</dim>
					<dim>1</dim>
					<dim>1</dim>
				</port>
			</input>
			<output>
				<port id="2" precision="FP32" names="/backbone/p3/p3.1/conv2/weight_fake_quant/DequantizeLinear_output_0">
					<dim>128</dim>
					<dim>96</dim>
					<dim>1</dim>
					<dim>1</dim>
				</port>
			</output>
		</layer>
		<layer id="172" name="Reshape_23813" type="Const" version="opset1">
			<data element_type="f32" shape="128, 1, 1, 1" offset="145864" size="512" />
			<output>
				<port id="0" precision="FP32">
					<dim>128</dim>
					<dim>1</dim>
					<dim>1</dim>
					<dim>1</dim>
				</port>
			</output>
		</layer>
		<layer id="173" name="Multiply_23814" type="Multiply" version="opset1">
			<data auto_broadcast="numpy" />
			<input>
				<port id="0" precision="FP32">
					<dim>128</dim>
					<dim>96</dim>
					<dim>1</dim>
					<dim>1</dim>
				</port>
				<port id="1" precision="FP32">
					<dim>128</dim>
					<dim>1</dim>
					<dim>1</dim>
					<dim>1</dim>
				</port>
			</input>
			<output>
				<port id="2" precision="FP32">
					<dim>128</dim>
					<dim>96</dim>
					<dim>1</dim>
					<dim>1</dim>
				</port>
			</output>
		</layer>
		<layer id="174" name="Multiply_23170" type="Convolution" version="opset1">
			<data strides="1, 1" dilations="1, 1" pads_begin="0, 0" pads_end="0, 0" auto_pad="explicit" />
			<input>
				<port id="0" precision="FP32">
					<dim>16</dim>
					<dim>96</dim>
					<dim>80</dim>
					<dim>80</dim>
				</port>
				<port id="1" precision="FP32">
					<dim>128</dim>
					<dim>96</dim>
					<dim>1</dim>
					<dim>1</dim>
				</port>
			</input>
			<output>
				<port id="2" precision="FP32">
					<dim>16</dim>
					<dim>128</dim>
					<dim>80</dim>
					<dim>80</dim>
				</port>
			</output>
		</layer>
		<layer id="175" name="Constant_23175" type="Const" version="opset1">
			<data element_type="f32" shape="1, 128, 1, 1" offset="146376" size="512" />
			<output>
				<port id="0" precision="FP32">
					<dim>1</dim>
					<dim>128</dim>
					<dim>1</dim>
					<dim>1</dim>
				</port>
			</output>
		</layer>
		<layer id="176" name="/backbone/p3/p3.1/conv2/norm/BatchNormalization" type="Add" version="opset1">
			<data auto_broadcast="numpy" />
			<input>
				<port id="0" precision="FP32">
					<dim>16</dim>
					<dim>128</dim>
					<dim>80</dim>
					<dim>80</dim>
				</port>
				<port id="1" precision="FP32">
					<dim>1</dim>
					<dim>128</dim>
					<dim>1</dim>
					<dim>1</dim>
				</port>
			</input>
			<output>
				<port id="2" precision="FP32" names="/backbone/p3/p3.1/conv2/norm/BatchNormalization_output_0">
					<dim>16</dim>
					<dim>128</dim>
					<dim>80</dim>
					<dim>80</dim>
				</port>
			</output>
		</layer>
		<layer id="177" name="/backbone/p3/p3.1/conv2/relu/Mul" type="Swish" version="opset4">
			<input>
				<port id="0" precision="FP32">
					<dim>16</dim>
					<dim>128</dim>
					<dim>80</dim>
					<dim>80</dim>
				</port>
			</input>
			<output>
				<port id="1" precision="FP32" names="/backbone/p3/p3.1/conv2/relu/Mul_output_0">
					<dim>16</dim>
					<dim>128</dim>
					<dim>80</dim>
					<dim>80</dim>
				</port>
			</output>
		</layer>
		<layer id="178" name="Constant_24518" type="Const" version="opset1">
			<data element_type="f32" shape="1, 1, 1, 1" offset="146888" size="4" />
			<output>
				<port id="0" precision="FP32">
					<dim>1</dim>
					<dim>1</dim>
					<dim>1</dim>
					<dim>1</dim>
				</port>
			</output>
		</layer>
		<layer id="179" name="Constant_24519" type="Const" version="opset1">
			<data element_type="f32" shape="1, 1, 1, 1" offset="146892" size="4" />
			<output>
				<port id="0" precision="FP32">
					<dim>1</dim>
					<dim>1</dim>
					<dim>1</dim>
					<dim>1</dim>
				</port>
			</output>
		</layer>
		<layer id="180" name="Constant_24520" type="Const" version="opset1">
			<data element_type="f32" shape="1, 1, 1, 1" offset="146888" size="4" />
			<output>
				<port id="0" precision="FP32">
					<dim>1</dim>
					<dim>1</dim>
					<dim>1</dim>
					<dim>1</dim>
				</port>
			</output>
		</layer>
		<layer id="181" name="Constant_24521" type="Const" version="opset1">
			<data element_type="f32" shape="1, 1, 1, 1" offset="146892" size="4" />
			<output>
				<port id="0" precision="FP32">
					<dim>1</dim>
					<dim>1</dim>
					<dim>1</dim>
					<dim>1</dim>
				</port>
			</output>
		</layer>
		<layer id="182" name="/backbone/p3/p3.1/conv2/activation_fake_quant/DequantizeLinear" type="FakeQuantize" version="opset1">
			<data levels="256" auto_broadcast="numpy" />
			<input>
				<port id="0" precision="FP32">
					<dim>16</dim>
					<dim>128</dim>
					<dim>80</dim>
					<dim>80</dim>
				</port>
				<port id="1" precision="FP32">
					<dim>1</dim>
					<dim>1</dim>
					<dim>1</dim>
					<dim>1</dim>
				</port>
				<port id="2" precision="FP32">
					<dim>1</dim>
					<dim>1</dim>
					<dim>1</dim>
					<dim>1</dim>
				</port>
				<port id="3" precision="FP32">
					<dim>1</dim>
					<dim>1</dim>
					<dim>1</dim>
					<dim>1</dim>
				</port>
				<port id="4" precision="FP32">
					<dim>1</dim>
					<dim>1</dim>
					<dim>1</dim>
					<dim>1</dim>
				</port>
			</input>
			<output>
				<port id="5" precision="FP32" names="/backbone/p3/p3.1/conv2/activation_fake_quant/DequantizeLinear_output_0">
					<dim>16</dim>
					<dim>128</dim>
					<dim>80</dim>
					<dim>80</dim>
				</port>
			</output>
		</layer>
		<layer id="183" name="backbone.p4.0.conv.weight_int8" type="Const" version="opset1">
			<data element_type="i8" shape="128, 128, 3, 3" offset="146896" size="147456" />
			<output>
				<port id="0" precision="I8" names="backbone.p4.0.conv.weight_int8">
					<dim>128</dim>
					<dim>128</dim>
					<dim>3</dim>
					<dim>3</dim>
				</port>
			</output>
		</layer>
		<layer id="184" name="Convert_122" type="Convert" version="opset1">
			<data destination_type="f32" />
			<input>
				<port id="0" precision="I8">
					<dim>128</dim>
					<dim>128</dim>
					<dim>3</dim>
					<dim>3</dim>
				</port>
			</input>
			<output>
				<port id="1" precision="FP32">
					<dim>128</dim>
					<dim>128</dim>
					<dim>3</dim>
					<dim>3</dim>
				</port>
			</output>
		</layer>
		<layer id="185" name="Reshape_121" type="Const" version="opset1">
			<data element_type="f32" shape="128, 1, 1, 1" offset="294352" size="512" />
			<output>
				<port id="0" precision="FP32">
					<dim>128</dim>
					<dim>1</dim>
					<dim>1</dim>
					<dim>1</dim>
				</port>
			</output>
		</layer>
		<layer id="186" name="/backbone/p4/p4.0/weight_fake_quant/DequantizeLinear" type="Multiply" version="opset1">
			<data auto_broadcast="numpy" />
			<input>
				<port id="0" precision="FP32">
					<dim>128</dim>
					<dim>128</dim>
					<dim>3</dim>
					<dim>3</dim>
				</port>
				<port id="1" precision="FP32">
					<dim>128</dim>
					<dim>1</dim>
					<dim>1</dim>
					<dim>1</dim>
				</port>
			</input>
			<output>
				<port id="2" precision="FP32" names="/backbone/p4/p4.0/weight_fake_quant/DequantizeLinear_output_0">
					<dim>128</dim>
					<dim>128</dim>
					<dim>3</dim>
					<dim>3</dim>
				</port>
			</output>
		</layer>
		<layer id="187" name="Reshape_23817" type="Const" version="opset1">
			<data element_type="f32" shape="128, 1, 1, 1" offset="294864" size="512" />
			<output>
				<port id="0" precision="FP32">
					<dim>128</dim>
					<dim>1</dim>
					<dim>1</dim>
					<dim>1</dim>
				</port>
			</output>
		</layer>
		<layer id="188" name="Multiply_23818" type="Multiply" version="opset1">
			<data auto_broadcast="numpy" />
			<input>
				<port id="0" precision="FP32">
					<dim>128</dim>
					<dim>128</dim>
					<dim>3</dim>
					<dim>3</dim>
				</port>
				<port id="1" precision="FP32">
					<dim>128</dim>
					<dim>1</dim>
					<dim>1</dim>
					<dim>1</dim>
				</port>
			</input>
			<output>
				<port id="2" precision="FP32">
					<dim>128</dim>
					<dim>128</dim>
					<dim>3</dim>
					<dim>3</dim>
				</port>
			</output>
		</layer>
		<layer id="189" name="Multiply_23177" type="Convolution" version="opset1">
			<data strides="2, 2" dilations="1, 1" pads_begin="1, 1" pads_end="1, 1" auto_pad="explicit" />
			<input>
				<port id="0" precision="FP32">
					<dim>16</dim>
					<dim>128</dim>
					<dim>80</dim>
					<dim>80</dim>
				</port>
				<port id="1" precision="FP32">
					<dim>128</dim>
					<dim>128</dim>
					<dim>3</dim>
					<dim>3</dim>
				</port>
			</input>
			<output>
				<port id="2" precision="FP32">
					<dim>16</dim>
					<dim>128</dim>
					<dim>40</dim>
					<dim>40</dim>
				</port>
			</output>
		</layer>
		<layer id="190" name="Constant_23182" type="Const" version="opset1">
			<data element_type="f32" shape="1, 128, 1, 1" offset="295376" size="512" />
			<output>
				<port id="0" precision="FP32">
					<dim>1</dim>
					<dim>128</dim>
					<dim>1</dim>
					<dim>1</dim>
				</port>
			</output>
		</layer>
		<layer id="191" name="/backbone/p4/p4.0/norm/BatchNormalization" type="Add" version="opset1">
			<data auto_broadcast="numpy" />
			<input>
				<port id="0" precision="FP32">
					<dim>16</dim>
					<dim>128</dim>
					<dim>40</dim>
					<dim>40</dim>
				</port>
				<port id="1" precision="FP32">
					<dim>1</dim>
					<dim>128</dim>
					<dim>1</dim>
					<dim>1</dim>
				</port>
			</input>
			<output>
				<port id="2" precision="FP32" names="/backbone/p4/p4.0/norm/BatchNormalization_output_0">
					<dim>16</dim>
					<dim>128</dim>
					<dim>40</dim>
					<dim>40</dim>
				</port>
			</output>
		</layer>
		<layer id="192" name="/backbone/p4/p4.0/relu/Mul" type="Swish" version="opset4">
			<input>
				<port id="0" precision="FP32">
					<dim>16</dim>
					<dim>128</dim>
					<dim>40</dim>
					<dim>40</dim>
				</port>
			</input>
			<output>
				<port id="1" precision="FP32" names="/backbone/p4/p4.0/relu/Mul_output_0">
					<dim>16</dim>
					<dim>128</dim>
					<dim>40</dim>
					<dim>40</dim>
				</port>
			</output>
		</layer>
		<layer id="193" name="Constant_24522" type="Const" version="opset1">
			<data element_type="f32" shape="1, 1, 1, 1" offset="295888" size="4" />
			<output>
				<port id="0" precision="FP32">
					<dim>1</dim>
					<dim>1</dim>
					<dim>1</dim>
					<dim>1</dim>
				</port>
			</output>
		</layer>
		<layer id="194" name="Constant_24523" type="Const" version="opset1">
			<data element_type="f32" shape="1, 1, 1, 1" offset="295892" size="4" />
			<output>
				<port id="0" precision="FP32">
					<dim>1</dim>
					<dim>1</dim>
					<dim>1</dim>
					<dim>1</dim>
				</port>
			</output>
		</layer>
		<layer id="195" name="Constant_24524" type="Const" version="opset1">
			<data element_type="f32" shape="1, 1, 1, 1" offset="295888" size="4" />
			<output>
				<port id="0" precision="FP32">
					<dim>1</dim>
					<dim>1</dim>
					<dim>1</dim>
					<dim>1</dim>
				</port>
			</output>
		</layer>
		<layer id="196" name="Constant_24525" type="Const" version="opset1">
			<data element_type="f32" shape="1, 1, 1, 1" offset="295892" size="4" />
			<output>
				<port id="0" precision="FP32">
					<dim>1</dim>
					<dim>1</dim>
					<dim>1</dim>
					<dim>1</dim>
				</port>
			</output>
		</layer>
		<layer id="197" name="/backbone/p4/p4.0/activation_fake_quant/DequantizeLinear" type="FakeQuantize" version="opset1">
			<data levels="256" auto_broadcast="numpy" />
			<input>
				<port id="0" precision="FP32">
					<dim>16</dim>
					<dim>128</dim>
					<dim>40</dim>
					<dim>40</dim>
				</port>
				<port id="1" precision="FP32">
					<dim>1</dim>
					<dim>1</dim>
					<dim>1</dim>
					<dim>1</dim>
				</port>
				<port id="2" precision="FP32">
					<dim>1</dim>
					<dim>1</dim>
					<dim>1</dim>
					<dim>1</dim>
				</port>
				<port id="3" precision="FP32">
					<dim>1</dim>
					<dim>1</dim>
					<dim>1</dim>
					<dim>1</dim>
				</port>
				<port id="4" precision="FP32">
					<dim>1</dim>
					<dim>1</dim>
					<dim>1</dim>
					<dim>1</dim>
				</port>
			</input>
			<output>
				<port id="5" precision="FP32" names="/backbone/p4/p4.0/activation_fake_quant/DequantizeLinear_output_0">
					<dim>16</dim>
					<dim>128</dim>
					<dim>40</dim>
					<dim>40</dim>
				</port>
			</output>
		</layer>
		<layer id="198" name="backbone.p4.1.conv1.conv.weight_int8" type="Const" version="opset1">
			<data element_type="i8" shape="128, 128, 1, 1" offset="295896" size="16384" />
			<output>
				<port id="0" precision="I8" names="backbone.p4.1.conv1.conv.weight_int8">
					<dim>128</dim>
					<dim>128</dim>
					<dim>1</dim>
					<dim>1</dim>
				</port>
			</output>
		</layer>
		<layer id="199" name="Convert_132" type="Convert" version="opset1">
			<data destination_type="f32" />
			<input>
				<port id="0" precision="I8">
					<dim>128</dim>
					<dim>128</dim>
					<dim>1</dim>
					<dim>1</dim>
				</port>
			</input>
			<output>
				<port id="1" precision="FP32">
					<dim>128</dim>
					<dim>128</dim>
					<dim>1</dim>
					<dim>1</dim>
				</port>
			</output>
		</layer>
		<layer id="200" name="Reshape_131" type="Const" version="opset1">
			<data element_type="f32" shape="128, 1, 1, 1" offset="312280" size="512" />
			<output>
				<port id="0" precision="FP32">
					<dim>128</dim>
					<dim>1</dim>
					<dim>1</dim>
					<dim>1</dim>
				</port>
			</output>
		</layer>
		<layer id="201" name="/backbone/p4/p4.1/conv1/weight_fake_quant/DequantizeLinear" type="Multiply" version="opset1">
			<data auto_broadcast="numpy" />
			<input>
				<port id="0" precision="FP32">
					<dim>128</dim>
					<dim>128</dim>
					<dim>1</dim>
					<dim>1</dim>
				</port>
				<port id="1" precision="FP32">
					<dim>128</dim>
					<dim>1</dim>
					<dim>1</dim>
					<dim>1</dim>
				</port>
			</input>
			<output>
				<port id="2" precision="FP32" names="/backbone/p4/p4.1/conv1/weight_fake_quant/DequantizeLinear_output_0">
					<dim>128</dim>
					<dim>128</dim>
					<dim>1</dim>
					<dim>1</dim>
				</port>
			</output>
		</layer>
		<layer id="202" name="Reshape_23821" type="Const" version="opset1">
			<data element_type="f32" shape="128, 1, 1, 1" offset="312792" size="512" />
			<output>
				<port id="0" precision="FP32">
					<dim>128</dim>
					<dim>1</dim>
					<dim>1</dim>
					<dim>1</dim>
				</port>
			</output>
		</layer>
		<layer id="203" name="Multiply_23822" type="Multiply" version="opset1">
			<data auto_broadcast="numpy" />
			<input>
				<port id="0" precision="FP32">
					<dim>128</dim>
					<dim>128</dim>
					<dim>1</dim>
					<dim>1</dim>
				</port>
				<port id="1" precision="FP32">
					<dim>128</dim>
					<dim>1</dim>
					<dim>1</dim>
					<dim>1</dim>
				</port>
			</input>
			<output>
				<port id="2" precision="FP32">
					<dim>128</dim>
					<dim>128</dim>
					<dim>1</dim>
					<dim>1</dim>
				</port>
			</output>
		</layer>
		<layer id="204" name="Multiply_23184" type="Convolution" version="opset1">
			<data strides="1, 1" dilations="1, 1" pads_begin="0, 0" pads_end="0, 0" auto_pad="explicit" />
			<input>
				<port id="0" precision="FP32">
					<dim>16</dim>
					<dim>128</dim>
					<dim>40</dim>
					<dim>40</dim>
				</port>
				<port id="1" precision="FP32">
					<dim>128</dim>
					<dim>128</dim>
					<dim>1</dim>
					<dim>1</dim>
				</port>
			</input>
			<output>
				<port id="2" precision="FP32">
					<dim>16</dim>
					<dim>128</dim>
					<dim>40</dim>
					<dim>40</dim>
				</port>
			</output>
		</layer>
		<layer id="205" name="Constant_23189" type="Const" version="opset1">
			<data element_type="f32" shape="1, 128, 1, 1" offset="313304" size="512" />
			<output>
				<port id="0" precision="FP32">
					<dim>1</dim>
					<dim>128</dim>
					<dim>1</dim>
					<dim>1</dim>
				</port>
			</output>
		</layer>
		<layer id="206" name="/backbone/p4/p4.1/conv1/norm/BatchNormalization" type="Add" version="opset1">
			<data auto_broadcast="numpy" />
			<input>
				<port id="0" precision="FP32">
					<dim>16</dim>
					<dim>128</dim>
					<dim>40</dim>
					<dim>40</dim>
				</port>
				<port id="1" precision="FP32">
					<dim>1</dim>
					<dim>128</dim>
					<dim>1</dim>
					<dim>1</dim>
				</port>
			</input>
			<output>
				<port id="2" precision="FP32" names="/backbone/p4/p4.1/conv1/norm/BatchNormalization_output_0">
					<dim>16</dim>
					<dim>128</dim>
					<dim>40</dim>
					<dim>40</dim>
				</port>
			</output>
		</layer>
		<layer id="207" name="/backbone/p4/p4.1/conv1/relu/Mul" type="Swish" version="opset4">
			<input>
				<port id="0" precision="FP32">
					<dim>16</dim>
					<dim>128</dim>
					<dim>40</dim>
					<dim>40</dim>
				</port>
			</input>
			<output>
				<port id="1" precision="FP32" names="/backbone/p4/p4.1/conv1/relu/Mul_output_0">
					<dim>16</dim>
					<dim>128</dim>
					<dim>40</dim>
					<dim>40</dim>
				</port>
			</output>
		</layer>
		<layer id="208" name="Constant_24526" type="Const" version="opset1">
			<data element_type="f32" shape="1, 1, 1, 1" offset="313816" size="4" />
			<output>
				<port id="0" precision="FP32">
					<dim>1</dim>
					<dim>1</dim>
					<dim>1</dim>
					<dim>1</dim>
				</port>
			</output>
		</layer>
		<layer id="209" name="Constant_24527" type="Const" version="opset1">
			<data element_type="f32" shape="1, 1, 1, 1" offset="313820" size="4" />
			<output>
				<port id="0" precision="FP32">
					<dim>1</dim>
					<dim>1</dim>
					<dim>1</dim>
					<dim>1</dim>
				</port>
			</output>
		</layer>
		<layer id="210" name="Constant_24528" type="Const" version="opset1">
			<data element_type="f32" shape="1, 1, 1, 1" offset="313816" size="4" />
			<output>
				<port id="0" precision="FP32">
					<dim>1</dim>
					<dim>1</dim>
					<dim>1</dim>
					<dim>1</dim>
				</port>
			</output>
		</layer>
		<layer id="211" name="Constant_24529" type="Const" version="opset1">
			<data element_type="f32" shape="1, 1, 1, 1" offset="313820" size="4" />
			<output>
				<port id="0" precision="FP32">
					<dim>1</dim>
					<dim>1</dim>
					<dim>1</dim>
					<dim>1</dim>
				</port>
			</output>
		</layer>
		<layer id="212" name="/backbone/p4/p4.1/conv1/activation_fake_quant/DequantizeLinear" type="FakeQuantize" version="opset1">
			<data levels="256" auto_broadcast="numpy" />
			<input>
				<port id="0" precision="FP32">
					<dim>16</dim>
					<dim>128</dim>
					<dim>40</dim>
					<dim>40</dim>
				</port>
				<port id="1" precision="FP32">
					<dim>1</dim>
					<dim>1</dim>
					<dim>1</dim>
					<dim>1</dim>
				</port>
				<port id="2" precision="FP32">
					<dim>1</dim>
					<dim>1</dim>
					<dim>1</dim>
					<dim>1</dim>
				</port>
				<port id="3" precision="FP32">
					<dim>1</dim>
					<dim>1</dim>
					<dim>1</dim>
					<dim>1</dim>
				</port>
				<port id="4" precision="FP32">
					<dim>1</dim>
					<dim>1</dim>
					<dim>1</dim>
					<dim>1</dim>
				</port>
			</input>
			<output>
				<port id="5" precision="FP32" names="/backbone/p4/p4.1/conv1/activation_fake_quant/DequantizeLinear_output_0">
					<dim>16</dim>
					<dim>128</dim>
					<dim>40</dim>
					<dim>40</dim>
				</port>
			</output>
		</layer>
		<layer id="213" name="/backbone/p4/p4.1/Slice" type="Slice" version="opset8">
			<input>
				<port id="0" precision="FP32">
					<dim>16</dim>
					<dim>128</dim>
					<dim>40</dim>
					<dim>40</dim>
				</port>
				<port id="1" precision="I64">
					<dim>1</dim>
				</port>
				<port id="2" precision="I64">
					<dim>1</dim>
				</port>
				<port id="3" precision="I64">
					<dim>1</dim>
				</port>
				<port id="4" precision="I64">
					<dim>1</dim>
				</port>
			</input>
			<output>
				<port id="5" precision="FP32" names="/backbone/p4/p4.1/Slice_output_0">
					<dim>16</dim>
					<dim>64</dim>
					<dim>40</dim>
					<dim>40</dim>
				</port>
			</output>
		</layer>
		<layer id="214" name="/backbone/p5/p5.3/res_m/res_m.0/conv1/Constant_5_output_0" type="Const" version="opset1">
			<data element_type="i64" shape="1" offset="313824" size="8" />
			<output>
				<port id="0" precision="I64" names="/backbone/p5/p5.3/res_m/res_m.0/conv1/Constant_5_output_0">
					<dim>1</dim>
				</port>
			</output>
		</layer>
		<layer id="215" name="Broadcast_1360" type="Const" version="opset1">
			<data element_type="i64" shape="1" offset="74264" size="8" />
			<output>
				<port id="0" precision="I64">
					<dim>1</dim>
				</port>
			</output>
		</layer>
		<layer id="216" name="/backbone/p4/p4.1/Slice_1" type="Slice" version="opset8">
			<input>
				<port id="0" precision="FP32">
					<dim>16</dim>
					<dim>128</dim>
					<dim>40</dim>
					<dim>40</dim>
				</port>
				<port id="1" precision="I64">
					<dim>1</dim>
				</port>
				<port id="2" precision="I64">
					<dim>1</dim>
				</port>
				<port id="3" precision="I64">
					<dim>1</dim>
				</port>
				<port id="4" precision="I64">
					<dim>1</dim>
				</port>
			</input>
			<output>
				<port id="5" precision="FP32" names="/backbone/p4/p4.1/Slice_1_output_0">
					<dim>16</dim>
					<dim>64</dim>
					<dim>40</dim>
					<dim>40</dim>
				</port>
			</output>
		</layer>
		<layer id="217" name="backbone.p4.1.res_m.0.conv1.conv.weight_int8" type="Const" version="opset1">
			<data element_type="i8" shape="32, 64, 1, 1" offset="313832" size="2048" />
			<output>
				<port id="0" precision="I8" names="backbone.p4.1.res_m.0.conv1.conv.weight_int8">
					<dim>32</dim>
					<dim>64</dim>
					<dim>1</dim>
					<dim>1</dim>
				</port>
			</output>
		</layer>
		<layer id="218" name="Convert_142" type="Convert" version="opset1">
			<data destination_type="f32" />
			<input>
				<port id="0" precision="I8">
					<dim>32</dim>
					<dim>64</dim>
					<dim>1</dim>
					<dim>1</dim>
				</port>
			</input>
			<output>
				<port id="1" precision="FP32">
					<dim>32</dim>
					<dim>64</dim>
					<dim>1</dim>
					<dim>1</dim>
				</port>
			</output>
		</layer>
		<layer id="219" name="Reshape_141" type="Const" version="opset1">
			<data element_type="f32" shape="32, 1, 1, 1" offset="315880" size="128" />
			<output>
				<port id="0" precision="FP32">
					<dim>32</dim>
					<dim>1</dim>
					<dim>1</dim>
					<dim>1</dim>
				</port>
			</output>
		</layer>
		<layer id="220" name="/backbone/p4/p4.1/res_m.0/conv1/weight_fake_quant/DequantizeLinear" type="Multiply" version="opset1">
			<data auto_broadcast="numpy" />
			<input>
				<port id="0" precision="FP32">
					<dim>32</dim>
					<dim>64</dim>
					<dim>1</dim>
					<dim>1</dim>
				</port>
				<port id="1" precision="FP32">
					<dim>32</dim>
					<dim>1</dim>
					<dim>1</dim>
					<dim>1</dim>
				</port>
			</input>
			<output>
				<port id="2" precision="FP32" names="/backbone/p4/p4.1/res_m.0/conv1/weight_fake_quant/DequantizeLinear_output_0">
					<dim>32</dim>
					<dim>64</dim>
					<dim>1</dim>
					<dim>1</dim>
				</port>
			</output>
		</layer>
		<layer id="221" name="Reshape_23825" type="Const" version="opset1">
			<data element_type="f32" shape="32, 1, 1, 1" offset="316008" size="128" />
			<output>
				<port id="0" precision="FP32">
					<dim>32</dim>
					<dim>1</dim>
					<dim>1</dim>
					<dim>1</dim>
				</port>
			</output>
		</layer>
		<layer id="222" name="Multiply_23826" type="Multiply" version="opset1">
			<data auto_broadcast="numpy" />
			<input>
				<port id="0" precision="FP32">
					<dim>32</dim>
					<dim>64</dim>
					<dim>1</dim>
					<dim>1</dim>
				</port>
				<port id="1" precision="FP32">
					<dim>32</dim>
					<dim>1</dim>
					<dim>1</dim>
					<dim>1</dim>
				</port>
			</input>
			<output>
				<port id="2" precision="FP32">
					<dim>32</dim>
					<dim>64</dim>
					<dim>1</dim>
					<dim>1</dim>
				</port>
			</output>
		</layer>
		<layer id="223" name="Multiply_23191" type="Convolution" version="opset1">
			<data strides="1, 1" dilations="1, 1" pads_begin="0, 0" pads_end="0, 0" auto_pad="explicit" />
			<input>
				<port id="0" precision="FP32">
					<dim>16</dim>
					<dim>64</dim>
					<dim>40</dim>
					<dim>40</dim>
				</port>
				<port id="1" precision="FP32">
					<dim>32</dim>
					<dim>64</dim>
					<dim>1</dim>
					<dim>1</dim>
				</port>
			</input>
			<output>
				<port id="2" precision="FP32">
					<dim>16</dim>
					<dim>32</dim>
					<dim>40</dim>
					<dim>40</dim>
				</port>
			</output>
		</layer>
		<layer id="224" name="Constant_23196" type="Const" version="opset1">
			<data element_type="f32" shape="1, 32, 1, 1" offset="316136" size="128" />
			<output>
				<port id="0" precision="FP32">
					<dim>1</dim>
					<dim>32</dim>
					<dim>1</dim>
					<dim>1</dim>
				</port>
			</output>
		</layer>
		<layer id="225" name="/backbone/p4/p4.1/res_m.0/conv1/norm/BatchNormalization" type="Add" version="opset1">
			<data auto_broadcast="numpy" />
			<input>
				<port id="0" precision="FP32">
					<dim>16</dim>
					<dim>32</dim>
					<dim>40</dim>
					<dim>40</dim>
				</port>
				<port id="1" precision="FP32">
					<dim>1</dim>
					<dim>32</dim>
					<dim>1</dim>
					<dim>1</dim>
				</port>
			</input>
			<output>
				<port id="2" precision="FP32" names="/backbone/p4/p4.1/res_m.0/conv1/norm/BatchNormalization_output_0">
					<dim>16</dim>
					<dim>32</dim>
					<dim>40</dim>
					<dim>40</dim>
				</port>
			</output>
		</layer>
		<layer id="226" name="/backbone/p4/p4.1/res_m.0/conv1/relu/Mul" type="Swish" version="opset4">
			<input>
				<port id="0" precision="FP32">
					<dim>16</dim>
					<dim>32</dim>
					<dim>40</dim>
					<dim>40</dim>
				</port>
			</input>
			<output>
				<port id="1" precision="FP32" names="/backbone/p4/p4.1/res_m.0/conv1/relu/Mul_output_0">
					<dim>16</dim>
					<dim>32</dim>
					<dim>40</dim>
					<dim>40</dim>
				</port>
			</output>
		</layer>
		<layer id="227" name="Constant_24530" type="Const" version="opset1">
			<data element_type="f32" shape="1, 1, 1, 1" offset="316264" size="4" />
			<output>
				<port id="0" precision="FP32">
					<dim>1</dim>
					<dim>1</dim>
					<dim>1</dim>
					<dim>1</dim>
				</port>
			</output>
		</layer>
		<layer id="228" name="Constant_24531" type="Const" version="opset1">
			<data element_type="f32" shape="1, 1, 1, 1" offset="316268" size="4" />
			<output>
				<port id="0" precision="FP32">
					<dim>1</dim>
					<dim>1</dim>
					<dim>1</dim>
					<dim>1</dim>
				</port>
			</output>
		</layer>
		<layer id="229" name="Constant_24532" type="Const" version="opset1">
			<data element_type="f32" shape="1, 1, 1, 1" offset="316264" size="4" />
			<output>
				<port id="0" precision="FP32">
					<dim>1</dim>
					<dim>1</dim>
					<dim>1</dim>
					<dim>1</dim>
				</port>
			</output>
		</layer>
		<layer id="230" name="Constant_24533" type="Const" version="opset1">
			<data element_type="f32" shape="1, 1, 1, 1" offset="316268" size="4" />
			<output>
				<port id="0" precision="FP32">
					<dim>1</dim>
					<dim>1</dim>
					<dim>1</dim>
					<dim>1</dim>
				</port>
			</output>
		</layer>
		<layer id="231" name="/backbone/p4/p4.1/res_m.0/conv1/activation_fake_quant/DequantizeLinear" type="FakeQuantize" version="opset1">
			<data levels="256" auto_broadcast="numpy" />
			<input>
				<port id="0" precision="FP32">
					<dim>16</dim>
					<dim>32</dim>
					<dim>40</dim>
					<dim>40</dim>
				</port>
				<port id="1" precision="FP32">
					<dim>1</dim>
					<dim>1</dim>
					<dim>1</dim>
					<dim>1</dim>
				</port>
				<port id="2" precision="FP32">
					<dim>1</dim>
					<dim>1</dim>
					<dim>1</dim>
					<dim>1</dim>
				</port>
				<port id="3" precision="FP32">
					<dim>1</dim>
					<dim>1</dim>
					<dim>1</dim>
					<dim>1</dim>
				</port>
				<port id="4" precision="FP32">
					<dim>1</dim>
					<dim>1</dim>
					<dim>1</dim>
					<dim>1</dim>
				</port>
			</input>
			<output>
				<port id="5" precision="FP32" names="/backbone/p4/p4.1/res_m.0/conv1/activation_fake_quant/DequantizeLinear_output_0">
					<dim>16</dim>
					<dim>32</dim>
					<dim>40</dim>
					<dim>40</dim>
				</port>
			</output>
		</layer>
		<layer id="232" name="backbone.p4.1.res_m.0.res_m.0.conv1.conv.weight_int8" type="Const" version="opset1">
			<data element_type="i8" shape="32, 32, 3, 3" offset="316272" size="9216" />
			<output>
				<port id="0" precision="I8" names="backbone.p4.1.res_m.0.res_m.0.conv1.conv.weight_int8">
					<dim>32</dim>
					<dim>32</dim>
					<dim>3</dim>
					<dim>3</dim>
				</port>
			</output>
		</layer>
		<layer id="233" name="Convert_152" type="Convert" version="opset1">
			<data destination_type="f32" />
			<input>
				<port id="0" precision="I8">
					<dim>32</dim>
					<dim>32</dim>
					<dim>3</dim>
					<dim>3</dim>
				</port>
			</input>
			<output>
				<port id="1" precision="FP32">
					<dim>32</dim>
					<dim>32</dim>
					<dim>3</dim>
					<dim>3</dim>
				</port>
			</output>
		</layer>
		<layer id="234" name="Reshape_151" type="Const" version="opset1">
			<data element_type="f32" shape="32, 1, 1, 1" offset="325488" size="128" />
			<output>
				<port id="0" precision="FP32">
					<dim>32</dim>
					<dim>1</dim>
					<dim>1</dim>
					<dim>1</dim>
				</port>
			</output>
		</layer>
		<layer id="235" name="/backbone/p4/p4.1/res_m.0/res_m/res_m.0/conv1/weight_fake_quant/DequantizeLinear" type="Multiply" version="opset1">
			<data auto_broadcast="numpy" />
			<input>
				<port id="0" precision="FP32">
					<dim>32</dim>
					<dim>32</dim>
					<dim>3</dim>
					<dim>3</dim>
				</port>
				<port id="1" precision="FP32">
					<dim>32</dim>
					<dim>1</dim>
					<dim>1</dim>
					<dim>1</dim>
				</port>
			</input>
			<output>
				<port id="2" precision="FP32" names="/backbone/p4/p4.1/res_m.0/res_m/res_m.0/conv1/weight_fake_quant/DequantizeLinear_output_0">
					<dim>32</dim>
					<dim>32</dim>
					<dim>3</dim>
					<dim>3</dim>
				</port>
			</output>
		</layer>
		<layer id="236" name="Reshape_23829" type="Const" version="opset1">
			<data element_type="f32" shape="32, 1, 1, 1" offset="325616" size="128" />
			<output>
				<port id="0" precision="FP32">
					<dim>32</dim>
					<dim>1</dim>
					<dim>1</dim>
					<dim>1</dim>
				</port>
			</output>
		</layer>
		<layer id="237" name="Multiply_23830" type="Multiply" version="opset1">
			<data auto_broadcast="numpy" />
			<input>
				<port id="0" precision="FP32">
					<dim>32</dim>
					<dim>32</dim>
					<dim>3</dim>
					<dim>3</dim>
				</port>
				<port id="1" precision="FP32">
					<dim>32</dim>
					<dim>1</dim>
					<dim>1</dim>
					<dim>1</dim>
				</port>
			</input>
			<output>
				<port id="2" precision="FP32">
					<dim>32</dim>
					<dim>32</dim>
					<dim>3</dim>
					<dim>3</dim>
				</port>
			</output>
		</layer>
		<layer id="238" name="Multiply_23198" type="Convolution" version="opset1">
			<data strides="1, 1" dilations="1, 1" pads_begin="1, 1" pads_end="1, 1" auto_pad="explicit" />
			<input>
				<port id="0" precision="FP32">
					<dim>16</dim>
					<dim>32</dim>
					<dim>40</dim>
					<dim>40</dim>
				</port>
				<port id="1" precision="FP32">
					<dim>32</dim>
					<dim>32</dim>
					<dim>3</dim>
					<dim>3</dim>
				</port>
			</input>
			<output>
				<port id="2" precision="FP32">
					<dim>16</dim>
					<dim>32</dim>
					<dim>40</dim>
					<dim>40</dim>
				</port>
			</output>
		</layer>
		<layer id="239" name="Constant_23203" type="Const" version="opset1">
			<data element_type="f32" shape="1, 32, 1, 1" offset="325744" size="128" />
			<output>
				<port id="0" precision="FP32">
					<dim>1</dim>
					<dim>32</dim>
					<dim>1</dim>
					<dim>1</dim>
				</port>
			</output>
		</layer>
		<layer id="240" name="/backbone/p4/p4.1/res_m.0/res_m/res_m.0/conv1/norm/BatchNormalization" type="Add" version="opset1">
			<data auto_broadcast="numpy" />
			<input>
				<port id="0" precision="FP32">
					<dim>16</dim>
					<dim>32</dim>
					<dim>40</dim>
					<dim>40</dim>
				</port>
				<port id="1" precision="FP32">
					<dim>1</dim>
					<dim>32</dim>
					<dim>1</dim>
					<dim>1</dim>
				</port>
			</input>
			<output>
				<port id="2" precision="FP32" names="/backbone/p4/p4.1/res_m.0/res_m/res_m.0/conv1/norm/BatchNormalization_output_0">
					<dim>16</dim>
					<dim>32</dim>
					<dim>40</dim>
					<dim>40</dim>
				</port>
			</output>
		</layer>
		<layer id="241" name="/backbone/p4/p4.1/res_m.0/res_m/res_m.0/conv1/relu/Mul" type="Swish" version="opset4">
			<input>
				<port id="0" precision="FP32">
					<dim>16</dim>
					<dim>32</dim>
					<dim>40</dim>
					<dim>40</dim>
				</port>
			</input>
			<output>
				<port id="1" precision="FP32" names="/backbone/p4/p4.1/res_m.0/res_m/res_m.0/conv1/relu/Mul_output_0">
					<dim>16</dim>
					<dim>32</dim>
					<dim>40</dim>
					<dim>40</dim>
				</port>
			</output>
		</layer>
		<layer id="242" name="Constant_24534" type="Const" version="opset1">
			<data element_type="f32" shape="1, 1, 1, 1" offset="325872" size="4" />
			<output>
				<port id="0" precision="FP32">
					<dim>1</dim>
					<dim>1</dim>
					<dim>1</dim>
					<dim>1</dim>
				</port>
			</output>
		</layer>
		<layer id="243" name="Constant_24535" type="Const" version="opset1">
			<data element_type="f32" shape="1, 1, 1, 1" offset="325876" size="4" />
			<output>
				<port id="0" precision="FP32">
					<dim>1</dim>
					<dim>1</dim>
					<dim>1</dim>
					<dim>1</dim>
				</port>
			</output>
		</layer>
		<layer id="244" name="Constant_24536" type="Const" version="opset1">
			<data element_type="f32" shape="1, 1, 1, 1" offset="325872" size="4" />
			<output>
				<port id="0" precision="FP32">
					<dim>1</dim>
					<dim>1</dim>
					<dim>1</dim>
					<dim>1</dim>
				</port>
			</output>
		</layer>
		<layer id="245" name="Constant_24537" type="Const" version="opset1">
			<data element_type="f32" shape="1, 1, 1, 1" offset="325876" size="4" />
			<output>
				<port id="0" precision="FP32">
					<dim>1</dim>
					<dim>1</dim>
					<dim>1</dim>
					<dim>1</dim>
				</port>
			</output>
		</layer>
		<layer id="246" name="/backbone/p4/p4.1/res_m.0/res_m/res_m.0/conv1/activation_fake_quant/DequantizeLinear" type="FakeQuantize" version="opset1">
			<data levels="256" auto_broadcast="numpy" />
			<input>
				<port id="0" precision="FP32">
					<dim>16</dim>
					<dim>32</dim>
					<dim>40</dim>
					<dim>40</dim>
				</port>
				<port id="1" precision="FP32">
					<dim>1</dim>
					<dim>1</dim>
					<dim>1</dim>
					<dim>1</dim>
				</port>
				<port id="2" precision="FP32">
					<dim>1</dim>
					<dim>1</dim>
					<dim>1</dim>
					<dim>1</dim>
				</port>
				<port id="3" precision="FP32">
					<dim>1</dim>
					<dim>1</dim>
					<dim>1</dim>
					<dim>1</dim>
				</port>
				<port id="4" precision="FP32">
					<dim>1</dim>
					<dim>1</dim>
					<dim>1</dim>
					<dim>1</dim>
				</port>
			</input>
			<output>
				<port id="5" precision="FP32" names="/backbone/p4/p4.1/res_m.0/res_m/res_m.0/conv1/activation_fake_quant/DequantizeLinear_output_0">
					<dim>16</dim>
					<dim>32</dim>
					<dim>40</dim>
					<dim>40</dim>
				</port>
			</output>
		</layer>
		<layer id="247" name="backbone.p4.1.res_m.0.res_m.0.conv2.conv.weight_int8" type="Const" version="opset1">
			<data element_type="i8" shape="32, 32, 3, 3" offset="325880" size="9216" />
			<output>
				<port id="0" precision="I8" names="backbone.p4.1.res_m.0.res_m.0.conv2.conv.weight_int8">
					<dim>32</dim>
					<dim>32</dim>
					<dim>3</dim>
					<dim>3</dim>
				</port>
			</output>
		</layer>
		<layer id="248" name="Convert_162" type="Convert" version="opset1">
			<data destination_type="f32" />
			<input>
				<port id="0" precision="I8">
					<dim>32</dim>
					<dim>32</dim>
					<dim>3</dim>
					<dim>3</dim>
				</port>
			</input>
			<output>
				<port id="1" precision="FP32">
					<dim>32</dim>
					<dim>32</dim>
					<dim>3</dim>
					<dim>3</dim>
				</port>
			</output>
		</layer>
		<layer id="249" name="Reshape_161" type="Const" version="opset1">
			<data element_type="f32" shape="32, 1, 1, 1" offset="335096" size="128" />
			<output>
				<port id="0" precision="FP32">
					<dim>32</dim>
					<dim>1</dim>
					<dim>1</dim>
					<dim>1</dim>
				</port>
			</output>
		</layer>
		<layer id="250" name="/backbone/p4/p4.1/res_m.0/res_m/res_m.0/conv2/weight_fake_quant/DequantizeLinear" type="Multiply" version="opset1">
			<data auto_broadcast="numpy" />
			<input>
				<port id="0" precision="FP32">
					<dim>32</dim>
					<dim>32</dim>
					<dim>3</dim>
					<dim>3</dim>
				</port>
				<port id="1" precision="FP32">
					<dim>32</dim>
					<dim>1</dim>
					<dim>1</dim>
					<dim>1</dim>
				</port>
			</input>
			<output>
				<port id="2" precision="FP32" names="/backbone/p4/p4.1/res_m.0/res_m/res_m.0/conv2/weight_fake_quant/DequantizeLinear_output_0">
					<dim>32</dim>
					<dim>32</dim>
					<dim>3</dim>
					<dim>3</dim>
				</port>
			</output>
		</layer>
		<layer id="251" name="Reshape_23833" type="Const" version="opset1">
			<data element_type="f32" shape="32, 1, 1, 1" offset="335224" size="128" />
			<output>
				<port id="0" precision="FP32">
					<dim>32</dim>
					<dim>1</dim>
					<dim>1</dim>
					<dim>1</dim>
				</port>
			</output>
		</layer>
		<layer id="252" name="Multiply_23834" type="Multiply" version="opset1">
			<data auto_broadcast="numpy" />
			<input>
				<port id="0" precision="FP32">
					<dim>32</dim>
					<dim>32</dim>
					<dim>3</dim>
					<dim>3</dim>
				</port>
				<port id="1" precision="FP32">
					<dim>32</dim>
					<dim>1</dim>
					<dim>1</dim>
					<dim>1</dim>
				</port>
			</input>
			<output>
				<port id="2" precision="FP32">
					<dim>32</dim>
					<dim>32</dim>
					<dim>3</dim>
					<dim>3</dim>
				</port>
			</output>
		</layer>
		<layer id="253" name="Multiply_23205" type="Convolution" version="opset1">
			<data strides="1, 1" dilations="1, 1" pads_begin="1, 1" pads_end="1, 1" auto_pad="explicit" />
			<input>
				<port id="0" precision="FP32">
					<dim>16</dim>
					<dim>32</dim>
					<dim>40</dim>
					<dim>40</dim>
				</port>
				<port id="1" precision="FP32">
					<dim>32</dim>
					<dim>32</dim>
					<dim>3</dim>
					<dim>3</dim>
				</port>
			</input>
			<output>
				<port id="2" precision="FP32">
					<dim>16</dim>
					<dim>32</dim>
					<dim>40</dim>
					<dim>40</dim>
				</port>
			</output>
		</layer>
		<layer id="254" name="Constant_23210" type="Const" version="opset1">
			<data element_type="f32" shape="1, 32, 1, 1" offset="335352" size="128" />
			<output>
				<port id="0" precision="FP32">
					<dim>1</dim>
					<dim>32</dim>
					<dim>1</dim>
					<dim>1</dim>
				</port>
			</output>
		</layer>
		<layer id="255" name="/backbone/p4/p4.1/res_m.0/res_m/res_m.0/conv2/norm/BatchNormalization" type="Add" version="opset1">
			<data auto_broadcast="numpy" />
			<input>
				<port id="0" precision="FP32">
					<dim>16</dim>
					<dim>32</dim>
					<dim>40</dim>
					<dim>40</dim>
				</port>
				<port id="1" precision="FP32">
					<dim>1</dim>
					<dim>32</dim>
					<dim>1</dim>
					<dim>1</dim>
				</port>
			</input>
			<output>
				<port id="2" precision="FP32" names="/backbone/p4/p4.1/res_m.0/res_m/res_m.0/conv2/norm/BatchNormalization_output_0">
					<dim>16</dim>
					<dim>32</dim>
					<dim>40</dim>
					<dim>40</dim>
				</port>
			</output>
		</layer>
		<layer id="256" name="/backbone/p4/p4.1/res_m.0/res_m/res_m.0/conv2/relu/Mul" type="Swish" version="opset4">
			<input>
				<port id="0" precision="FP32">
					<dim>16</dim>
					<dim>32</dim>
					<dim>40</dim>
					<dim>40</dim>
				</port>
			</input>
			<output>
				<port id="1" precision="FP32" names="/backbone/p4/p4.1/res_m.0/res_m/res_m.0/conv2/relu/Mul_output_0">
					<dim>16</dim>
					<dim>32</dim>
					<dim>40</dim>
					<dim>40</dim>
				</port>
			</output>
		</layer>
		<layer id="257" name="Constant_24538" type="Const" version="opset1">
			<data element_type="f32" shape="1, 1, 1, 1" offset="335480" size="4" />
			<output>
				<port id="0" precision="FP32">
					<dim>1</dim>
					<dim>1</dim>
					<dim>1</dim>
					<dim>1</dim>
				</port>
			</output>
		</layer>
		<layer id="258" name="Constant_24539" type="Const" version="opset1">
			<data element_type="f32" shape="1, 1, 1, 1" offset="335484" size="4" />
			<output>
				<port id="0" precision="FP32">
					<dim>1</dim>
					<dim>1</dim>
					<dim>1</dim>
					<dim>1</dim>
				</port>
			</output>
		</layer>
		<layer id="259" name="Constant_24540" type="Const" version="opset1">
			<data element_type="f32" shape="1, 1, 1, 1" offset="335480" size="4" />
			<output>
				<port id="0" precision="FP32">
					<dim>1</dim>
					<dim>1</dim>
					<dim>1</dim>
					<dim>1</dim>
				</port>
			</output>
		</layer>
		<layer id="260" name="Constant_24541" type="Const" version="opset1">
			<data element_type="f32" shape="1, 1, 1, 1" offset="335484" size="4" />
			<output>
				<port id="0" precision="FP32">
					<dim>1</dim>
					<dim>1</dim>
					<dim>1</dim>
					<dim>1</dim>
				</port>
			</output>
		</layer>
		<layer id="261" name="/backbone/p4/p4.1/res_m.0/res_m/res_m.0/conv2/activation_fake_quant/DequantizeLinear" type="FakeQuantize" version="opset1">
			<data levels="256" auto_broadcast="numpy" />
			<input>
				<port id="0" precision="FP32">
					<dim>16</dim>
					<dim>32</dim>
					<dim>40</dim>
					<dim>40</dim>
				</port>
				<port id="1" precision="FP32">
					<dim>1</dim>
					<dim>1</dim>
					<dim>1</dim>
					<dim>1</dim>
				</port>
				<port id="2" precision="FP32">
					<dim>1</dim>
					<dim>1</dim>
					<dim>1</dim>
					<dim>1</dim>
				</port>
				<port id="3" precision="FP32">
					<dim>1</dim>
					<dim>1</dim>
					<dim>1</dim>
					<dim>1</dim>
				</port>
				<port id="4" precision="FP32">
					<dim>1</dim>
					<dim>1</dim>
					<dim>1</dim>
					<dim>1</dim>
				</port>
			</input>
			<output>
				<port id="5" precision="FP32" names="/backbone/p4/p4.1/res_m.0/res_m/res_m.0/conv2/activation_fake_quant/DequantizeLinear_output_0">
					<dim>16</dim>
					<dim>32</dim>
					<dim>40</dim>
					<dim>40</dim>
				</port>
			</output>
		</layer>
		<layer id="262" name="/backbone/p4/p4.1/res_m.0/res_m/res_m.0/Add" type="Add" version="opset1">
			<data auto_broadcast="numpy" />
			<input>
				<port id="0" precision="FP32">
					<dim>16</dim>
					<dim>32</dim>
					<dim>40</dim>
					<dim>40</dim>
				</port>
				<port id="1" precision="FP32">
					<dim>16</dim>
					<dim>32</dim>
					<dim>40</dim>
					<dim>40</dim>
				</port>
			</input>
			<output>
				<port id="2" precision="FP32" names="/backbone/p4/p4.1/res_m.0/res_m/res_m.0/Add_output_0">
					<dim>16</dim>
					<dim>32</dim>
					<dim>40</dim>
					<dim>40</dim>
				</port>
			</output>
		</layer>
		<layer id="263" name="backbone.p4.1.res_m.0.res_m.1.conv1.conv.weight_int8" type="Const" version="opset1">
			<data element_type="i8" shape="32, 32, 3, 3" offset="335488" size="9216" />
			<output>
				<port id="0" precision="I8" names="backbone.p4.1.res_m.0.res_m.1.conv1.conv.weight_int8">
					<dim>32</dim>
					<dim>32</dim>
					<dim>3</dim>
					<dim>3</dim>
				</port>
			</output>
		</layer>
		<layer id="264" name="Convert_172" type="Convert" version="opset1">
			<data destination_type="f32" />
			<input>
				<port id="0" precision="I8">
					<dim>32</dim>
					<dim>32</dim>
					<dim>3</dim>
					<dim>3</dim>
				</port>
			</input>
			<output>
				<port id="1" precision="FP32">
					<dim>32</dim>
					<dim>32</dim>
					<dim>3</dim>
					<dim>3</dim>
				</port>
			</output>
		</layer>
		<layer id="265" name="Reshape_171" type="Const" version="opset1">
			<data element_type="f32" shape="32, 1, 1, 1" offset="344704" size="128" />
			<output>
				<port id="0" precision="FP32">
					<dim>32</dim>
					<dim>1</dim>
					<dim>1</dim>
					<dim>1</dim>
				</port>
			</output>
		</layer>
		<layer id="266" name="/backbone/p4/p4.1/res_m.0/res_m/res_m.1/conv1/weight_fake_quant/DequantizeLinear" type="Multiply" version="opset1">
			<data auto_broadcast="numpy" />
			<input>
				<port id="0" precision="FP32">
					<dim>32</dim>
					<dim>32</dim>
					<dim>3</dim>
					<dim>3</dim>
				</port>
				<port id="1" precision="FP32">
					<dim>32</dim>
					<dim>1</dim>
					<dim>1</dim>
					<dim>1</dim>
				</port>
			</input>
			<output>
				<port id="2" precision="FP32" names="/backbone/p4/p4.1/res_m.0/res_m/res_m.1/conv1/weight_fake_quant/DequantizeLinear_output_0">
					<dim>32</dim>
					<dim>32</dim>
					<dim>3</dim>
					<dim>3</dim>
				</port>
			</output>
		</layer>
		<layer id="267" name="Reshape_23837" type="Const" version="opset1">
			<data element_type="f32" shape="32, 1, 1, 1" offset="344832" size="128" />
			<output>
				<port id="0" precision="FP32">
					<dim>32</dim>
					<dim>1</dim>
					<dim>1</dim>
					<dim>1</dim>
				</port>
			</output>
		</layer>
		<layer id="268" name="Multiply_23838" type="Multiply" version="opset1">
			<data auto_broadcast="numpy" />
			<input>
				<port id="0" precision="FP32">
					<dim>32</dim>
					<dim>32</dim>
					<dim>3</dim>
					<dim>3</dim>
				</port>
				<port id="1" precision="FP32">
					<dim>32</dim>
					<dim>1</dim>
					<dim>1</dim>
					<dim>1</dim>
				</port>
			</input>
			<output>
				<port id="2" precision="FP32">
					<dim>32</dim>
					<dim>32</dim>
					<dim>3</dim>
					<dim>3</dim>
				</port>
			</output>
		</layer>
		<layer id="269" name="Multiply_23212" type="Convolution" version="opset1">
			<data strides="1, 1" dilations="1, 1" pads_begin="1, 1" pads_end="1, 1" auto_pad="explicit" />
			<input>
				<port id="0" precision="FP32">
					<dim>16</dim>
					<dim>32</dim>
					<dim>40</dim>
					<dim>40</dim>
				</port>
				<port id="1" precision="FP32">
					<dim>32</dim>
					<dim>32</dim>
					<dim>3</dim>
					<dim>3</dim>
				</port>
			</input>
			<output>
				<port id="2" precision="FP32">
					<dim>16</dim>
					<dim>32</dim>
					<dim>40</dim>
					<dim>40</dim>
				</port>
			</output>
		</layer>
		<layer id="270" name="Constant_23217" type="Const" version="opset1">
			<data element_type="f32" shape="1, 32, 1, 1" offset="344960" size="128" />
			<output>
				<port id="0" precision="FP32">
					<dim>1</dim>
					<dim>32</dim>
					<dim>1</dim>
					<dim>1</dim>
				</port>
			</output>
		</layer>
		<layer id="271" name="/backbone/p4/p4.1/res_m.0/res_m/res_m.1/conv1/norm/BatchNormalization" type="Add" version="opset1">
			<data auto_broadcast="numpy" />
			<input>
				<port id="0" precision="FP32">
					<dim>16</dim>
					<dim>32</dim>
					<dim>40</dim>
					<dim>40</dim>
				</port>
				<port id="1" precision="FP32">
					<dim>1</dim>
					<dim>32</dim>
					<dim>1</dim>
					<dim>1</dim>
				</port>
			</input>
			<output>
				<port id="2" precision="FP32" names="/backbone/p4/p4.1/res_m.0/res_m/res_m.1/conv1/norm/BatchNormalization_output_0">
					<dim>16</dim>
					<dim>32</dim>
					<dim>40</dim>
					<dim>40</dim>
				</port>
			</output>
		</layer>
		<layer id="272" name="/backbone/p4/p4.1/res_m.0/res_m/res_m.1/conv1/relu/Mul" type="Swish" version="opset4">
			<input>
				<port id="0" precision="FP32">
					<dim>16</dim>
					<dim>32</dim>
					<dim>40</dim>
					<dim>40</dim>
				</port>
			</input>
			<output>
				<port id="1" precision="FP32" names="/backbone/p4/p4.1/res_m.0/res_m/res_m.1/conv1/relu/Mul_output_0">
					<dim>16</dim>
					<dim>32</dim>
					<dim>40</dim>
					<dim>40</dim>
				</port>
			</output>
		</layer>
		<layer id="273" name="Constant_24542" type="Const" version="opset1">
			<data element_type="f32" shape="1, 1, 1, 1" offset="345088" size="4" />
			<output>
				<port id="0" precision="FP32">
					<dim>1</dim>
					<dim>1</dim>
					<dim>1</dim>
					<dim>1</dim>
				</port>
			</output>
		</layer>
		<layer id="274" name="Constant_24543" type="Const" version="opset1">
			<data element_type="f32" shape="1, 1, 1, 1" offset="345092" size="4" />
			<output>
				<port id="0" precision="FP32">
					<dim>1</dim>
					<dim>1</dim>
					<dim>1</dim>
					<dim>1</dim>
				</port>
			</output>
		</layer>
		<layer id="275" name="Constant_24544" type="Const" version="opset1">
			<data element_type="f32" shape="1, 1, 1, 1" offset="345088" size="4" />
			<output>
				<port id="0" precision="FP32">
					<dim>1</dim>
					<dim>1</dim>
					<dim>1</dim>
					<dim>1</dim>
				</port>
			</output>
		</layer>
		<layer id="276" name="Constant_24545" type="Const" version="opset1">
			<data element_type="f32" shape="1, 1, 1, 1" offset="345092" size="4" />
			<output>
				<port id="0" precision="FP32">
					<dim>1</dim>
					<dim>1</dim>
					<dim>1</dim>
					<dim>1</dim>
				</port>
			</output>
		</layer>
		<layer id="277" name="/backbone/p4/p4.1/res_m.0/res_m/res_m.1/conv1/activation_fake_quant/DequantizeLinear" type="FakeQuantize" version="opset1">
			<data levels="256" auto_broadcast="numpy" />
			<input>
				<port id="0" precision="FP32">
					<dim>16</dim>
					<dim>32</dim>
					<dim>40</dim>
					<dim>40</dim>
				</port>
				<port id="1" precision="FP32">
					<dim>1</dim>
					<dim>1</dim>
					<dim>1</dim>
					<dim>1</dim>
				</port>
				<port id="2" precision="FP32">
					<dim>1</dim>
					<dim>1</dim>
					<dim>1</dim>
					<dim>1</dim>
				</port>
				<port id="3" precision="FP32">
					<dim>1</dim>
					<dim>1</dim>
					<dim>1</dim>
					<dim>1</dim>
				</port>
				<port id="4" precision="FP32">
					<dim>1</dim>
					<dim>1</dim>
					<dim>1</dim>
					<dim>1</dim>
				</port>
			</input>
			<output>
				<port id="5" precision="FP32" names="/backbone/p4/p4.1/res_m.0/res_m/res_m.1/conv1/activation_fake_quant/DequantizeLinear_output_0">
					<dim>16</dim>
					<dim>32</dim>
					<dim>40</dim>
					<dim>40</dim>
				</port>
			</output>
		</layer>
		<layer id="278" name="backbone.p4.1.res_m.0.res_m.1.conv2.conv.weight_int8" type="Const" version="opset1">
			<data element_type="i8" shape="32, 32, 3, 3" offset="345096" size="9216" />
			<output>
				<port id="0" precision="I8" names="backbone.p4.1.res_m.0.res_m.1.conv2.conv.weight_int8">
					<dim>32</dim>
					<dim>32</dim>
					<dim>3</dim>
					<dim>3</dim>
				</port>
			</output>
		</layer>
		<layer id="279" name="Convert_182" type="Convert" version="opset1">
			<data destination_type="f32" />
			<input>
				<port id="0" precision="I8">
					<dim>32</dim>
					<dim>32</dim>
					<dim>3</dim>
					<dim>3</dim>
				</port>
			</input>
			<output>
				<port id="1" precision="FP32">
					<dim>32</dim>
					<dim>32</dim>
					<dim>3</dim>
					<dim>3</dim>
				</port>
			</output>
		</layer>
		<layer id="280" name="Reshape_181" type="Const" version="opset1">
			<data element_type="f32" shape="32, 1, 1, 1" offset="354312" size="128" />
			<output>
				<port id="0" precision="FP32">
					<dim>32</dim>
					<dim>1</dim>
					<dim>1</dim>
					<dim>1</dim>
				</port>
			</output>
		</layer>
		<layer id="281" name="/backbone/p4/p4.1/res_m.0/res_m/res_m.1/conv2/weight_fake_quant/DequantizeLinear" type="Multiply" version="opset1">
			<data auto_broadcast="numpy" />
			<input>
				<port id="0" precision="FP32">
					<dim>32</dim>
					<dim>32</dim>
					<dim>3</dim>
					<dim>3</dim>
				</port>
				<port id="1" precision="FP32">
					<dim>32</dim>
					<dim>1</dim>
					<dim>1</dim>
					<dim>1</dim>
				</port>
			</input>
			<output>
				<port id="2" precision="FP32" names="/backbone/p4/p4.1/res_m.0/res_m/res_m.1/conv2/weight_fake_quant/DequantizeLinear_output_0">
					<dim>32</dim>
					<dim>32</dim>
					<dim>3</dim>
					<dim>3</dim>
				</port>
			</output>
		</layer>
		<layer id="282" name="Reshape_23841" type="Const" version="opset1">
			<data element_type="f32" shape="32, 1, 1, 1" offset="354440" size="128" />
			<output>
				<port id="0" precision="FP32">
					<dim>32</dim>
					<dim>1</dim>
					<dim>1</dim>
					<dim>1</dim>
				</port>
			</output>
		</layer>
		<layer id="283" name="Multiply_23842" type="Multiply" version="opset1">
			<data auto_broadcast="numpy" />
			<input>
				<port id="0" precision="FP32">
					<dim>32</dim>
					<dim>32</dim>
					<dim>3</dim>
					<dim>3</dim>
				</port>
				<port id="1" precision="FP32">
					<dim>32</dim>
					<dim>1</dim>
					<dim>1</dim>
					<dim>1</dim>
				</port>
			</input>
			<output>
				<port id="2" precision="FP32">
					<dim>32</dim>
					<dim>32</dim>
					<dim>3</dim>
					<dim>3</dim>
				</port>
			</output>
		</layer>
		<layer id="284" name="Multiply_23219" type="Convolution" version="opset1">
			<data strides="1, 1" dilations="1, 1" pads_begin="1, 1" pads_end="1, 1" auto_pad="explicit" />
			<input>
				<port id="0" precision="FP32">
					<dim>16</dim>
					<dim>32</dim>
					<dim>40</dim>
					<dim>40</dim>
				</port>
				<port id="1" precision="FP32">
					<dim>32</dim>
					<dim>32</dim>
					<dim>3</dim>
					<dim>3</dim>
				</port>
			</input>
			<output>
				<port id="2" precision="FP32">
					<dim>16</dim>
					<dim>32</dim>
					<dim>40</dim>
					<dim>40</dim>
				</port>
			</output>
		</layer>
		<layer id="285" name="Constant_23224" type="Const" version="opset1">
			<data element_type="f32" shape="1, 32, 1, 1" offset="354568" size="128" />
			<output>
				<port id="0" precision="FP32">
					<dim>1</dim>
					<dim>32</dim>
					<dim>1</dim>
					<dim>1</dim>
				</port>
			</output>
		</layer>
		<layer id="286" name="/backbone/p4/p4.1/res_m.0/res_m/res_m.1/conv2/norm/BatchNormalization" type="Add" version="opset1">
			<data auto_broadcast="numpy" />
			<input>
				<port id="0" precision="FP32">
					<dim>16</dim>
					<dim>32</dim>
					<dim>40</dim>
					<dim>40</dim>
				</port>
				<port id="1" precision="FP32">
					<dim>1</dim>
					<dim>32</dim>
					<dim>1</dim>
					<dim>1</dim>
				</port>
			</input>
			<output>
				<port id="2" precision="FP32" names="/backbone/p4/p4.1/res_m.0/res_m/res_m.1/conv2/norm/BatchNormalization_output_0">
					<dim>16</dim>
					<dim>32</dim>
					<dim>40</dim>
					<dim>40</dim>
				</port>
			</output>
		</layer>
		<layer id="287" name="/backbone/p4/p4.1/res_m.0/res_m/res_m.1/conv2/relu/Mul" type="Swish" version="opset4">
			<input>
				<port id="0" precision="FP32">
					<dim>16</dim>
					<dim>32</dim>
					<dim>40</dim>
					<dim>40</dim>
				</port>
			</input>
			<output>
				<port id="1" precision="FP32" names="/backbone/p4/p4.1/res_m.0/res_m/res_m.1/conv2/relu/Mul_output_0">
					<dim>16</dim>
					<dim>32</dim>
					<dim>40</dim>
					<dim>40</dim>
				</port>
			</output>
		</layer>
		<layer id="288" name="Constant_24546" type="Const" version="opset1">
			<data element_type="f32" shape="1, 1, 1, 1" offset="354696" size="4" />
			<output>
				<port id="0" precision="FP32">
					<dim>1</dim>
					<dim>1</dim>
					<dim>1</dim>
					<dim>1</dim>
				</port>
			</output>
		</layer>
		<layer id="289" name="Constant_24547" type="Const" version="opset1">
			<data element_type="f32" shape="1, 1, 1, 1" offset="354700" size="4" />
			<output>
				<port id="0" precision="FP32">
					<dim>1</dim>
					<dim>1</dim>
					<dim>1</dim>
					<dim>1</dim>
				</port>
			</output>
		</layer>
		<layer id="290" name="Constant_24548" type="Const" version="opset1">
			<data element_type="f32" shape="1, 1, 1, 1" offset="354696" size="4" />
			<output>
				<port id="0" precision="FP32">
					<dim>1</dim>
					<dim>1</dim>
					<dim>1</dim>
					<dim>1</dim>
				</port>
			</output>
		</layer>
		<layer id="291" name="Constant_24549" type="Const" version="opset1">
			<data element_type="f32" shape="1, 1, 1, 1" offset="354700" size="4" />
			<output>
				<port id="0" precision="FP32">
					<dim>1</dim>
					<dim>1</dim>
					<dim>1</dim>
					<dim>1</dim>
				</port>
			</output>
		</layer>
		<layer id="292" name="/backbone/p4/p4.1/res_m.0/res_m/res_m.1/conv2/activation_fake_quant/DequantizeLinear" type="FakeQuantize" version="opset1">
			<data levels="256" auto_broadcast="numpy" />
			<input>
				<port id="0" precision="FP32">
					<dim>16</dim>
					<dim>32</dim>
					<dim>40</dim>
					<dim>40</dim>
				</port>
				<port id="1" precision="FP32">
					<dim>1</dim>
					<dim>1</dim>
					<dim>1</dim>
					<dim>1</dim>
				</port>
				<port id="2" precision="FP32">
					<dim>1</dim>
					<dim>1</dim>
					<dim>1</dim>
					<dim>1</dim>
				</port>
				<port id="3" precision="FP32">
					<dim>1</dim>
					<dim>1</dim>
					<dim>1</dim>
					<dim>1</dim>
				</port>
				<port id="4" precision="FP32">
					<dim>1</dim>
					<dim>1</dim>
					<dim>1</dim>
					<dim>1</dim>
				</port>
			</input>
			<output>
				<port id="5" precision="FP32" names="/backbone/p4/p4.1/res_m.0/res_m/res_m.1/conv2/activation_fake_quant/DequantizeLinear_output_0">
					<dim>16</dim>
					<dim>32</dim>
					<dim>40</dim>
					<dim>40</dim>
				</port>
			</output>
		</layer>
		<layer id="293" name="/backbone/p4/p4.1/res_m.0/res_m/res_m.1/Add" type="Add" version="opset1">
			<data auto_broadcast="numpy" />
			<input>
				<port id="0" precision="FP32">
					<dim>16</dim>
					<dim>32</dim>
					<dim>40</dim>
					<dim>40</dim>
				</port>
				<port id="1" precision="FP32">
					<dim>16</dim>
					<dim>32</dim>
					<dim>40</dim>
					<dim>40</dim>
				</port>
			</input>
			<output>
				<port id="2" precision="FP32" names="/backbone/p4/p4.1/res_m.0/res_m/res_m.1/Add_output_0">
					<dim>16</dim>
					<dim>32</dim>
					<dim>40</dim>
					<dim>40</dim>
				</port>
			</output>
		</layer>
		<layer id="294" name="backbone.p4.1.res_m.0.conv2.conv.weight_int8" type="Const" version="opset1">
			<data element_type="i8" shape="32, 64, 1, 1" offset="354704" size="2048" />
			<output>
				<port id="0" precision="I8" names="backbone.p4.1.res_m.0.conv2.conv.weight_int8">
					<dim>32</dim>
					<dim>64</dim>
					<dim>1</dim>
					<dim>1</dim>
				</port>
			</output>
		</layer>
		<layer id="295" name="Convert_192" type="Convert" version="opset1">
			<data destination_type="f32" />
			<input>
				<port id="0" precision="I8">
					<dim>32</dim>
					<dim>64</dim>
					<dim>1</dim>
					<dim>1</dim>
				</port>
			</input>
			<output>
				<port id="1" precision="FP32">
					<dim>32</dim>
					<dim>64</dim>
					<dim>1</dim>
					<dim>1</dim>
				</port>
			</output>
		</layer>
		<layer id="296" name="Reshape_191" type="Const" version="opset1">
			<data element_type="f32" shape="32, 1, 1, 1" offset="356752" size="128" />
			<output>
				<port id="0" precision="FP32">
					<dim>32</dim>
					<dim>1</dim>
					<dim>1</dim>
					<dim>1</dim>
				</port>
			</output>
		</layer>
		<layer id="297" name="/backbone/p4/p4.1/res_m.0/conv2/weight_fake_quant/DequantizeLinear" type="Multiply" version="opset1">
			<data auto_broadcast="numpy" />
			<input>
				<port id="0" precision="FP32">
					<dim>32</dim>
					<dim>64</dim>
					<dim>1</dim>
					<dim>1</dim>
				</port>
				<port id="1" precision="FP32">
					<dim>32</dim>
					<dim>1</dim>
					<dim>1</dim>
					<dim>1</dim>
				</port>
			</input>
			<output>
				<port id="2" precision="FP32" names="/backbone/p4/p4.1/res_m.0/conv2/weight_fake_quant/DequantizeLinear_output_0">
					<dim>32</dim>
					<dim>64</dim>
					<dim>1</dim>
					<dim>1</dim>
				</port>
			</output>
		</layer>
		<layer id="298" name="Reshape_23845" type="Const" version="opset1">
			<data element_type="f32" shape="32, 1, 1, 1" offset="356880" size="128" />
			<output>
				<port id="0" precision="FP32">
					<dim>32</dim>
					<dim>1</dim>
					<dim>1</dim>
					<dim>1</dim>
				</port>
			</output>
		</layer>
		<layer id="299" name="Multiply_23846" type="Multiply" version="opset1">
			<data auto_broadcast="numpy" />
			<input>
				<port id="0" precision="FP32">
					<dim>32</dim>
					<dim>64</dim>
					<dim>1</dim>
					<dim>1</dim>
				</port>
				<port id="1" precision="FP32">
					<dim>32</dim>
					<dim>1</dim>
					<dim>1</dim>
					<dim>1</dim>
				</port>
			</input>
			<output>
				<port id="2" precision="FP32">
					<dim>32</dim>
					<dim>64</dim>
					<dim>1</dim>
					<dim>1</dim>
				</port>
			</output>
		</layer>
		<layer id="300" name="Multiply_23226" type="Convolution" version="opset1">
			<data strides="1, 1" dilations="1, 1" pads_begin="0, 0" pads_end="0, 0" auto_pad="explicit" />
			<input>
				<port id="0" precision="FP32">
					<dim>16</dim>
					<dim>64</dim>
					<dim>40</dim>
					<dim>40</dim>
				</port>
				<port id="1" precision="FP32">
					<dim>32</dim>
					<dim>64</dim>
					<dim>1</dim>
					<dim>1</dim>
				</port>
			</input>
			<output>
				<port id="2" precision="FP32">
					<dim>16</dim>
					<dim>32</dim>
					<dim>40</dim>
					<dim>40</dim>
				</port>
			</output>
		</layer>
		<layer id="301" name="Constant_23231" type="Const" version="opset1">
			<data element_type="f32" shape="1, 32, 1, 1" offset="357008" size="128" />
			<output>
				<port id="0" precision="FP32">
					<dim>1</dim>
					<dim>32</dim>
					<dim>1</dim>
					<dim>1</dim>
				</port>
			</output>
		</layer>
		<layer id="302" name="/backbone/p4/p4.1/res_m.0/conv2/norm/BatchNormalization" type="Add" version="opset1">
			<data auto_broadcast="numpy" />
			<input>
				<port id="0" precision="FP32">
					<dim>16</dim>
					<dim>32</dim>
					<dim>40</dim>
					<dim>40</dim>
				</port>
				<port id="1" precision="FP32">
					<dim>1</dim>
					<dim>32</dim>
					<dim>1</dim>
					<dim>1</dim>
				</port>
			</input>
			<output>
				<port id="2" precision="FP32" names="/backbone/p4/p4.1/res_m.0/conv2/norm/BatchNormalization_output_0">
					<dim>16</dim>
					<dim>32</dim>
					<dim>40</dim>
					<dim>40</dim>
				</port>
			</output>
		</layer>
		<layer id="303" name="/backbone/p4/p4.1/res_m.0/conv2/relu/Mul" type="Swish" version="opset4">
			<input>
				<port id="0" precision="FP32">
					<dim>16</dim>
					<dim>32</dim>
					<dim>40</dim>
					<dim>40</dim>
				</port>
			</input>
			<output>
				<port id="1" precision="FP32" names="/backbone/p4/p4.1/res_m.0/conv2/relu/Mul_output_0">
					<dim>16</dim>
					<dim>32</dim>
					<dim>40</dim>
					<dim>40</dim>
				</port>
			</output>
		</layer>
		<layer id="304" name="Constant_24550" type="Const" version="opset1">
			<data element_type="f32" shape="1, 1, 1, 1" offset="357136" size="4" />
			<output>
				<port id="0" precision="FP32">
					<dim>1</dim>
					<dim>1</dim>
					<dim>1</dim>
					<dim>1</dim>
				</port>
			</output>
		</layer>
		<layer id="305" name="Constant_24551" type="Const" version="opset1">
			<data element_type="f32" shape="1, 1, 1, 1" offset="357140" size="4" />
			<output>
				<port id="0" precision="FP32">
					<dim>1</dim>
					<dim>1</dim>
					<dim>1</dim>
					<dim>1</dim>
				</port>
			</output>
		</layer>
		<layer id="306" name="Constant_24552" type="Const" version="opset1">
			<data element_type="f32" shape="1, 1, 1, 1" offset="357136" size="4" />
			<output>
				<port id="0" precision="FP32">
					<dim>1</dim>
					<dim>1</dim>
					<dim>1</dim>
					<dim>1</dim>
				</port>
			</output>
		</layer>
		<layer id="307" name="Constant_24553" type="Const" version="opset1">
			<data element_type="f32" shape="1, 1, 1, 1" offset="357140" size="4" />
			<output>
				<port id="0" precision="FP32">
					<dim>1</dim>
					<dim>1</dim>
					<dim>1</dim>
					<dim>1</dim>
				</port>
			</output>
		</layer>
		<layer id="308" name="/backbone/p4/p4.1/res_m.0/conv2/activation_fake_quant/DequantizeLinear" type="FakeQuantize" version="opset1">
			<data levels="256" auto_broadcast="numpy" />
			<input>
				<port id="0" precision="FP32">
					<dim>16</dim>
					<dim>32</dim>
					<dim>40</dim>
					<dim>40</dim>
				</port>
				<port id="1" precision="FP32">
					<dim>1</dim>
					<dim>1</dim>
					<dim>1</dim>
					<dim>1</dim>
				</port>
				<port id="2" precision="FP32">
					<dim>1</dim>
					<dim>1</dim>
					<dim>1</dim>
					<dim>1</dim>
				</port>
				<port id="3" precision="FP32">
					<dim>1</dim>
					<dim>1</dim>
					<dim>1</dim>
					<dim>1</dim>
				</port>
				<port id="4" precision="FP32">
					<dim>1</dim>
					<dim>1</dim>
					<dim>1</dim>
					<dim>1</dim>
				</port>
			</input>
			<output>
				<port id="5" precision="FP32" names="/backbone/p4/p4.1/res_m.0/conv2/activation_fake_quant/DequantizeLinear_output_0">
					<dim>16</dim>
					<dim>32</dim>
					<dim>40</dim>
					<dim>40</dim>
				</port>
			</output>
		</layer>
		<layer id="309" name="/backbone/p4/p4.1/res_m.0/Concat" type="Concat" version="opset1">
			<data axis="1" />
			<input>
				<port id="0" precision="FP32">
					<dim>16</dim>
					<dim>32</dim>
					<dim>40</dim>
					<dim>40</dim>
				</port>
				<port id="1" precision="FP32">
					<dim>16</dim>
					<dim>32</dim>
					<dim>40</dim>
					<dim>40</dim>
				</port>
			</input>
			<output>
				<port id="2" precision="FP32" names="/backbone/p4/p4.1/res_m.0/Concat_output_0">
					<dim>16</dim>
					<dim>64</dim>
					<dim>40</dim>
					<dim>40</dim>
				</port>
			</output>
		</layer>
		<layer id="310" name="backbone.p4.1.res_m.0.conv3.conv.weight_int8" type="Const" version="opset1">
			<data element_type="i8" shape="64, 64, 1, 1" offset="357144" size="4096" />
			<output>
				<port id="0" precision="I8" names="backbone.p4.1.res_m.0.conv3.conv.weight_int8">
					<dim>64</dim>
					<dim>64</dim>
					<dim>1</dim>
					<dim>1</dim>
				</port>
			</output>
		</layer>
		<layer id="311" name="Convert_202" type="Convert" version="opset1">
			<data destination_type="f32" />
			<input>
				<port id="0" precision="I8">
					<dim>64</dim>
					<dim>64</dim>
					<dim>1</dim>
					<dim>1</dim>
				</port>
			</input>
			<output>
				<port id="1" precision="FP32">
					<dim>64</dim>
					<dim>64</dim>
					<dim>1</dim>
					<dim>1</dim>
				</port>
			</output>
		</layer>
		<layer id="312" name="Reshape_201" type="Const" version="opset1">
			<data element_type="f32" shape="64, 1, 1, 1" offset="361240" size="256" />
			<output>
				<port id="0" precision="FP32">
					<dim>64</dim>
					<dim>1</dim>
					<dim>1</dim>
					<dim>1</dim>
				</port>
			</output>
		</layer>
		<layer id="313" name="/backbone/p4/p4.1/res_m.0/conv3/weight_fake_quant/DequantizeLinear" type="Multiply" version="opset1">
			<data auto_broadcast="numpy" />
			<input>
				<port id="0" precision="FP32">
					<dim>64</dim>
					<dim>64</dim>
					<dim>1</dim>
					<dim>1</dim>
				</port>
				<port id="1" precision="FP32">
					<dim>64</dim>
					<dim>1</dim>
					<dim>1</dim>
					<dim>1</dim>
				</port>
			</input>
			<output>
				<port id="2" precision="FP32" names="/backbone/p4/p4.1/res_m.0/conv3/weight_fake_quant/DequantizeLinear_output_0">
					<dim>64</dim>
					<dim>64</dim>
					<dim>1</dim>
					<dim>1</dim>
				</port>
			</output>
		</layer>
		<layer id="314" name="Reshape_23849" type="Const" version="opset1">
			<data element_type="f32" shape="64, 1, 1, 1" offset="361496" size="256" />
			<output>
				<port id="0" precision="FP32">
					<dim>64</dim>
					<dim>1</dim>
					<dim>1</dim>
					<dim>1</dim>
				</port>
			</output>
		</layer>
		<layer id="315" name="Multiply_23850" type="Multiply" version="opset1">
			<data auto_broadcast="numpy" />
			<input>
				<port id="0" precision="FP32">
					<dim>64</dim>
					<dim>64</dim>
					<dim>1</dim>
					<dim>1</dim>
				</port>
				<port id="1" precision="FP32">
					<dim>64</dim>
					<dim>1</dim>
					<dim>1</dim>
					<dim>1</dim>
				</port>
			</input>
			<output>
				<port id="2" precision="FP32">
					<dim>64</dim>
					<dim>64</dim>
					<dim>1</dim>
					<dim>1</dim>
				</port>
			</output>
		</layer>
		<layer id="316" name="Multiply_23233" type="Convolution" version="opset1">
			<data strides="1, 1" dilations="1, 1" pads_begin="0, 0" pads_end="0, 0" auto_pad="explicit" />
			<input>
				<port id="0" precision="FP32">
					<dim>16</dim>
					<dim>64</dim>
					<dim>40</dim>
					<dim>40</dim>
				</port>
				<port id="1" precision="FP32">
					<dim>64</dim>
					<dim>64</dim>
					<dim>1</dim>
					<dim>1</dim>
				</port>
			</input>
			<output>
				<port id="2" precision="FP32">
					<dim>16</dim>
					<dim>64</dim>
					<dim>40</dim>
					<dim>40</dim>
				</port>
			</output>
		</layer>
		<layer id="317" name="Constant_23238" type="Const" version="opset1">
			<data element_type="f32" shape="1, 64, 1, 1" offset="361752" size="256" />
			<output>
				<port id="0" precision="FP32">
					<dim>1</dim>
					<dim>64</dim>
					<dim>1</dim>
					<dim>1</dim>
				</port>
			</output>
		</layer>
		<layer id="318" name="/backbone/p4/p4.1/res_m.0/conv3/norm/BatchNormalization" type="Add" version="opset1">
			<data auto_broadcast="numpy" />
			<input>
				<port id="0" precision="FP32">
					<dim>16</dim>
					<dim>64</dim>
					<dim>40</dim>
					<dim>40</dim>
				</port>
				<port id="1" precision="FP32">
					<dim>1</dim>
					<dim>64</dim>
					<dim>1</dim>
					<dim>1</dim>
				</port>
			</input>
			<output>
				<port id="2" precision="FP32" names="/backbone/p4/p4.1/res_m.0/conv3/norm/BatchNormalization_output_0">
					<dim>16</dim>
					<dim>64</dim>
					<dim>40</dim>
					<dim>40</dim>
				</port>
			</output>
		</layer>
		<layer id="319" name="/backbone/p4/p4.1/res_m.0/conv3/relu/Mul" type="Swish" version="opset4">
			<input>
				<port id="0" precision="FP32">
					<dim>16</dim>
					<dim>64</dim>
					<dim>40</dim>
					<dim>40</dim>
				</port>
			</input>
			<output>
				<port id="1" precision="FP32" names="/backbone/p4/p4.1/res_m.0/conv3/relu/Mul_output_0">
					<dim>16</dim>
					<dim>64</dim>
					<dim>40</dim>
					<dim>40</dim>
				</port>
			</output>
		</layer>
		<layer id="320" name="Constant_24554" type="Const" version="opset1">
			<data element_type="f32" shape="1, 1, 1, 1" offset="362008" size="4" />
			<output>
				<port id="0" precision="FP32">
					<dim>1</dim>
					<dim>1</dim>
					<dim>1</dim>
					<dim>1</dim>
				</port>
			</output>
		</layer>
		<layer id="321" name="Constant_24555" type="Const" version="opset1">
			<data element_type="f32" shape="1, 1, 1, 1" offset="362012" size="4" />
			<output>
				<port id="0" precision="FP32">
					<dim>1</dim>
					<dim>1</dim>
					<dim>1</dim>
					<dim>1</dim>
				</port>
			</output>
		</layer>
		<layer id="322" name="Constant_24556" type="Const" version="opset1">
			<data element_type="f32" shape="1, 1, 1, 1" offset="362008" size="4" />
			<output>
				<port id="0" precision="FP32">
					<dim>1</dim>
					<dim>1</dim>
					<dim>1</dim>
					<dim>1</dim>
				</port>
			</output>
		</layer>
		<layer id="323" name="Constant_24557" type="Const" version="opset1">
			<data element_type="f32" shape="1, 1, 1, 1" offset="362012" size="4" />
			<output>
				<port id="0" precision="FP32">
					<dim>1</dim>
					<dim>1</dim>
					<dim>1</dim>
					<dim>1</dim>
				</port>
			</output>
		</layer>
		<layer id="324" name="/backbone/p4/p4.1/res_m.0/conv3/activation_fake_quant/DequantizeLinear" type="FakeQuantize" version="opset1">
			<data levels="256" auto_broadcast="numpy" />
			<input>
				<port id="0" precision="FP32">
					<dim>16</dim>
					<dim>64</dim>
					<dim>40</dim>
					<dim>40</dim>
				</port>
				<port id="1" precision="FP32">
					<dim>1</dim>
					<dim>1</dim>
					<dim>1</dim>
					<dim>1</dim>
				</port>
				<port id="2" precision="FP32">
					<dim>1</dim>
					<dim>1</dim>
					<dim>1</dim>
					<dim>1</dim>
				</port>
				<port id="3" precision="FP32">
					<dim>1</dim>
					<dim>1</dim>
					<dim>1</dim>
					<dim>1</dim>
				</port>
				<port id="4" precision="FP32">
					<dim>1</dim>
					<dim>1</dim>
					<dim>1</dim>
					<dim>1</dim>
				</port>
			</input>
			<output>
				<port id="5" precision="FP32" names="/backbone/p4/p4.1/res_m.0/conv3/activation_fake_quant/DequantizeLinear_output_0">
					<dim>16</dim>
					<dim>64</dim>
					<dim>40</dim>
					<dim>40</dim>
				</port>
			</output>
		</layer>
		<layer id="325" name="/backbone/p4/p4.1/Concat" type="Concat" version="opset1">
			<data axis="1" />
			<input>
				<port id="0" precision="FP32">
					<dim>16</dim>
					<dim>64</dim>
					<dim>40</dim>
					<dim>40</dim>
				</port>
				<port id="1" precision="FP32">
					<dim>16</dim>
					<dim>64</dim>
					<dim>40</dim>
					<dim>40</dim>
				</port>
				<port id="2" precision="FP32">
					<dim>16</dim>
					<dim>64</dim>
					<dim>40</dim>
					<dim>40</dim>
				</port>
			</input>
			<output>
				<port id="3" precision="FP32" names="/backbone/p4/p4.1/Concat_output_0">
					<dim>16</dim>
					<dim>192</dim>
					<dim>40</dim>
					<dim>40</dim>
				</port>
			</output>
		</layer>
		<layer id="326" name="backbone.p4.1.conv2.conv.weight_int8" type="Const" version="opset1">
			<data element_type="i8" shape="128, 192, 1, 1" offset="362016" size="24576" />
			<output>
				<port id="0" precision="I8" names="backbone.p4.1.conv2.conv.weight_int8">
					<dim>128</dim>
					<dim>192</dim>
					<dim>1</dim>
					<dim>1</dim>
				</port>
			</output>
		</layer>
		<layer id="327" name="Convert_212" type="Convert" version="opset1">
			<data destination_type="f32" />
			<input>
				<port id="0" precision="I8">
					<dim>128</dim>
					<dim>192</dim>
					<dim>1</dim>
					<dim>1</dim>
…
		<edge from-layer="991" from-port="0" to-layer="993" to-port="3" />
		<edge from-layer="992" from-port="0" to-layer="993" to-port="4" />
		<edge from-layer="993" from-port="5" to-layer="994" to-port="0" />
		<edge from-layer="994" from-port="2" to-layer="1001" to-port="0" />
		<edge from-layer="995" from-port="0" to-layer="996" to-port="0" />
		<edge from-layer="996" from-port="1" to-layer="998" to-port="0" />
		<edge from-layer="997" from-port="0" to-layer="998" to-port="1" />
		<edge from-layer="998" from-port="2" to-layer="1000" to-port="0" />
		<edge from-layer="999" from-port="0" to-layer="1000" to-port="1" />
		<edge from-layer="1000" from-port="2" to-layer="1001" to-port="1" />
		<edge from-layer="1001" from-port="2" to-layer="1003" to-port="0" />
		<edge from-layer="1002" from-port="0" to-layer="1003" to-port="1" />
		<edge from-layer="1003" from-port="2" to-layer="1004" to-port="0" />
		<edge from-layer="1004" from-port="1" to-layer="1009" to-port="0" />
		<edge from-layer="1005" from-port="0" to-layer="1009" to-port="1" />
		<edge from-layer="1006" from-port="0" to-layer="1009" to-port="2" />
		<edge from-layer="1007" from-port="0" to-layer="1009" to-port="3" />
		<edge from-layer="1008" from-port="0" to-layer="1009" to-port="4" />
		<edge from-layer="1009" from-port="5" to-layer="1010" to-port="0" />
		<edge from-layer="1009" from-port="5" to-layer="1011" to-port="0" />
		<edge from-layer="1010" from-port="5" to-layer="1120" to-port="0" />
		<edge from-layer="1011" from-port="5" to-layer="1095" to-port="0" />
		<edge from-layer="1011" from-port="5" to-layer="1120" to-port="1" />
		<edge from-layer="1011" from-port="5" to-layer="1018" to-port="0" />
		<edge from-layer="1012" from-port="0" to-layer="1013" to-port="0" />
		<edge from-layer="1013" from-port="1" to-layer="1015" to-port="0" />
		<edge from-layer="1014" from-port="0" to-layer="1015" to-port="1" />
		<edge from-layer="1015" from-port="2" to-layer="1017" to-port="0" />
		<edge from-layer="1016" from-port="0" to-layer="1017" to-port="1" />
		<edge from-layer="1017" from-port="2" to-layer="1018" to-port="1" />
		<edge from-layer="1018" from-port="2" to-layer="1020" to-port="0" />
		<edge from-layer="1019" from-port="0" to-layer="1020" to-port="1" />
		<edge from-layer="1020" from-port="2" to-layer="1021" to-port="0" />
		<edge from-layer="1021" from-port="1" to-layer="1026" to-port="0" />
		<edge from-layer="1022" from-port="0" to-layer="1026" to-port="1" />
		<edge from-layer="1023" from-port="0" to-layer="1026" to-port="2" />
		<edge from-layer="1024" from-port="0" to-layer="1026" to-port="3" />
		<edge from-layer="1025" from-port="0" to-layer="1026" to-port="4" />
		<edge from-layer="1026" from-port="5" to-layer="1057" to-port="0" />
		<edge from-layer="1026" from-port="5" to-layer="1033" to-port="0" />
		<edge from-layer="1027" from-port="0" to-layer="1028" to-port="0" />
		<edge from-layer="1028" from-port="1" to-layer="1030" to-port="0" />
		<edge from-layer="1029" from-port="0" to-layer="1030" to-port="1" />
		<edge from-layer="1030" from-port="2" to-layer="1032" to-port="0" />
		<edge from-layer="1031" from-port="0" to-layer="1032" to-port="1" />
		<edge from-layer="1032" from-port="2" to-layer="1033" to-port="1" />
		<edge from-layer="1033" from-port="2" to-layer="1035" to-port="0" />
		<edge from-layer="1034" from-port="0" to-layer="1035" to-port="1" />
		<edge from-layer="1035" from-port="2" to-layer="1036" to-port="0" />
		<edge from-layer="1036" from-port="1" to-layer="1041" to-port="0" />
		<edge from-layer="1037" from-port="0" to-layer="1041" to-port="1" />
		<edge from-layer="1038" from-port="0" to-layer="1041" to-port="2" />
		<edge from-layer="1039" from-port="0" to-layer="1041" to-port="3" />
		<edge from-layer="1040" from-port="0" to-layer="1041" to-port="4" />
		<edge from-layer="1041" from-port="5" to-layer="1048" to-port="0" />
		<edge from-layer="1042" from-port="0" to-layer="1043" to-port="0" />
		<edge from-layer="1043" from-port="1" to-layer="1045" to-port="0" />
		<edge from-layer="1044" from-port="0" to-layer="1045" to-port="1" />
		<edge from-layer="1045" from-port="2" to-layer="1047" to-port="0" />
		<edge from-layer="1046" from-port="0" to-layer="1047" to-port="1" />
		<edge from-layer="1047" from-port="2" to-layer="1048" to-port="1" />
		<edge from-layer="1048" from-port="2" to-layer="1050" to-port="0" />
		<edge from-layer="1049" from-port="0" to-layer="1050" to-port="1" />
		<edge from-layer="1050" from-port="2" to-layer="1051" to-port="0" />
		<edge from-layer="1051" from-port="1" to-layer="1056" to-port="0" />
		<edge from-layer="1052" from-port="0" to-layer="1056" to-port="1" />
		<edge from-layer="1053" from-port="0" to-layer="1056" to-port="2" />
		<edge from-layer="1054" from-port="0" to-layer="1056" to-port="3" />
		<edge from-layer="1055" from-port="0" to-layer="1056" to-port="4" />
		<edge from-layer="1056" from-port="5" to-layer="1057" to-port="1" />
		<edge from-layer="1057" from-port="2" to-layer="1064" to-port="0" />
		<edge from-layer="1057" from-port="2" to-layer="1088" to-port="0" />
		<edge from-layer="1058" from-port="0" to-layer="1059" to-port="0" />
		<edge from-layer="1059" from-port="1" to-layer="1061" to-port="0" />
		<edge from-layer="1060" from-port="0" to-layer="1061" to-port="1" />
		<edge from-layer="1061" from-port="2" to-layer="1063" to-port="0" />
		<edge from-layer="1062" from-port="0" to-layer="1063" to-port="1" />
		<edge from-layer="1063" from-port="2" to-layer="1064" to-port="1" />
		<edge from-layer="1064" from-port="2" to-layer="1066" to-port="0" />
		<edge from-layer="1065" from-port="0" to-layer="1066" to-port="1" />
		<edge from-layer="1066" from-port="2" to-layer="1067" to-port="0" />
		<edge from-layer="1067" from-port="1" to-layer="1072" to-port="0" />
		<edge from-layer="1068" from-port="0" to-layer="1072" to-port="1" />
		<edge from-layer="1069" from-port="0" to-layer="1072" to-port="2" />
		<edge from-layer="1070" from-port="0" to-layer="1072" to-port="3" />
		<edge from-layer="1071" from-port="0" to-layer="1072" to-port="4" />
		<edge from-layer="1072" from-port="5" to-layer="1079" to-port="0" />
		<edge from-layer="1073" from-port="0" to-layer="1074" to-port="0" />
		<edge from-layer="1074" from-port="1" to-layer="1076" to-port="0" />
		<edge from-layer="1075" from-port="0" to-layer="1076" to-port="1" />
		<edge from-layer="1076" from-port="2" to-layer="1078" to-port="0" />
		<edge from-layer="1077" from-port="0" to-layer="1078" to-port="1" />
		<edge from-layer="1078" from-port="2" to-layer="1079" to-port="1" />
		<edge from-layer="1079" from-port="2" to-layer="1081" to-port="0" />
		<edge from-layer="1080" from-port="0" to-layer="1081" to-port="1" />
		<edge from-layer="1081" from-port="2" to-layer="1082" to-port="0" />
		<edge from-layer="1082" from-port="1" to-layer="1087" to-port="0" />
		<edge from-layer="1083" from-port="0" to-layer="1087" to-port="1" />
		<edge from-layer="1084" from-port="0" to-layer="1087" to-port="2" />
		<edge from-layer="1085" from-port="0" to-layer="1087" to-port="3" />
		<edge from-layer="1086" from-port="0" to-layer="1087" to-port="4" />
		<edge from-layer="1087" from-port="5" to-layer="1088" to-port="1" />
		<edge from-layer="1088" from-port="2" to-layer="1104" to-port="0" />
		<edge from-layer="1089" from-port="0" to-layer="1090" to-port="0" />
		<edge from-layer="1090" from-port="1" to-layer="1092" to-port="0" />
		<edge from-layer="1091" from-port="0" to-layer="1092" to-port="1" />
		<edge from-layer="1092" from-port="2" to-layer="1094" to-port="0" />
		<edge from-layer="1093" from-port="0" to-layer="1094" to-port="1" />
		<edge from-layer="1094" from-port="2" to-layer="1095" to-port="1" />
		<edge from-layer="1095" from-port="2" to-layer="1097" to-port="0" />
		<edge from-layer="1096" from-port="0" to-layer="1097" to-port="1" />
		<edge from-layer="1097" from-port="2" to-layer="1098" to-port="0" />
		<edge from-layer="1098" from-port="1" to-layer="1103" to-port="0" />
		<edge from-layer="1099" from-port="0" to-layer="1103" to-port="1" />
		<edge from-layer="1100" from-port="0" to-layer="1103" to-port="2" />
		<edge from-layer="1101" from-port="0" to-layer="1103" to-port="3" />
		<edge from-layer="1102" from-port="0" to-layer="1103" to-port="4" />
		<edge from-layer="1103" from-port="5" to-layer="1104" to-port="1" />
		<edge from-layer="1104" from-port="2" to-layer="1111" to-port="0" />
		<edge from-layer="1105" from-port="0" to-layer="1106" to-port="0" />
		<edge from-layer="1106" from-port="1" to-layer="1108" to-port="0" />
		<edge from-layer="1107" from-port="0" to-layer="1108" to-port="1" />
		<edge from-layer="1108" from-port="2" to-layer="1110" to-port="0" />
		<edge from-layer="1109" from-port="0" to-layer="1110" to-port="1" />
		<edge from-layer="1110" from-port="2" to-layer="1111" to-port="1" />
		<edge from-layer="1111" from-port="2" to-layer="1113" to-port="0" />
		<edge from-layer="1112" from-port="0" to-layer="1113" to-port="1" />
		<edge from-layer="1113" from-port="2" to-layer="1114" to-port="0" />
		<edge from-layer="1114" from-port="1" to-layer="1119" to-port="0" />
		<edge from-layer="1115" from-port="0" to-layer="1119" to-port="1" />
		<edge from-layer="1116" from-port="0" to-layer="1119" to-port="2" />
		<edge from-layer="1117" from-port="0" to-layer="1119" to-port="3" />
		<edge from-layer="1118" from-port="0" to-layer="1119" to-port="4" />
		<edge from-layer="1119" from-port="5" to-layer="1120" to-port="2" />
		<edge from-layer="1120" from-port="3" to-layer="1127" to-port="0" />
		<edge from-layer="1121" from-port="0" to-layer="1122" to-port="0" />
		<edge from-layer="1122" from-port="1" to-layer="1124" to-port="0" />
		<edge from-layer="1123" from-port="0" to-layer="1124" to-port="1" />
		<edge from-layer="1124" from-port="2" to-layer="1126" to-port="0" />
		<edge from-layer="1125" from-port="0" to-layer="1126" to-port="1" />
		<edge from-layer="1126" from-port="2" to-layer="1127" to-port="1" />
		<edge from-layer="1127" from-port="2" to-layer="1129" to-port="0" />
		<edge from-layer="1128" from-port="0" to-layer="1129" to-port="1" />
		<edge from-layer="1129" from-port="2" to-layer="1130" to-port="0" />
		<edge from-layer="1130" from-port="1" to-layer="1135" to-port="0" />
		<edge from-layer="1131" from-port="0" to-layer="1135" to-port="1" />
		<edge from-layer="1132" from-port="0" to-layer="1135" to-port="2" />
		<edge from-layer="1133" from-port="0" to-layer="1135" to-port="3" />
		<edge from-layer="1134" from-port="0" to-layer="1135" to-port="4" />
		<edge from-layer="1135" from-port="5" to-layer="1468" to-port="0" />
		<edge from-layer="1135" from-port="5" to-layer="1178" to-port="0" />
		<edge from-layer="1135" from-port="5" to-layer="1142" to-port="0" />
		<edge from-layer="1136" from-port="0" to-layer="1137" to-port="0" />
		<edge from-layer="1137" from-port="1" to-layer="1139" to-port="0" />
		<edge from-layer="1138" from-port="0" to-layer="1139" to-port="1" />
		<edge from-layer="1139" from-port="2" to-layer="1141" to-port="0" />
		<edge from-layer="1140" from-port="0" to-layer="1141" to-port="1" />
		<edge from-layer="1141" from-port="2" to-layer="1142" to-port="1" />
		<edge from-layer="1142" from-port="2" to-layer="1144" to-port="0" />
		<edge from-layer="1143" from-port="0" to-layer="1144" to-port="1" />
		<edge from-layer="1144" from-port="2" to-layer="1145" to-port="0" />
		<edge from-layer="1145" from-port="1" to-layer="1150" to-port="0" />
		<edge from-layer="1146" from-port="0" to-layer="1150" to-port="1" />
		<edge from-layer="1147" from-port="0" to-layer="1150" to-port="2" />
		<edge from-layer="1148" from-port="0" to-layer="1150" to-port="3" />
		<edge from-layer="1149" from-port="0" to-layer="1150" to-port="4" />
		<edge from-layer="1150" from-port="5" to-layer="1157" to-port="0" />
		<edge from-layer="1151" from-port="0" to-layer="1152" to-port="0" />
		<edge from-layer="1152" from-port="1" to-layer="1154" to-port="0" />
		<edge from-layer="1153" from-port="0" to-layer="1154" to-port="1" />
		<edge from-layer="1154" from-port="2" to-layer="1156" to-port="0" />
		<edge from-layer="1155" from-port="0" to-layer="1156" to-port="1" />
		<edge from-layer="1156" from-port="2" to-layer="1157" to-port="1" />
		<edge from-layer="1157" from-port="2" to-layer="1159" to-port="0" />
		<edge from-layer="1158" from-port="0" to-layer="1159" to-port="1" />
		<edge from-layer="1159" from-port="2" to-layer="1160" to-port="0" />
		<edge from-layer="1160" from-port="1" to-layer="1165" to-port="0" />
		<edge from-layer="1161" from-port="0" to-layer="1165" to-port="1" />
		<edge from-layer="1162" from-port="0" to-layer="1165" to-port="2" />
		<edge from-layer="1163" from-port="0" to-layer="1165" to-port="3" />
		<edge from-layer="1164" from-port="0" to-layer="1165" to-port="4" />
		<edge from-layer="1165" from-port="5" to-layer="1167" to-port="0" />
		<edge from-layer="1166" from-port="0" to-layer="1167" to-port="1" />
		<edge from-layer="1167" from-port="2" to-layer="1169" to-port="0" />
		<edge from-layer="1168" from-port="0" to-layer="1169" to-port="1" />
		<edge from-layer="1169" from-port="2" to-layer="1171" to-port="0" />
		<edge from-layer="1170" from-port="0" to-layer="1171" to-port="1" />
		<edge from-layer="1171" from-port="2" to-layer="1374" to-port="1" />
		<edge from-layer="1172" from-port="0" to-layer="1173" to-port="0" />
		<edge from-layer="1173" from-port="1" to-layer="1175" to-port="0" />
		<edge from-layer="1174" from-port="0" to-layer="1175" to-port="1" />
		<edge from-layer="1175" from-port="2" to-layer="1177" to-port="0" />
		<edge from-layer="1176" from-port="0" to-layer="1177" to-port="1" />
		<edge from-layer="1177" from-port="2" to-layer="1178" to-port="1" />
		<edge from-layer="1178" from-port="2" to-layer="1180" to-port="0" />
		<edge from-layer="1179" from-port="0" to-layer="1180" to-port="1" />
		<edge from-layer="1180" from-port="2" to-layer="1181" to-port="0" />
		<edge from-layer="1181" from-port="1" to-layer="1186" to-port="0" />
		<edge from-layer="1182" from-port="0" to-layer="1186" to-port="1" />
		<edge from-layer="1183" from-port="0" to-layer="1186" to-port="2" />
		<edge from-layer="1184" from-port="0" to-layer="1186" to-port="3" />
		<edge from-layer="1185" from-port="0" to-layer="1186" to-port="4" />
		<edge from-layer="1186" from-port="5" to-layer="1187" to-port="0" />
		<edge from-layer="1187" from-port="2" to-layer="1194" to-port="0" />
		<edge from-layer="1188" from-port="0" to-layer="1189" to-port="0" />
		<edge from-layer="1189" from-port="1" to-layer="1191" to-port="0" />
		<edge from-layer="1190" from-port="0" to-layer="1191" to-port="1" />
		<edge from-layer="1191" from-port="2" to-layer="1193" to-port="0" />
		<edge from-layer="1192" from-port="0" to-layer="1193" to-port="1" />
		<edge from-layer="1193" from-port="2" to-layer="1194" to-port="1" />
		<edge from-layer="1194" from-port="2" to-layer="1196" to-port="0" />
		<edge from-layer="1195" from-port="0" to-layer="1196" to-port="1" />
		<edge from-layer="1196" from-port="2" to-layer="1197" to-port="0" />
		<edge from-layer="1197" from-port="1" to-layer="1202" to-port="0" />
		<edge from-layer="1198" from-port="0" to-layer="1202" to-port="1" />
		<edge from-layer="1199" from-port="0" to-layer="1202" to-port="2" />
		<edge from-layer="1200" from-port="0" to-layer="1202" to-port="3" />
		<edge from-layer="1201" from-port="0" to-layer="1202" to-port="4" />
		<edge from-layer="1202" from-port="5" to-layer="1203" to-port="0" />
		<edge from-layer="1202" from-port="5" to-layer="1204" to-port="0" />
		<edge from-layer="1203" from-port="5" to-layer="1322" to-port="0" />
		<edge from-layer="1204" from-port="5" to-layer="1322" to-port="1" />
		<edge from-layer="1204" from-port="5" to-layer="1235" to-port="0" />
		<edge from-layer="1204" from-port="5" to-layer="1211" to-port="0" />
		<edge from-layer="1205" from-port="0" to-layer="1206" to-port="0" />
		<edge from-layer="1206" from-port="1" to-layer="1208" to-port="0" />
		<edge from-layer="1207" from-port="0" to-layer="1208" to-port="1" />
		<edge from-layer="1208" from-port="2" to-layer="1210" to-port="0" />
		<edge from-layer="1209" from-port="0" to-layer="1210" to-port="1" />
		<edge from-layer="1210" from-port="2" to-layer="1211" to-port="1" />
		<edge from-layer="1211" from-port="2" to-layer="1213" to-port="0" />
		<edge from-layer="1212" from-port="0" to-layer="1213" to-port="1" />
		<edge from-layer="1213" from-port="2" to-layer="1214" to-port="0" />
		<edge from-layer="1214" from-port="1" to-layer="1219" to-port="0" />
		<edge from-layer="1215" from-port="0" to-layer="1219" to-port="1" />
		<edge from-layer="1216" from-port="0" to-layer="1219" to-port="2" />
		<edge from-layer="1217" from-port="0" to-layer="1219" to-port="3" />
		<edge from-layer="1218" from-port="0" to-layer="1219" to-port="4" />
		<edge from-layer="1219" from-port="5" to-layer="1226" to-port="0" />
		<edge from-layer="1220" from-port="0" to-layer="1221" to-port="0" />
		<edge from-layer="1221" from-port="1" to-layer="1223" to-port="0" />
		<edge from-layer="1222" from-port="0" to-layer="1223" to-port="1" />
		<edge from-layer="1223" from-port="2" to-layer="1225" to-port="0" />
		<edge from-layer="1224" from-port="0" to-layer="1225" to-port="1" />
		<edge from-layer="1225" from-port="2" to-layer="1226" to-port="1" />
		<edge from-layer="1226" from-port="2" to-layer="1228" to-port="0" />
		<edge from-layer="1227" from-port="0" to-layer="1228" to-port="1" />
		<edge from-layer="1228" from-port="2" to-layer="1229" to-port="0" />
		<edge from-layer="1229" from-port="1" to-layer="1234" to-port="0" />
		<edge from-layer="1230" from-port="0" to-layer="1234" to-port="1" />
		<edge from-layer="1231" from-port="0" to-layer="1234" to-port="2" />
		<edge from-layer="1232" from-port="0" to-layer="1234" to-port="3" />
		<edge from-layer="1233" from-port="0" to-layer="1234" to-port="4" />
		<edge from-layer="1234" from-port="5" to-layer="1235" to-port="1" />
		<edge from-layer="1235" from-port="2" to-layer="1242" to-port="0" />
		<edge from-layer="1235" from-port="2" to-layer="1291" to-port="0" />
		<edge from-layer="1236" from-port="0" to-layer="1237" to-port="0" />
		<edge from-layer="1237" from-port="1" to-layer="1239" to-port="0" />
		<edge from-layer="1238" from-port="0" to-layer="1239" to-port="1" />
		<edge from-layer="1239" from-port="2" to-layer="1241" to-port="0" />
		<edge from-layer="1240" from-port="0" to-layer="1241" to-port="1" />
		<edge from-layer="1241" from-port="2" to-layer="1242" to-port="1" />
		<edge from-layer="1242" from-port="2" to-layer="1244" to-port="0" />
		<edge from-layer="1243" from-port="0" to-layer="1244" to-port="1" />
		<edge from-layer="1244" from-port="2" to-layer="1249" to-port="0" />
		<edge from-layer="1245" from-port="0" to-layer="1249" to-port="1" />
		<edge from-layer="1246" from-port="0" to-layer="1249" to-port="2" />
		<edge from-layer="1247" from-port="0" to-layer="1249" to-port="3" />
		<edge from-layer="1248" from-port="0" to-layer="1249" to-port="4" />
		<edge from-layer="1249" from-port="5" to-layer="1250" to-port="0" />
		<edge from-layer="1250" from-port="2" to-layer="1252" to-port="0" />
		<edge from-layer="1251" from-port="0" to-layer="1252" to-port="1" />
		<edge from-layer="1252" from-port="4" to-layer="1253" to-port="1" />
		<edge from-layer="1252" from-port="3" to-layer="1253" to-port="0" />
		<edge from-layer="1252" from-port="5" to-layer="1257" to-port="0" />
		<edge from-layer="1252" from-port="5" to-layer="1259" to-port="0" />
		<edge from-layer="1253" from-port="2" to-layer="1255" to-port="0" />
		<edge from-layer="1254" from-port="0" to-layer="1255" to-port="1" />
		<edge from-layer="1255" from-port="2" to-layer="1256" to-port="0" />
		<edge from-layer="1256" from-port="1" to-layer="1257" to-port="1" />
		<edge from-layer="1257" from-port="2" to-layer="1258" to-port="0" />
		<edge from-layer="1258" from-port="2" to-layer="1276" to-port="0" />
		<edge from-layer="1259" from-port="2" to-layer="1268" to-port="0" />
		<edge from-layer="1260" from-port="0" to-layer="1261" to-port="0" />
		<edge from-layer="1261" from-port="1" to-layer="1263" to-port="0" />
		<edge from-layer="1262" from-port="0" to-layer="1263" to-port="1" />
		<edge from-layer="1263" from-port="2" to-layer="1265" to-port="0" />
		<edge from-layer="1264" from-port="0" to-layer="1265" to-port="1" />
		<edge from-layer="1265" from-port="2" to-layer="1267" to-port="0" />
		<edge from-layer="1266" from-port="0" to-layer="1267" to-port="1" />
		<edge from-layer="1267" from-port="2" to-layer="1268" to-port="1" />
		<edge from-layer="1268" from-port="2" to-layer="1270" to-port="0" />
		<edge from-layer="1269" from-port="0" to-layer="1270" to-port="1" />
		<edge from-layer="1270" from-port="2" to-layer="1275" to-port="0" />
		<edge from-layer="1271" from-port="0" to-layer="1275" to-port="1" />
		<edge from-layer="1272" from-port="0" to-layer="1275" to-port="2" />
		<edge from-layer="1273" from-port="0" to-layer="1275" to-port="3" />
		<edge from-layer="1274" from-port="0" to-layer="1275" to-port="4" />
		<edge from-layer="1275" from-port="5" to-layer="1276" to-port="1" />
		<edge from-layer="1276" from-port="2" to-layer="1283" to-port="0" />
		<edge from-layer="1277" from-port="0" to-layer="1278" to-port="0" />
		<edge from-layer="1278" from-port="1" to-layer="1280" to-port="0" />
		<edge from-layer="1279" from-port="0" to-layer="1280" to-port="1" />
		<edge from-layer="1280" from-port="2" to-layer="1282" to-port="0" />
		<edge from-layer="1281" from-port="0" to-layer="1282" to-port="1" />
		<edge from-layer="1282" from-port="2" to-layer="1283" to-port="1" />
		<edge from-layer="1283" from-port="2" to-layer="1285" to-port="0" />
		<edge from-layer="1284" from-port="0" to-layer="1285" to-port="1" />
		<edge from-layer="1285" from-port="2" to-layer="1290" to-port="0" />
		<edge from-layer="1286" from-port="0" to-layer="1290" to-port="1" />
		<edge from-layer="1287" from-port="0" to-layer="1290" to-port="2" />
		<edge from-layer="1288" from-port="0" to-layer="1290" to-port="3" />
		<edge from-layer="1289" from-port="0" to-layer="1290" to-port="4" />
		<edge from-layer="1290" from-port="5" to-layer="1291" to-port="1" />
		<edge from-layer="1291" from-port="2" to-layer="1321" to-port="0" />
		<edge from-layer="1291" from-port="2" to-layer="1298" to-port="0" />
		<edge from-layer="1292" from-port="0" to-layer="1293" to-port="0" />
		<edge from-layer="1293" from-port="1" to-layer="1295" to-port="0" />
		<edge from-layer="1294" from-port="0" to-layer="1295" to-port="1" />
		<edge from-layer="1295" from-port="2" to-layer="1297" to-port="0" />
		<edge from-layer="1296" from-port="0" to-layer="1297" to-port="1" />
		<edge from-layer="1297" from-port="2" to-layer="1298" to-port="1" />
		<edge from-layer="1298" from-port="2" to-layer="1300" to-port="0" />
		<edge from-layer="1299" from-port="0" to-layer="1300" to-port="1" />
		<edge from-layer="1300" from-port="2" to-layer="1301" to-port="0" />
		<edge from-layer="1301" from-port="1" to-layer="1306" to-port="0" />
		<edge from-layer="1302" from-port="0" to-layer="1306" to-port="1" />
		<edge from-layer="1303" from-port="0" to-layer="1306" to-port="2" />
		<edge from-layer="1304" from-port="0" to-layer="1306" to-port="3" />
		<edge from-layer="1305" from-port="0" to-layer="1306" to-port="4" />
		<edge from-layer="1306" from-port="5" to-layer="1313" to-port="0" />
		<edge from-layer="1307" from-port="0" to-layer="1308" to-port="0" />
		<edge from-layer="1308" from-port="1" to-layer="1310" to-port="0" />
		<edge from-layer="1309" from-port="0" to-layer="1310" to-port="1" />
		<edge from-layer="1310" from-port="2" to-layer="1312" to-port="0" />
		<edge from-layer="1311" from-port="0" to-layer="1312" to-port="1" />
		<edge from-layer="1312" from-port="2" to-layer="1313" to-port="1" />
		<edge from-layer="1313" from-port="2" to-layer="1315" to-port="0" />
		<edge from-layer="1314" from-port="0" to-layer="1315" to-port="1" />
		<edge from-layer="1315" from-port="2" to-layer="1320" to-port="0" />
		<edge from-layer="1316" from-port="0" to-layer="1320" to-port="1" />
		<edge from-layer="1317" from-port="0" to-layer="1320" to-port="2" />
		<edge from-layer="1318" from-port="0" to-layer="1320" to-port="3" />
		<edge from-layer="1319" from-port="0" to-layer="1320" to-port="4" />
		<edge from-layer="1320" from-port="5" to-layer="1321" to-port="1" />
		<edge from-layer="1321" from-port="2" to-layer="1322" to-port="2" />
		<edge from-layer="1322" from-port="3" to-layer="1329" to-port="0" />
		<edge from-layer="1323" from-port="0" to-layer="1324" to-port="0" />
		<edge from-layer="1324" from-port="1" to-layer="1326" to-port="0" />
		<edge from-layer="1325" from-port="0" to-layer="1326" to-port="1" />
		<edge from-layer="1326" from-port="2" to-layer="1328" to-port="0" />
		<edge from-layer="1327" from-port="0" to-layer="1328" to-port="1" />
		<edge from-layer="1328" from-port="2" to-layer="1329" to-port="1" />
		<edge from-layer="1329" from-port="2" to-layer="1331" to-port="0" />
		<edge from-layer="1330" from-port="0" to-layer="1331" to-port="1" />
		<edge from-layer="1331" from-port="2" to-layer="1332" to-port="0" />
		<edge from-layer="1332" from-port="1" to-layer="1337" to-port="0" />
		<edge from-layer="1333" from-port="0" to-layer="1337" to-port="1" />
		<edge from-layer="1334" from-port="0" to-layer="1337" to-port="2" />
		<edge from-layer="1335" from-port="0" to-layer="1337" to-port="3" />
		<edge from-layer="1336" from-port="0" to-layer="1337" to-port="4" />
		<edge from-layer="1337" from-port="5" to-layer="1538" to-port="0" />
		<edge from-layer="1337" from-port="5" to-layer="1344" to-port="0" />
		<edge from-layer="1338" from-port="0" to-layer="1339" to-port="0" />
		<edge from-layer="1339" from-port="1" to-layer="1341" to-port="0" />
		<edge from-layer="1340" from-port="0" to-layer="1341" to-port="1" />
		<edge from-layer="1341" from-port="2" to-layer="1343" to-port="0" />
		<edge from-layer="1342" from-port="0" to-layer="1343" to-port="1" />
		<edge from-layer="1343" from-port="2" to-layer="1344" to-port="1" />
		<edge from-layer="1344" from-port="2" to-layer="1346" to-port="0" />
		<edge from-layer="1345" from-port="0" to-layer="1346" to-port="1" />
		<edge from-layer="1346" from-port="2" to-layer="1347" to-port="0" />
		<edge from-layer="1347" from-port="1" to-layer="1352" to-port="0" />
		<edge from-layer="1348" from-port="0" to-layer="1352" to-port="1" />
		<edge from-layer="1349" from-port="0" to-layer="1352" to-port="2" />
		<edge from-layer="1350" from-port="0" to-layer="1352" to-port="3" />
		<edge from-layer="1351" from-port="0" to-layer="1352" to-port="4" />
		<edge from-layer="1352" from-port="5" to-layer="1359" to-port="0" />
		<edge from-layer="1353" from-port="0" to-layer="1354" to-port="0" />
		<edge from-layer="1354" from-port="1" to-layer="1356" to-port="0" />
		<edge from-layer="1355" from-port="0" to-layer="1356" to-port="1" />
		<edge from-layer="1356" from-port="2" to-layer="1358" to-port="0" />
		<edge from-layer="1357" from-port="0" to-layer="1358" to-port="1" />
		<edge from-layer="1358" from-port="2" to-layer="1359" to-port="1" />
		<edge from-layer="1359" from-port="2" to-layer="1361" to-port="0" />
		<edge from-layer="1360" from-port="0" to-layer="1361" to-port="1" />
		<edge from-layer="1361" from-port="2" to-layer="1362" to-port="0" />
		<edge from-layer="1362" from-port="1" to-layer="1367" to-port="0" />
		<edge from-layer="1363" from-port="0" to-layer="1367" to-port="1" />
		<edge from-layer="1364" from-port="0" to-layer="1367" to-port="2" />
		<edge from-layer="1365" from-port="0" to-layer="1367" to-port="3" />
		<edge from-layer="1366" from-port="0" to-layer="1367" to-port="4" />
		<edge from-layer="1367" from-port="5" to-layer="1369" to-port="0" />
		<edge from-layer="1368" from-port="0" to-layer="1369" to-port="1" />
		<edge from-layer="1369" from-port="2" to-layer="1371" to-port="0" />
		<edge from-layer="1370" from-port="0" to-layer="1371" to-port="1" />
		<edge from-layer="1371" from-port="2" to-layer="1373" to-port="0" />
		<edge from-layer="1372" from-port="0" to-layer="1373" to-port="1" />
		<edge from-layer="1373" from-port="2" to-layer="1374" to-port="2" />
		<edge from-layer="1374" from-port="3" to-layer="1381" to-port="0" />
		<edge from-layer="1374" from-port="3" to-layer="1375" to-port="0" />
		<edge from-layer="1374" from-port="3" to-layer="1385" to-port="0" />
		<edge from-layer="1375" from-port="1" to-layer="1377" to-port="0" />
		<edge from-layer="1376" from-port="0" to-layer="1377" to-port="2" />
		<edge from-layer="1377" from-port="3" to-layer="1378" to-port="0" />
		<edge from-layer="1378" from-port="2" to-layer="1380" to-port="0" />
		<edge from-layer="1379" from-port="0" to-layer="1383" to-port="1" />
		<edge from-layer="1379" from-port="0" to-layer="1380" to-port="1" />
		<edge from-layer="1379" from-port="0" to-layer="1656" to-port="1" />
		<edge from-layer="1379" from-port="0" to-layer="1654" to-port="1" />
		<edge from-layer="1380" from-port="2" to-layer="1385" to-port="1" />
		<edge from-layer="1380" from-port="2" to-layer="1381" to-port="2" />
		<edge from-layer="1380" from-port="2" to-layer="1383" to-port="0" />
		<edge from-layer="1381" from-port="5" to-layer="1382" to-port="1" />
		<edge from-layer="1382" from-port="2" to-layer="1387" to-port="0" />
		<edge from-layer="1383" from-port="2" to-layer="1385" to-port="2" />
		<edge from-layer="1384" from-port="0" to-layer="1385" to-port="3" />
		<edge from-layer="1385" from-port="5" to-layer="1386" to-port="1" />
		<edge from-layer="1386" from-port="2" to-layer="1387" to-port="1" />
		<edge from-layer="1387" from-port="2" to-layer="1389" to-port="0" />
		<edge from-layer="1388" from-port="0" to-layer="1389" to-port="1" />
		<edge from-layer="1389" from-port="2" to-layer="1602" to-port="0" />
		<edge from-layer="1390" from-port="0" to-layer="1391" to-port="0" />
		<edge from-layer="1391" from-port="1" to-layer="1393" to-port="0" />
		<edge from-layer="1392" from-port="0" to-layer="1393" to-port="1" />
		<edge from-layer="1393" from-port="2" to-layer="1395" to-port="0" />
		<edge from-layer="1394" from-port="0" to-layer="1395" to-port="1" />
		<edge from-layer="1395" from-port="2" to-layer="1397" to-port="0" />
		<edge from-layer="1396" from-port="0" to-layer="1397" to-port="1" />
		<edge from-layer="1397" from-port="2" to-layer="1398" to-port="1" />
		<edge from-layer="1398" from-port="2" to-layer="1400" to-port="0" />
		<edge from-layer="1399" from-port="0" to-layer="1400" to-port="1" />
		<edge from-layer="1400" from-port="2" to-layer="1401" to-port="0" />
		<edge from-layer="1401" from-port="1" to-layer="1406" to-port="0" />
		<edge from-layer="1402" from-port="0" to-layer="1406" to-port="1" />
		<edge from-layer="1403" from-port="0" to-layer="1406" to-port="2" />
		<edge from-layer="1404" from-port="0" to-layer="1406" to-port="3" />
		<edge from-layer="1405" from-port="0" to-layer="1406" to-port="4" />
		<edge from-layer="1406" from-port="5" to-layer="1413" to-port="0" />
		<edge from-layer="1407" from-port="0" to-layer="1408" to-port="0" />
		<edge from-layer="1408" from-port="1" to-layer="1410" to-port="0" />
		<edge from-layer="1409" from-port="0" to-layer="1410" to-port="1" />
		<edge from-layer="1410" from-port="2" to-layer="1412" to-port="0" />
		<edge from-layer="1411" from-port="0" to-layer="1412" to-port="1" />
		<edge from-layer="1412" from-port="2" to-layer="1413" to-port="1" />
		<edge from-layer="1413" from-port="2" to-layer="1415" to-port="0" />
		<edge from-layer="1414" from-port="0" to-layer="1415" to-port="1" />
		<edge from-layer="1415" from-port="2" to-layer="1416" to-port="0" />
		<edge from-layer="1416" from-port="1" to-layer="1421" to-port="0" />
		<edge from-layer="1417" from-port="0" to-layer="1421" to-port="1" />
		<edge from-layer="1418" from-port="0" to-layer="1421" to-port="2" />
		<edge from-layer="1419" from-port="0" to-layer="1421" to-port="3" />
		<edge from-layer="1420" from-port="0" to-layer="1421" to-port="4" />
		<edge from-layer="1421" from-port="5" to-layer="1430" to-port="0" />
		<edge from-layer="1422" from-port="0" to-layer="1423" to-port="0" />
		<edge from-layer="1423" from-port="1" to-layer="1425" to-port="0" />
		<edge from-layer="1424" from-port="0" to-layer="1425" to-port="1" />
		<edge from-layer="1425" from-port="2" to-layer="1427" to-port="0" />
		<edge from-layer="1426" from-port="0" to-layer="1427" to-port="1" />
		<edge from-layer="1427" from-port="2" to-layer="1429" to-port="0" />
		<edge from-layer="1428" from-port="0" to-layer="1429" to-port="1" />
		<edge from-layer="1429" from-port="2" to-layer="1430" to-port="1" />
		<edge from-layer="1430" from-port="2" to-layer="1432" to-port="0" />
		<edge from-layer="1431" from-port="0" to-layer="1432" to-port="1" />
		<edge from-layer="1432" from-port="2" to-layer="1433" to-port="0" />
		<edge from-layer="1433" from-port="1" to-layer="1438" to-port="0" />
		<edge from-layer="1434" from-port="0" to-layer="1438" to-port="1" />
		<edge from-layer="1435" from-port="0" to-layer="1438" to-port="2" />
		<edge from-layer="1436" from-port="0" to-layer="1438" to-port="3" />
		<edge from-layer="1437" from-port="0" to-layer="1438" to-port="4" />
		<edge from-layer="1438" from-port="5" to-layer="1445" to-port="0" />
		<edge from-layer="1439" from-port="0" to-layer="1440" to-port="0" />
		<edge from-layer="1440" from-port="1" to-layer="1442" to-port="0" />
		<edge from-layer="1441" from-port="0" to-layer="1442" to-port="1" />
		<edge from-layer="1442" from-port="2" to-layer="1444" to-port="0" />
		<edge from-layer="1443" from-port="0" to-layer="1444" to-port="1" />
		<edge from-layer="1444" from-port="2" to-layer="1445" to-port="1" />
		<edge from-layer="1445" from-port="2" to-layer="1447" to-port="0" />
		<edge from-layer="1446" from-port="0" to-layer="1447" to-port="1" />
		<edge from-layer="1447" from-port="2" to-layer="1448" to-port="0" />
		<edge from-layer="1448" from-port="1" to-layer="1453" to-port="0" />
		<edge from-layer="1449" from-port="0" to-layer="1453" to-port="1" />
		<edge from-layer="1450" from-port="0" to-layer="1453" to-port="2" />
		<edge from-layer="1451" from-port="0" to-layer="1453" to-port="3" />
		<edge from-layer="1452" from-port="0" to-layer="1453" to-port="4" />
		<edge from-layer="1453" from-port="5" to-layer="1455" to-port="0" />
		<edge from-layer="1454" from-port="0" to-layer="1455" to-port="1" />
		<edge from-layer="1455" from-port="2" to-layer="1457" to-port="0" />
		<edge from-layer="1456" from-port="0" to-layer="1457" to-port="1" />
		<edge from-layer="1457" from-port="2" to-layer="1459" to-port="0" />
		<edge from-layer="1458" from-port="0" to-layer="1459" to-port="1" />
		<edge from-layer="1459" from-port="2" to-layer="1600" to-port="0" />
		<edge from-layer="1460" from-port="0" to-layer="1461" to-port="0" />
		<edge from-layer="1461" from-port="1" to-layer="1463" to-port="0" />
		<edge from-layer="1462" from-port="0" to-layer="1463" to-port="1" />
		<edge from-layer="1463" from-port="2" to-layer="1465" to-port="0" />
		<edge from-layer="1464" from-port="0" to-layer="1465" to-port="1" />
		<edge from-layer="1465" from-port="2" to-layer="1467" to-port="0" />
		<edge from-layer="1466" from-port="0" to-layer="1467" to-port="1" />
		<edge from-layer="1467" from-port="2" to-layer="1468" to-port="1" />
		<edge from-layer="1468" from-port="2" to-layer="1470" to-port="0" />
		<edge from-layer="1469" from-port="0" to-layer="1470" to-port="1" />
		<edge from-layer="1470" from-port="2" to-layer="1471" to-port="0" />
		<edge from-layer="1471" from-port="1" to-layer="1476" to-port="0" />
		<edge from-layer="1472" from-port="0" to-layer="1476" to-port="1" />
		<edge from-layer="1473" from-port="0" to-layer="1476" to-port="2" />
		<edge from-layer="1474" from-port="0" to-layer="1476" to-port="3" />
		<edge from-layer="1475" from-port="0" to-layer="1476" to-port="4" />
		<edge from-layer="1476" from-port="5" to-layer="1483" to-port="0" />
		<edge from-layer="1477" from-port="0" to-layer="1478" to-port="0" />
		<edge from-layer="1478" from-port="1" to-layer="1480" to-port="0" />
		<edge from-layer="1479" from-port="0" to-layer="1480" to-port="1" />
		<edge from-layer="1480" from-port="2" to-layer="1482" to-port="0" />
		<edge from-layer="1481" from-port="0" to-layer="1482" to-port="1" />
		<edge from-layer="1482" from-port="2" to-layer="1483" to-port="1" />
		<edge from-layer="1483" from-port="2" to-layer="1485" to-port="0" />
		<edge from-layer="1484" from-port="0" to-layer="1485" to-port="1" />
		<edge from-layer="1485" from-port="2" to-layer="1486" to-port="0" />
		<edge from-layer="1486" from-port="1" to-layer="1491" to-port="0" />
		<edge from-layer="1487" from-port="0" to-layer="1491" to-port="1" />
		<edge from-layer="1488" from-port="0" to-layer="1491" to-port="2" />
		<edge from-layer="1489" from-port="0" to-layer="1491" to-port="3" />
		<edge from-layer="1490" from-port="0" to-layer="1491" to-port="4" />
		<edge from-layer="1491" from-port="5" to-layer="1500" to-port="0" />
		<edge from-layer="1492" from-port="0" to-layer="1493" to-port="0" />
		<edge from-layer="1493" from-port="1" to-layer="1495" to-port="0" />
		<edge from-layer="1494" from-port="0" to-layer="1495" to-port="1" />
		<edge from-layer="1495" from-port="2" to-layer="1497" to-port="0" />
		<edge from-layer="1496" from-port="0" to-layer="1497" to-port="1" />
		<edge from-layer="1497" from-port="2" to-layer="1499" to-port="0" />
		<edge from-layer="1498" from-port="0" to-layer="1499" to-port="1" />
		<edge from-layer="1499" from-port="2" to-layer="1500" to-port="1" />
		<edge from-layer="1500" from-port="2" to-layer="1502" to-port="0" />
		<edge from-layer="1501" from-port="0" to-layer="1502" to-port="1" />
		<edge from-layer="1502" from-port="2" to-layer="1503" to-port="0" />
		<edge from-layer="1503" from-port="1" to-layer="1508" to-port="0" />
		<edge from-layer="1504" from-port="0" to-layer="1508" to-port="1" />
		<edge from-layer="1505" from-port="0" to-layer="1508" to-port="2" />
		<edge from-layer="1506" from-port="0" to-layer="1508" to-port="3" />
		<edge from-layer="1507" from-port="0" to-layer="1508" to-port="4" />
		<edge from-layer="1508" from-port="5" to-layer="1515" to-port="0" />
		<edge from-layer="1509" from-port="0" to-layer="1510" to-port="0" />
		<edge from-layer="1510" from-port="1" to-layer="1512" to-port="0" />
		<edge from-layer="1511" from-port="0" to-layer="1512" to-port="1" />
		<edge from-layer="1512" from-port="2" to-layer="1514" to-port="0" />
		<edge from-layer="1513" from-port="0" to-layer="1514" to-port="1" />
		<edge from-layer="1514" from-port="2" to-layer="1515" to-port="1" />
		<edge from-layer="1515" from-port="2" to-layer="1517" to-port="0" />
		<edge from-layer="1516" from-port="0" to-layer="1517" to-port="1" />
		<edge from-layer="1517" from-port="2" to-layer="1518" to-port="0" />
		<edge from-layer="1518" from-port="1" to-layer="1523" to-port="0" />
		<edge from-layer="1519" from-port="0" to-layer="1523" to-port="1" />
		<edge from-layer="1520" from-port="0" to-layer="1523" to-port="2" />
		<edge from-layer="1521" from-port="0" to-layer="1523" to-port="3" />
		<edge from-layer="1522" from-port="0" to-layer="1523" to-port="4" />
		<edge from-layer="1523" from-port="5" to-layer="1525" to-port="0" />
		<edge from-layer="1524" from-port="0" to-layer="1525" to-port="1" />
		<edge from-layer="1525" from-port="2" to-layer="1527" to-port="0" />
		<edge from-layer="1526" from-port="0" to-layer="1527" to-port="1" />
		<edge from-layer="1527" from-port="2" to-layer="1529" to-port="0" />
		<edge from-layer="1528" from-port="0" to-layer="1529" to-port="1" />
		<edge from-layer="1529" from-port="2" to-layer="1600" to-port="1" />
		<edge from-layer="1530" from-port="0" to-layer="1531" to-port="0" />
		<edge from-layer="1531" from-port="1" to-layer="1533" to-port="0" />
		<edge from-layer="1532" from-port="0" to-layer="1533" to-port="1" />
		<edge from-layer="1533" from-port="2" to-layer="1535" to-port="0" />
		<edge from-layer="1534" from-port="0" to-layer="1535" to-port="1" />
		<edge from-layer="1535" from-port="2" to-layer="1537" to-port="0" />
		<edge from-layer="1536" from-port="0" to-layer="1537" to-port="1" />
		<edge from-layer="1537" from-port="2" to-layer="1538" to-port="1" />
		<edge from-layer="1538" from-port="2" to-layer="1540" to-port="0" />
		<edge from-layer="1539" from-port="0" to-layer="1540" to-port="1" />
		<edge from-layer="1540" from-port="2" to-layer="1541" to-port="0" />
		<edge from-layer="1541" from-port="1" to-layer="1546" to-port="0" />
		<edge from-layer="1542" from-port="0" to-layer="1546" to-port="1" />
		<edge from-layer="1543" from-port="0" to-layer="1546" to-port="2" />
		<edge from-layer="1544" from-port="0" to-layer="1546" to-port="3" />
		<edge from-layer="1545" from-port="0" to-layer="1546" to-port="4" />
		<edge from-layer="1546" from-port="5" to-layer="1553" to-port="0" />
		<edge from-layer="1547" from-port="0" to-layer="1548" to-port="0" />
		<edge from-layer="1548" from-port="1" to-layer="1550" to-port="0" />
		<edge from-layer="1549" from-port="0" to-layer="1550" to-port="1" />
		<edge from-layer="1550" from-port="2" to-layer="1552" to-port="0" />
		<edge from-layer="1551" from-port="0" to-layer="1552" to-port="1" />
		<edge from-layer="1552" from-port="2" to-layer="1553" to-port="1" />
		<edge from-layer="1553" from-port="2" to-layer="1555" to-port="0" />
		<edge from-layer="1554" from-port="0" to-layer="1555" to-port="1" />
		<edge from-layer="1555" from-port="2" to-layer="1556" to-port="0" />
		<edge from-layer="1556" from-port="1" to-layer="1561" to-port="0" />
		<edge from-layer="1557" from-port="0" to-layer="1561" to-port="1" />
		<edge from-layer="1558" from-port="0" to-layer="1561" to-port="2" />
		<edge from-layer="1559" from-port="0" to-layer="1561" to-port="3" />
		<edge from-layer="1560" from-port="0" to-layer="1561" to-port="4" />
		<edge from-layer="1561" from-port="5" to-layer="1570" to-port="0" />
		<edge from-layer="1562" from-port="0" to-layer="1563" to-port="0" />
		<edge from-layer="1563" from-port="1" to-layer="1565" to-port="0" />
		<edge from-layer="1564" from-port="0" to-layer="1565" to-port="1" />
		<edge from-layer="1565" from-port="2" to-layer="1567" to-port="0" />
		<edge from-layer="1566" from-port="0" to-layer="1567" to-port="1" />
		<edge from-layer="1567" from-port="2" to-layer="1569" to-port="0" />
		<edge from-layer="1568" from-port="0" to-layer="1569" to-port="1" />
		<edge from-layer="1569" from-port="2" to-layer="1570" to-port="1" />
		<edge from-layer="1570" from-port="2" to-layer="1572" to-port="0" />
		<edge from-layer="1571" from-port="0" to-layer="1572" to-port="1" />
		<edge from-layer="1572" from-port="2" to-layer="1573" to-port="0" />
		<edge from-layer="1573" from-port="1" to-layer="1578" to-port="0" />
		<edge from-layer="1574" from-port="0" to-layer="1578" to-port="1" />
		<edge from-layer="1575" from-port="0" to-layer="1578" to-port="2" />
		<edge from-layer="1576" from-port="0" to-layer="1578" to-port="3" />
		<edge from-layer="1577" from-port="0" to-layer="1578" to-port="4" />
		<edge from-layer="1578" from-port="5" to-layer="1585" to-port="0" />
		<edge from-layer="1579" from-port="0" to-layer="1580" to-port="0" />
		<edge from-layer="1580" from-port="1" to-layer="1582" to-port="0" />
		<edge from-layer="1581" from-port="0" to-layer="1582" to-port="1" />
		<edge from-layer="1582" from-port="2" to-layer="1584" to-port="0" />
		<edge from-layer="1583" from-port="0" to-layer="1584" to-port="1" />
		<edge from-layer="1584" from-port="2" to-layer="1585" to-port="1" />
		<edge from-layer="1585" from-port="2" to-layer="1587" to-port="0" />
		<edge from-layer="1586" from-port="0" to-layer="1587" to-port="1" />
		<edge from-layer="1587" from-port="2" to-layer="1588" to-port="0" />
		<edge from-layer="1588" from-port="1" to-layer="1593" to-port="0" />
		<edge from-layer="1589" from-port="0" to-layer="1593" to-port="1" />
		<edge from-layer="1590" from-port="0" to-layer="1593" to-port="2" />
		<edge from-layer="1591" from-port="0" to-layer="1593" to-port="3" />
		<edge from-layer="1592" from-port="0" to-layer="1593" to-port="4" />
		<edge from-layer="1593" from-port="5" to-layer="1595" to-port="0" />
		<edge from-layer="1594" from-port="0" to-layer="1595" to-port="1" />
		<edge from-layer="1595" from-port="2" to-layer="1597" to-port="0" />
		<edge from-layer="1596" from-port="0" to-layer="1597" to-port="1" />
		<edge from-layer="1597" from-port="2" to-layer="1599" to-port="0" />
		<edge from-layer="1598" from-port="0" to-layer="1599" to-port="1" />
		<edge from-layer="1599" from-port="2" to-layer="1600" to-port="2" />
		<edge from-layer="1600" from-port="3" to-layer="1601" to-port="0" />
		<edge from-layer="1601" from-port="1" to-layer="1602" to-port="1" />
		<edge from-layer="1602" from-port="2" to-layer="1604" to-port="0" />
		<edge from-layer="1603" from-port="0" to-layer="1604" to-port="1" />
		<edge from-layer="1604" from-port="2" to-layer="1607" to-port="0" />
		<edge from-layer="1605" from-port="0" to-layer="1607" to-port="1" />
		<edge from-layer="1606" from-port="0" to-layer="1607" to-port="2" />
		<edge from-layer="1607" from-port="4" to-layer="1624" to-port="0" />
		<edge from-layer="1607" from-port="4" to-layer="1629" to-port="0" />
		<edge from-layer="1607" from-port="4" to-layer="1609" to-port="0" />
		<edge from-layer="1607" from-port="3" to-layer="1653" to-port="0" />
		<edge from-layer="1608" from-port="0" to-layer="1609" to-port="1" />
		<edge from-layer="1609" from-port="2" to-layer="1611" to-port="0" />
		<edge from-layer="1610" from-port="0" to-layer="1611" to-port="1" />
		<edge from-layer="1611" from-port="3" to-layer="1613" to-port="0" />
		<edge from-layer="1612" from-port="0" to-layer="1613" to-port="1" />
		<edge from-layer="1613" from-port="2" to-layer="1623" to-port="0" />
		<edge from-layer="1613" from-port="2" to-layer="1614" to-port="0" />
		<edge from-layer="1613" from-port="2" to-layer="1624" to-port="1" />
		<edge from-layer="1614" from-port="1" to-layer="1644" to-port="0" />
		<edge from-layer="1614" from-port="1" to-layer="1618" to-port="0" />
		<edge from-layer="1615" from-port="0" to-layer="1618" to-port="1" />
		<edge from-layer="1616" from-port="0" to-layer="1618" to-port="2" />
		<edge from-layer="1617" from-port="0" to-layer="1618" to-port="3" />
		<edge from-layer="1618" from-port="4" to-layer="1620" to-port="0" />
		<edge from-layer="1619" from-port="0" to-layer="1620" to-port="1" />
		<edge from-layer="1620" from-port="2" to-layer="1622" to-port="0" />
		<edge from-layer="1621" from-port="0" to-layer="1622" to-port="1" />
		<edge from-layer="1622" from-port="2" to-layer="1623" to-port="1" />
		<edge from-layer="1623" from-port="2" to-layer="1648" to-port="0" />
		<edge from-layer="1624" from-port="2" to-layer="1626" to-port="0" />
		<edge from-layer="1625" from-port="0" to-layer="1626" to-port="1" />
		<edge from-layer="1626" from-port="2" to-layer="1628" to-port="0" />
		<edge from-layer="1627" from-port="0" to-layer="1628" to-port="1" />
		<edge from-layer="1628" from-port="2" to-layer="1654" to-port="0" />
		<edge from-layer="1628" from-port="3" to-layer="1655" to-port="0" />
		<edge from-layer="1628" from-port="3" to-layer="1633" to-port="0" />
		<edge from-layer="1629" from-port="1" to-layer="1632" to-port="0" />
		<edge from-layer="1630" from-port="0" to-layer="1632" to-port="1" />
		<edge from-layer="1631" from-port="0" to-layer="1632" to-port="2" />
		<edge from-layer="1632" from-port="3" to-layer="1655" to-port="1" />
		<edge from-layer="1632" from-port="3" to-layer="1633" to-port="1" />
		<edge from-layer="1633" from-port="2" to-layer="1646" to-port="0" />
		<edge from-layer="1634" from-port="0" to-layer="1641" to-port="0" />
		<edge from-layer="1635" from-port="1" to-layer="1638" to-port="0" />
		<edge from-layer="1636" from-port="0" to-layer="1638" to-port="1" />
		<edge from-layer="1637" from-port="0" to-layer="1638" to-port="2" />
		<edge from-layer="1638" from-port="3" to-layer="1639" to-port="0" />
		<edge from-layer="1639" from-port="1" to-layer="1641" to-port="1" />
		<edge from-layer="1640" from-port="0" to-layer="1641" to-port="2" />
		<edge from-layer="1641" from-port="3" to-layer="1642" to-port="0" />
		<edge from-layer="1642" from-port="2" to-layer="1645" to-port="0" />
		<edge from-layer="1643" from-port="0" to-layer="1644" to-port="2" />
		<edge from-layer="1644" from-port="3" to-layer="1645" to-port="1" />
		<edge from-layer="1645" from-port="2" to-layer="1646" to-port="1" />
		<edge from-layer="1646" from-port="2" to-layer="1648" to-port="1" />
		<edge from-layer="1647" from-port="0" to-layer="1648" to-port="2" />
		<edge from-layer="1648" from-port="3" to-layer="1650" to-port="0" />
		<edge from-layer="1649" from-port="0" to-layer="1650" to-port="1" />
		<edge from-layer="1650" from-port="2" to-layer="1652" to-port="0" />
		<edge from-layer="1651" from-port="0" to-layer="1652" to-port="1" />
		<edge from-layer="1652" from-port="2" to-layer="1653" to-port="1" />
		<edge from-layer="1653" from-port="2" to-layer="1658" to-port="0" />
		<edge from-layer="1654" from-port="2" to-layer="1658" to-port="1" />
		<edge from-layer="1655" from-port="2" to-layer="1656" to-port="0" />
		<edge from-layer="1656" from-port="2" to-layer="1657" to-port="0" />
		<edge from-layer="1657" from-port="1" to-layer="1658" to-port="2" />
		<edge from-layer="1658" from-port="3" to-layer="1659" to-port="0" />
	</edges>
	<rt_info>
		<info name="OpenVINO Runtime" value="2026.2.0-21903-52ddc073857-releases/2026/2" />
		<Runtime_version value="2026.2.0-21903-52ddc073857-releases/2026/2" />
		<conversion_parameters>
			<input_model value="DIR/yolov26n_qat_plate_int8.onnx" />
			<is_python_object value="False" />
		</conversion_parameters>
	</rt_info>
</net>
